binary_classification_model.pth (torch, 69463 bytes, 7 tensors)

fc1.weight f4 [50, 128]
0.011058223 0.02415254 0.016381321 0.09404027 -0.118454896 0.18768606 0.11842116 -0.07236441
0.047125258 0.09715083 0.0591332 0.11742072 0.116888456 0.05787416 0.12285998 0.10147037
0.02634561 -0.012032012 0.003990245 -0.07076227 0.06882379 0.059693888 0.10346561 -0.13038324
0.09721578 0.016228244 0.047451776 0.08392324 0.0026315707 0.10112083 -0.095501535 -0.004856237
-0.05070492 -0.075583585 0.06309676 0.048853226 -0.029355187 -0.11710925 0.024472645 0.18777032
0.01149088 0.11145696 0.047976375 0.09491469 0.062031645 0.0063902326 0.020104373 0.008107602
-0.119569056 0.048830368 0.05748413 0.059160583 -0.10037111 0.031141508 0.12972377 -0.05516496
-0.024617856 0.029750569 0.20550339 -0.02404163 -0.015590598 -0.011158702 -0.1034515 0.19499724
0.044655237 0.08666043 -0.03612111 -0.025304457 0.0777608 0.11168899 -0.040805753 0.15950848
-0.03682347 0.09453031 -0.017983422 -0.12867384 -0.054445077 -0.076357685 -0.027789686 -0.05254631
0.01476531 -0.0822172 0.046334334 0.13344118 -0.033634827 -0.03886663 0.09948698 0.08526618
0.08938739 0.036387406 -0.063259125 -0.09472192 0.041235324 0.06591385 -0.15642871 0.04831643
-0.004931823 0.17740425 0.054043557 0.012471693 0.015247826 0.012078167 0.11104853 0.07272237
0.012942967 0.037300058 -0.032774154 0.068705216 0.014771359 -0.06018437 -0.1384427 0.057638746
0.07567999 0.10902039 0.023378361 -0.04272916 0.062205233 0.037713762 0.12229166 0.11377103
0.0153438905 -0.0066070873 0.017313939 0.09128312 0.0074585574 -0.03340645 -0.041267455 -0.042094827
-0.75078785 -0.13553843 0.070618406 -0.3075729 0.0855864 0.30293024 -0.052064735 0.2254214
0.26213834 -0.18379168 0.58387727 0.67297155 0.013559193 0.33153683 0.5116344 0.4827991
0.63502574 -0.38797984 -0.38562667 -0.27829355 0.51794213 0.30415592 -0.32259884 -0.41729063
0.4321489 0.44409096 -0.1560762 -0.14026685 0.022510832 0.17969547 0.58483756 0.48172837
-0.23669365 0.12549832 0.21643709 0.30039373 0.21627925 -0.007728705 0.15271598 0.5305967
0.61718637 -0.039843023 0.33720016 -0.05335156 0.45021206 0.52414477 -0.40635866 -0.06736967
0.069578476 0.41370037 0.35260338 -0.2850129 -0.030199425 0.43114552 0.53930277 -0.65220237
-0.065594696 -0.02207454 -0.14543603 -0.2759508 -0.23426804 -0.33523175 0.111138575 0.33287817
-0.31238252 0.04957522 -0.018347565 0.13156797 0.58280075 0.63529027 -0.08821539 0.1157094
0.4097819 0.3305666 0.40541416 -0.3156742 0.02005496 0.022774618 0.5875767 -0.545965
0.6554435 -0.1323052 0.30502507 0.49180785 -0.17428209 0.028599612 0.08447018 -0.3143381
-0.18733017 0.0053658476 -0.31055793 0.16341701 0.14652276 -0.0053233136 0.13443021 0.078636244
-0.19351308 0.42148992 0.43458515 -0.011879426 0.32379377 0.1393959 0.5329817 -0.00042197097
0.002462189 -0.17069046 -0.04510832 0.3521846 -0.52667266 0.7010432 -0.06991333 0.03812615
-0.10854082 0.037355114 0.031328153 0.002267122 0.077373415 0.07900557 0.07822843 -0.043066982
-0.003013496 0.041791674 0.020527976 0.13102354 -0.066824615 0.0033622326 -0.050810657 -0.08438167
00000000: 8d2d 353c 8cdb c53c 1f32 863c 2f98 c03d
00000010: 7b98 f2bd c630 403e cb86 f23d cb33 94bd
00000020: 6a06 413d 04f7 c63d a835 723d 467a f03d
00000030: 3763 ef3d 750d 6d3d 039e fb3d b3cf cf3d
00000040: c0d2 d73c eb21 45bc 9ac0 823b cfeb 90bd
00000050: 7df3 8c3d 9481 743d c7e5 d33d 2f83 05be
00000060: 1119 c73d 18f1 843c cb5c 423d f3df ab3d
00000070: 6e76 2c3b 7018 cf3d 4f96 c3bd 1221 9fbb
00000080: f6af 4fbd 91cb 9abd e038 813d 521a 483d
00000090: 4a7a f0bc f9d6 efbd db7a c83c dd46 403e
000000a0: 3e44 3c3c 8c43 e43d e082 443d a262 c23d
000000b0: e514 7e3d 2865 d13b edb1 a43c bfd5 043c
000000c0: 9fe0 f4bd 5a02 483d 7b74 6b3d 5e52 723d
000000d0: 5e8f cdbd 7a1c ff3c 4fd6 043e a7f4 61bd
000000e0: 63ab c9bc 77b7 f33c 7b6f 523e f4f2 c4bc
000000f0: b56f 7fbc fdd2 36bc 61de d3bd 5bad 473e
00000100: 69e8 363d 067b b13d bbf3 13bd 4b4b cfbc
00000110: 0e41 9f3d 32bd e43d ef23 27bd 3156 233e
00000120: 35d4 16bd 1b99 c13d f851 93bc 13c3 03be
00000130: cd01 5fbd 6b61 9cbd 32a7 e3bc cd3a 57bd
00000140: 33ea 713c 7e61 a8bd 12c9 3d3d cea4 083e
00000150: acc4 09bd 9e32 1fbd d4bf cb3d 09a0 ae3d
00000160: bc10 b73d f60a 153d 008e 81bd 91fd c1bd
00000170: 5fe6 283d d7fd 863d d92e 20be 73e7 453d
00000180: 219b a1bb 76a9 353e c75c 5d3d 1256 4c3c
00000190: 05d2 793c 81e3 453c 696d e33d 77ef 943d
000001a0: bd0e 543c f2c7 183d 313e 06bd 52b5 8c3d
000001b0: 9203 723c e383 76bd ecc3 0dbe 9b16 6c3d
000001c0: 1cfe 9a3d 1546 df3d fa83 bf3c c604 2fbd
000001d0: eaca 7e3d bf79 1a3d 0d74 fa3d c900 e93d
000001e0: f164 7b3c 4480 d8bb f6d5 8d3c a5f2 ba3d
000001f0: ea66 f43b 34d5 08bd 1008 29bd a06b 2cbd
00000200: a233 40bf 96ca 0abe 62a0 903d 327a 9dbe
00000210: ec47 af3d ac19 9b3e d541 55bd ded4 663e
00000220: ff36 863e e333 3cbe fb78 153f dd47 2c3f
00000230: 6127 5e3c 32bf a93e 79fa 023f 7231 f73e
00000240: 0c91 223f 4ba5 c6be dc70 c5be 7e7c 8ebe
00000250: db97 043f 53ba 9b3e ad2b a5be 1ea7 d5be
00000260: 9f42 dd3e e45f e33e 70d2 1fbe 1da2 0fbe
00000270: a368 b83c 1702 383e eab7 153f 1aa5 f63e
00000280: d25f 72be a282 003e afa1 5d3e 35cd 993e
00000290: 4f78 5d3e 1441 fdbb 9461 1c3e 2fd5 073f
000002a0: edff 1d3f 7032 23bd 80a5 ac3e 2a87 5abd
000002b0: 3282 e63e 5a2e 063f 3e0e d0be 1cf9 89bd
000002c0: 297f 8e3d 89d0 d33e 6e88 b43e 36ed 91be
000002d0: c964 f7bc 1bbf dc3e bf0f 0a3f bcf6 26bf
000002e0: 8356 86bd aad5 b4bc 2fed 14be 6c49 8dbe
000002f0: f6e3 6fbe 7fa3 abbe 9f9c e33d 026f aa3e
00000300: 9af0 9fbe 630f 4b3d a24d 96bc c1b9 063e
00000310: 6e32 153f 62a2 223f 45aa b4bd 0df9 ec3d
00000320: efce d13e 0740 a93e 7292 cf3e 0ca0 a1be
00000330: 4d4a a43c d691 ba3c 6d6b 163f 5dc4 0bbf
00000340: 25cb 273f 047b 07be 3f2c 9c3e 3dce fb3e
00000350: 0177 32be bc49 ea3c b4fe ac3d ecf0 a0be
00000360: 7bd3 3fbe fed3 af3b 7301 9fbe ca56 273e
00000370: 100a 163e 316f aebb 13a8 093e 0a0c a13d
00000380: 4b28 46be 87cd d73e f281 de3e eda1 42bc
00000390: 4cc8 a53e ccbd 0e3e 7d71 083f fc3b ddb9
000003a0: ad5c 213b 7bc9 2ebe 80c3 38bd 8a51 b43e
000003b0: 05d4 06bf 9177 333f b82e 8fbd 2a2a 1c3d
000003c0: a64a debd ad01 193d f351 003d ff93 143b
000003d0: f475 9e3d accd a13d 3a36 a03d 0167 30bd
000003e0: 137e 45bb bf2d 2b3d 492a a83c 092b 063e
000003f0: 58db 88bd e758 5c3b d61e 50bd 4cd0 acbd

fc1.bias f4 [50]
-0.124340504 -0.042078633 -0.10793181 -0.16271393 -0.25707605 -0.10439219 -0.15565996 -0.04597739
-0.06307888 -0.08255841 -0.10795495 -0.1209106 0.07027646 -0.105181314 -0.21276684 -0.038596816
0.013992165 -0.14449196 -0.027808342 -0.11469323 -0.23584299 -0.1026096 0.15175615 -0.020283232
0.19403315 -0.22494823 -0.11379191 -0.038280595 0.14195023 -0.019162439 -0.09402761 -0.15181628
-0.00817786 -0.1415585 0.016118951 -0.002093683 -0.43540874 -0.07387498 -0.022792438 -0.028400075
-0.077133134 0.07906788 -0.29500675 -0.11381984 -0.037873503 -0.16076472 -0.0510038 -0.21690671
-0.20862885 -0.098419234
00000000: 3ca6 febd a55a 2cbd 5a0b ddbd 7b9e 26be
00000010: 799f 83be 93cb d5bd 5365 1fbe ca52 3cbd
00000020: 802f 81bd 6214 a9bd 7c17 ddbd fa9f f7bd
00000030: 1bed 8f3d 4d69 d7bd 8ddf 59be b217 1ebd
00000040: 653f 653c b3f5 13be 52ce e3bc 49e4 eabd
00000050: d380 71be fb24 d2bd f765 1b3e 0529 a6bc
00000060: a0b0 463e d458 66be bc0b e9bd 1dcc 1cbd
00000070: 675b 113e 8cfa 9cbc 8c91 c0bd ba75 1bbe
00000080: 6efc 05bc b6f4 10be e40b 843c 2c36 09bb
00000090: e5ed debe c44b 97bd 35b7 babc 46a7 e8bc
000000a0: faf7 9dbd 57ee a13d 200b 97be 601a e9bd
000000b0: 3f21 1bbd 829f 24be 5ce9 50bd cb1c 5ebe
000000c0: cda2 55be 0690 c9bd

fc2.weight f4 [100, 50]
0.08357924 0.48726723 0.027500115 -0.010003275 0.09310722 0.003962085 -0.79398555 -0.005906916
-0.015321678 -0.14316596 0.30224317 -0.0832401 -0.20852762 -0.10446473 0.06957 0.1595804
0.1641495 0.028018955 0.15912151 0.029322281 0.35842177 -0.12179196 0.9149365 0.048629828
0.8842842 0.108397014 0.5849962 -0.19319594 0.7240249 0.21595213 0.05481759 0.22229041
0.32879296 -0.24368769 -0.09115851 -0.012949525 -0.17985485 0.13143568 -0.03517649 0.049889818
0.07399849 -0.57086396 -0.07887003 0.083233126 -0.0046632607 0.053887066 -0.14150363 -0.23572652
-0.24272276 0.02775898 -0.15847363 -0.048733994 -0.070843935 -0.10515231 -0.009596749 -0.042513378
-0.356931 0.021318685 -0.08693803 -0.102018155 -0.2605946 -0.30214027 -0.39562777 -0.06714974
-0.1509024 0.013885772 -0.24179964 -0.1730344 -0.050454453 -0.082909554 0.08097475 0.036584266
-0.06879846 0.016909478 -0.19263977 -0.25989223 0.13510412 -0.1652799 -0.17798495 -0.2585017
-0.14924982 0.0010615638 -0.07490189 -0.3878651 -0.006192767 0.07199729 0.021753544 0.019965047
0.098458 0.06650583 0.073994614 -0.42154998 -0.12020484 -0.066161565 -0.1855991 -0.012979542
0.03551258 -0.19510172 0.02546741 -0.24444619 -0.1758765 0.11753067 0.14843345 0.06933773
0.030690866 -0.021113137 -0.34994632 -0.15692146 -0.040701557 0.08300465 -0.41938552 -0.016177053
-0.3159508 -0.16161905 -0.12562622 0.080782406 -0.40531895 -0.5302121 0.13114274 0.08574349
-0.11397846 -0.0688036 -0.10613849 -0.035762325 -0.18006468 -0.5905647 0.2757884 0.076034315
-0.08179189 0.26231623 0.16309273 -0.2771558 -0.07419993 -0.15060836 0.049607 0.026127841
0.07876838 0.029216686 -0.27328682 0.14070128 -0.21700998 -0.07361484 -0.2817487 -0.035720285
-0.010659463 -0.14770374 0.053972702 0.150807 -0.20862967 -0.09527996 0.006567831 -0.085321866
0.07869218 -0.019783102 0.06623202 -0.19897209 -0.04478125 0.042406358 0.13484776 0.018930048
0.034599856 -0.037450153 -0.10122613 -0.09819962 -0.042353813 -0.017272854 -0.042762034 -0.07041182
-0.107157476 0.025679918 -0.12404292 -0.10153614 -0.014227632 -0.12018314 -0.079277486 -0.032266844
-0.10733906 -0.19716549 0.11271628 0.016411396 0.04015651 -0.15626243 -0.15946382 -0.23455723
-0.10432805 -0.118675515 0.06207775 0.0040519643 -0.024990682 0.09264424 -0.22402376 -0.1452464
-0.056718614 -0.18234499 -0.18888691 -0.05997429 -0.030008499 -0.020811444 -0.020472601 -0.026676716
0.019227989 0.22472385 0.01227516 0.12115188 -0.23587827 0.187145 -0.51297474 0.023890516
0.18170737 -0.070825905 0.044826306 0.11933359 -2.136554 -0.101194486 0.19353093 0.14955439
-0.4327573 0.09221522 0.20508535 0.17937131 -0.04592781 0.03062169 -0.097004876 -0.1329362
-0.019234752 0.33419916 0.16813517 -0.06630132 0.08440383 0.19040741 -0.20603785 -0.009861467
0.53230464 -0.02885665 -0.17788137 -0.077409066 -0.070603825 -0.009219 -0.035547946 0.11362268
-0.106559284 0.2833737 0.31486908 -0.05965615 0.10440662 0.038562518 -0.16476911 0.038975436
-0.11356232 0.087314144 0.019207004 -0.031310618 0.08123572 0.060897116 -0.064125925 0.042169005
00000000: 982b ab3d 177b f93e ec47 e13c c7e4 23bc
00000010: 00af be3d 61d4 813b a342 4bbf ce8e c1bb
00000020: c607 7bbc 199a 12be 9ebf 9a3e c979 aabd
00000030: 4488 55be 9bf1 d5bd b77a 8e3d 0b69 233e
00000040: ce16 283e 0288 e53c c0f0 223e 4835 f03c
00000050: 0f83 b73e 106e f9bd 4739 6a3f 1230 473d
00000060: 7360 623f 41ff dd3d 50c2 153f 28d5 45be
00000070: b259 393f 8e22 5d3e 6988 603d 19a0 633e
00000080: 8d57 a83e 4489 79be 50b1 babd 3f2a 54bc
00000090: df2b 38be 1397 063e 3915 10bd 4459 4c3d
000000a0: 858c 973d 2424 12bf 9c86 a1bd 2176 aa3d
000000b0: 44ce 98bb afb8 5c3d 54e6 10be 4b62 71be
000000c0: 518c 78be cd66 e33c e946 22be 4c9d 47bd
000000d0: a016 91bd 185a d7bd af3b 1dbc 8222 2ebd
000000e0: a9bf b6be 86a4 ae3c 910c b2bd e5ee d0bd
000000f0: a86c 85be 21b2 9abe b98f cabe ce85 89bd
00000100: 2986 1abe 2681 633c 539a 77be ee2f 31be
00000110: 54a9 4ebd 7ccc a9bd 17d6 a53d 62d9 153d
00000120: 35e6 8cbd bf85 8a3c 5c43 45be 9810 85be
00000130: bc58 0a3e 223f 29be b041 36be 565a 84be
00000140: f2d4 18be 2c24 8b3a 2966 99bd 4196 c6be
00000150: b2ec cabb 5173 933d 7d34 b23c bd8d a33c
00000160: 59a4 c93d 3534 883d 7d8a 973d 66d5 d7be
00000170: f52d f6bd b77f 87bd b10d 3ebe 25a8 54bc
00000180: a475 113d bfc8 47be 08a1 d03c 1a50 7abe
00000190: f818 34be ebb3 f03d f0fe 173e f100 8e3d
000001a0: 696b fb3c 75f5 acbc 2a2c b3be 05b0 20be
000001b0: adb6 26bd 58fe a93d b3b9 d6be bd85 84bc
000001c0: 4ec4 a1be 777f 25be 29a4 00be 3f71 a53d
000001d0: f785 cfbe fbbb 07bf 484a 063e 489a af3d
000001e0: 8a6d e9bd e7e8 8cbd 235f d9bd 847b 12bd
000001f0: e062 38be 402f 17bf 2334 8d3e e1b7 9b3d
00000200: 8282 a7bd 504e 863e c801 273e 5de7 8dbe
00000210: 22f6 97bd 1439 1abe b630 4b3d 0e0a d63c
00000220: 5151 a13d d557 ef3c 40ec 8bbe ff13 103e
00000230: dd37 5ebe 61c3 96bd 5e41 90be 6f4f 12bd
00000240: 07a5 2ebc a63f 17be 7b12 5d3d 266d 1a3e
00000250: 04a3 55be 2422 c3bd f636 d73b 3bbd aebd
00000260: 5e29 a13d 2c10 a2bc a7a4 873d 57bf 4bbe
00000270: 8b6c 37bd 4ab2 2d3d 8815 0a3e 3013 9b3c
00000280: 94b8 0d3d 5565 19bd a54f cfbd e21c c9bd
00000290: 317b 2dbd cd7f 8dbc 3e27 2fbd 1334 90bd
000002a0: 6175 dbbd b15e d23c 370a febd 2ef2 cfbd
000002b0: 041b 69bc 9422 f6bd 3c5c a2bd 3d2a 04bd
000002c0: 95d4 dbbd c0e5 49be cbd7 e63d 3171 863c
000002d0: 277b 243d 4203 20be 7c4a 23be c52f 70be
000002e0: f2a9 d5bd 260c f3bd 3d45 7e3d 57c6 843b
000002f0: 42b9 ccbc 43bc bd3d 7c66 65be 79bb 14be
00000300: c751 68bd a5b8 3abe 926b 41be 9aa7 75bd
00000310: 62d4 f5bc c37c aabc 28b6 a7bc 2189 dabc
00000320: 0484 9d3c 021e 663e c11d 493c 7a1e f83d
00000330: 138a 71be f0a2 3f3e 5052 03bf 0bb6 c33c
00000340: 7f11 3a3e 2c0d 91bd ca9b 373d 2b65 f43d
00000350: 4dbd 08c0 0e3f cfbd f92c 463e c924 193e
00000360: 5d92 ddbe 55db bc3d e501 523e 1dad 373e
00000370: cd1e 3cbd 57da fa3c 7eaa c6bd 6d20 08be
00000380: 3392 9dbc 271c ab3e a02b 2c3e fdc8 87bd
00000390: eadb ac3d 29fa 423e 96fb 52be fe91 21bc
000003a0: 1e45 083f c864 ecbc 8926 36be a588 9ebd
000003b0: bd98 90bd 4a0b 17bc b99a 11bd 02b3 e83d
000003c0: c13b dabd 5c16 913e 8536 a13e 025a 74bd
000003d0: 23d3 d53d bbf3 1d3d 3cb9 28be b5a4 1f3d
000003e0: 5d93 e8bd c2d1 b23d 0258 9d3c 903f 00bd
000003f0: ea5e a63d 416f 793d 7454 83bd 68b9 2c3d

fc2.bias f4 [100]
-0.41309178 -0.30634272 -1.0559925 -0.2073307 -0.28049877 -0.39295334 -0.22780563 -0.3001933
-0.4329743 -0.3344367 -1.15074 -0.10243965 -0.14414468 -0.23389979 -0.54837304 -0.31462035
-0.01885709 -0.41035888 -0.14052051 -0.011127015 -0.078166574 -1.6505487 -0.29960892 -0.27318686
-0.13555685 -0.13813318 -0.27623305 -0.42311525 -0.09124288 0.315692 -0.44434994 -0.47103375
-0.27823368 -0.17764 -1.114801 -0.2549576 -1.3161502 -0.27948293 -0.49641332 -0.085792884
1.0831571 -0.17047204 -0.115937866 -0.24539888 -0.51014423 -0.24118428 -0.20353483 -0.45588526
-0.35841793 -0.0967687 -0.22847857 -0.2249786 -0.37129363 -0.3386407 -0.15360938 -1.076225
-0.37179118 -0.17833605 -0.04390312 -0.28772083 0.37761718 -0.21054894 -0.3275776 -0.22599497
-0.31017262 -0.15450256 -0.2178428 -0.3032966 -0.30281454 -0.1502311 -0.26915845 -0.25638342
0.051599104 -0.22602475 -0.7342589 -0.12194092 -0.4364233 -0.18003385 0.31045043 -0.6257605
-0.17020176 -0.06617607 -0.06254412 -0.5265286 -0.0772421 -1.1484706 -0.27075434 -1.3021084
-0.7491998 -0.7776085 -0.21714392 -0.09949246 -0.29755345 -0.23277588 -0.65067273 -0.17890884
-0.23102169 -1.5892081 -0.18848434 -0.37967944
00000000: c480 d3be f4d8 9cbe c32a 87bf 804e 54be
00000010: 899d 8fbe 2e31 c9be e145 69be f0b2 99be
00000020: cfae ddbe 4a3b abbe 734b 93bf e1cb d1bd
00000030: aa9a 13be 6d83 6fbe 2d62 0cbf eb15 a1be
00000040: 2f7a 9abc 8f1a d2be 9ce4 0fbe 154e 36bc
00000050: cc15 a0bd 2e45 d3bf 5766 99be 26df 8bbe
00000060: 6acf 0abe c972 0dbe 6b6e 8dbe 90a2 d8be
00000070: 8cdd babd 62a2 a13e d681 e3be 562b f1be
00000080: a574 8ebe 43e7 35be cdb1 8ebf cd89 82be
00000090: 9c77 a8bf 6318 8fbe e329 febe 2eb4 afbd
000000a0: e4a4 8a3f 3990 2ebe d570 edbd d849 7bbe
000000b0: d098 02bf 03f9 76be 6f6b 50be cb69 e9be
000000c0: 8e82 b7be ab2e c6bd 49f6 69be ca60 66be
000000d0: 331a bebe 5062 adbe c74b 1dbe bec1 89bf
000000e0: 6a5b bebe ba9d 36be c2d3 33bd 2550 93be
000000f0: 0a57 c13e 249a 57be 40b8 a7be 3a6b 67be
00000100: f2ce 9ebe eb35 1ebe 2f12 5fbe b149 9bbe
00000110: 820a 9bbe 2ed6 19be 23cf 89be b044 83be
00000120: 9559 533d 0873 67be 64f8 3bbf 29bc f9bd
00000130: e072 dfbe cb5a 38be 5cf3 9e3e d731 20bf
00000140: 5f49 2ebe 5287 87bd 2217 80bd 94ca 06bf
00000150: 1b31 9ebd 1601 93bf 50a0 8abe 7dab a6bf
00000160: 8fcb 3fbf 5a11 47bf fa5a 5ebe b4c2 cbbd
00000170: ed58 98be cd5c 6ebe 7d92 26bf e133 37be
00000180: f390 6cbe 2c6b cbbf 0a02 41be 5865 c2be

fc3.weight f4 [50, 100]
-0.17439722 0.08833671 -0.17351156 -0.056121487 -0.053702123 -0.11081237 -0.0030282617 0.085038275
0.09861419 0.094108604 0.048487365 -0.036501154 -0.08984461 0.057429317 0.015464271 -0.09875171
0.0193297 -0.27594045 -0.0023645342 -0.22978084 -0.056247078 -0.13507055 -0.11422203 -0.08743337
0.023223378 0.06901284 -0.42387626 0.12461384 -0.028436212 0.06312309 -0.058923155 0.10880635
0.25503638 0.06154704 -0.086515136 -0.100168124 0.1871565 -0.27590245 -0.0025553002 -0.11430102
-0.2714482 -0.018543622 -0.043178286 -0.021404628 -0.09383012 0.029566534 -0.09115783 0.040016953
0.15775442 0.02818301 0.037545666 -0.054061517 -0.012600361 -0.02558569 -0.17926227 -0.029455768
0.08963668 0.074044384 -0.030250646 -0.17577468 -0.07097226 -0.044884913 -0.07657019 -0.050945364
0.17364739 0.29723346 0.029834438 0.052654687 -0.11635009 -0.07324248 0.047221966 -0.013268621
-0.11731148 -0.07303067 -0.06817715 0.013954619 -0.05797371 -0.103508376 -0.19849363 0.049872864
0.07093538 -0.029132284 -0.017348157 0.018152429 -0.020069664 0.8502222 -0.12599868 -0.045958556
-0.022845458 0.25341946 -0.007665794 -0.07388304 0.07382201 -0.00043188198 -0.13425037 -0.17454131
-0.23890655 -0.20386322 -0.08503013 0.010641664 -0.022094868 0.0027754125 -0.073688634 0.0062184096
-0.08655654 -0.017982993 -0.02553526 -0.121072575 0.00025188795 -0.030104036 -0.24424008 -0.11638925
-0.0547377 0.01860086 -0.055163886 -0.0712243 -0.060228102 -0.10755427 -0.093950264 -0.024119966
-0.0051354296 0.025927946 0.0049643386 -0.0371147 -0.10359169 -0.15628837 -0.23732999 0.03129207
-0.06712536 -0.074403785 0.04275092 -0.14324573 -0.0593073 -0.026075313 -0.27690288 0.009021324
-0.041946467 -0.11208581 -0.08412554 -0.06440975 -0.057115726 -0.11392611 -0.09508149 0.005699474
0.036157075 -0.03455246 -0.11850358 -0.0832451 0.01616195 -0.094086654 -0.07480216 -0.08811955
-0.024954593 -0.1401846 -0.17975248 -0.10557176 -0.064547285 -0.09432099 -0.07249688 -0.12551771
-0.16508886 -0.061187122 -0.15981157 -0.13115399 -0.15915962 -0.14340045 -0.043099333 -0.115955785
-0.02698921 -0.15479133 -0.002256489 0.002851038 -0.11155607 0.018663622 -0.029459778 -0.025295103
-0.15032707 0.011246103 -0.08286824 0.09990176 0.033670425 -0.16267407 -0.06008811 -0.16862442
0.028868234 -0.01853138 -0.068119004 0.0038498552 -0.23884031 -0.03468683 0.016031882 -0.09339834
0.092514254 0.0071500316 -0.101444796 0.029956128 -0.13893624 -0.030529227 -0.14984718 -0.11799384
-0.22074781 0.23790443 0.094532385 -0.021984603 -0.2712937 0.02970026 0.11767385 0.82902753
0.065442435 -0.038689047 -0.035484064 -0.10544747 -0.13918301 -0.014924276 -0.6175932 0.019009039
-0.040103465 -0.54379076 -0.106450595 0.2872071 -0.003571738 -0.29572126 0.014820993 -1.1165444
-0.100851245 0.049090967 -0.7775405 -0.055646278 0.015364338 0.86989135 0.024152948 -0.16677041
0.2034209 0.04124501 -0.43116036 -0.028657438 -0.2407435 -0.34089464 -0.012241942 -0.4051564
-0.35523942 -0.13646334 -0.15280159 0.18240283 0.5539292 -0.0031819309 0.076258734 0.597913
-0.5263142 -0.15626578 -0.2454016 -0.068982296 -0.38390815 -0.41054255 -0.40067336 -0.03128055
00000000: 2f95 32be e1e9 b43d 04ad 31be a5df 65bd
00000010: c2f6 5bbd 99f1 e2bd cd75 46bb 8c28 ae3d
00000020: 3df6 c93d 03bc c03d b09a 463d 3c82 15bd
00000030: 7300 b8bd 013b 6b3d db5d 7d3c 563e cabd
00000040: 5259 9e3c 1148 8dbe 4df6 1abb ab4b 6bbe
00000050: 5663 66bd ef4f 0abe 3ded e9bd 4410 b3bd
00000060: f43e be3c 9b56 8d3d 4f06 d9be 8a35 ff3d
00000070: 0ff3 e8bc ae46 813d 6859 71bd ddd5 de3d
00000080: 2194 823e c018 7c3d d92e b1bd f224 cdbd
00000090: f4a5 3f3e 1643 8dbe d376 27bb a716 eabd
000000a0: 42fb 8abe cbe8 97bc b7db 30bd c258 afbc
000000b0: 022a c0bd 8435 f23c f5b0 babd d1e8 233d
000000c0: 608a 213e 0ee0 e63c 7cc9 193d 9c6f 5dbd
000000d0: bf71 4ebc 1599 d1bc 8790 37be 394d f1bc
000000e0: 7093 b73d 95a4 973d 34d0 f7bc 47fe 33be
000000f0: e759 91bd 3ed9 37bd d5d0 9cbd 16ac 50bd
00000100: 9fd0 313e fc2e 983e 5a67 f43c 71ac 573d
00000110: f548 eebd 2700 96bd d26b 413d a164 59bc
00000120: 0041 f0bd 1b91 95bd 76a0 8bbd eaa1 643c
00000130: d775 6dbd 33fc d3bd ea41 4bbe 7d47 4c3d
00000140: 9246 913d d4a6 eebc b91d 8ebc 67b4 943c
00000150: 2369 a4bc 29a8 593f cc05 01be 0a3f 3cbd
00000160: 6626 bbbc 32c0 813e 5731 fbbb fe4f 97bd
00000170: fe2f 973d 386e e2b9 ee78 09be f5ba 32be
00000180: eba3 74be 85c1 50be 4724 aebd 605a 2e3c
00000190: 4c00 b5bc b2e3 353b 11ea 96bd cdc3 cb3b
000001a0: 8e44 b1bd 1251 93bc 522f d1bc e6f4 f7bd
000001b0: d40f 8439 bd9c f6bc 121a 7abe 7d5d eebd
000001c0: a334 60bd d560 983c 87f3 61bd 0cde 91bd
000001d0: beb1 76bd 6a45 dcbd ff68 c0bd 3c97 c5bc
000001e0: 1b47 a8bb d866 d43c e4ab a23b 9505 18bd
000001f0: e127 d4bd 0f0a 20be a206 73be 1d2c 003d
00000200: 0579 89bd 0361 98bd 971b 2f3d 02af 12be
00000210: 36ec 72bd e59b d5bc 37c6 8dbe 2dce 133c
00000220: 0fd0 2bbd 3f8d e5bd 034a acbd 42e9 83bd
00000230: 2ef2 69bd 1852 e9bd 16ba c2bd a7c2 ba3b
00000240: 7119 143d e186 0dbd 01b2 f2bd 687c aabd
00000250: 1166 843c 81b0 c0bd e031 99bd 0678 b4bd
00000260: 936d ccbc 8d8c 0fbe 0911 38be 0236 d8bd
00000270: 5e31 84bd 5d2b c1bd 3f79 94bd b787 00be
00000280: 0e0d 29be 599f 7abd a5a5 23be 3b4d 06be
00000290: bdfa 22be 91d7 12be ed88 30bd 3a7a edbd
000002a0: 7a18 ddbc 9e81 1ebe 9ae1 13bb 7bd8 3a3b
000002b0: 8277 e4bd 74e4 983c a255 f1bc ad37 cfbc
000002c0: 57ef 19be 9341 383c d3b6 a9bd 4b99 cc3d
000002d0: 00ea 093d 0894 26be f31e 76bd e1ab 2cbe
000002e0: 137d ec3c 1fcf 97bc fa81 8bbd da4d 7c3b
000002f0: 8e92 74be c713 0ebd 4b55 833c a147 bfbd
00000300: 1d78 bd3d d04a ea3b 4ac2 cfbd 8e66 f53c
00000310: 4d45 0ebe 6e18 fabc 8a71 19be c1a6 f1bd
00000320: b70b 62be 389d 733e 329a c13d 0e19 b4bc
00000330: 02e7 8abe f64d f33c fdfe f03d 263b 543f
00000340: af06 863d 6878 1ebd bd57 11bd d8f4 d7bd
00000350: fe85 0ebe f384 74bc 971a 1ebf d8b8 9b3c
00000360: 8843 24bd df35 0bbf c502 dabd cf0c 933e
00000370: d213 6abb c768 97be c0d3 723c edea 8ebf
00000380: 198b cebd 9c13 493d e50c 47bf 5aed 63bd
00000390: b4ba 7b3c 33b1 5e3f 67dc c53c ddc5 2abe
000003a0: 924d 503e 87f0 283d 0dc1 dcbe 01c3 eabc
000003b0: 7785 76be be89 aebe 6d92 48bc a970 cfbe
000003c0: f1e1 b5be 0cbd 0bbe 0578 1cbe cfc7 3a3e
000003d0: 4ece 0d3f f187 50bb 8a2d 9c3d d410 193f
000003e0: 87bc 06bf 2304 20be 8f4a 7bbe 9746 8dbd
000003f0: 9c8f c4be a232 d2be 0f25 cdbe 0920 00bd

fc3.bias f4 [50]
-0.13829279 -0.012324064 0.7187882 0.49274158 -0.14895053 -0.14586423 -0.3821757 -1.2253869
-0.18252651 -0.63602674 -0.012744549 -0.098050736 -0.2018543 -0.15717007 1.4644562 0.4593763
-0.72550124 0.33795848 1.0410602 0.17886189 0.9625445 -0.40911612 -0.05473364 0.009509304
0.04640022 -0.04555224 0.901631 -0.1461632 0.0033779764 -0.31738612 0.643521 0.49694154
-0.14307936 -0.1739624 -0.35872713 0.26820678 0.28032008 -0.05615193 -0.10418433 0.7138155
-0.24629986 -0.07521336 1.9327211 -0.2418354 0.8108596 1.1058937 -0.08765713 -0.18939388
-0.09568337 -0.07206767
00000000: a09c 0dbe dfea 49bc 8102 383f a048 fc3e
00000010: 7d86 18be 6f5d 15be 89ac c3be 7ad9 9cbf
00000020: 3be8 3abe a6d2 22bf 83ce 50bc d3ce c8bd
00000030: e5b2 4ebe 31f1 20be 4d73 bb3f 5f33 eb3e
00000040: 73ba 39bf e508 ad3e 7641 853f 9227 373e
00000050: 5169 763f ab77 d1be 6230 60bd e9cc 1b3c
00000060: 280e 3e3d fc94 3abd 4ad1 663f ceab 15be
00000070: 0a61 5d3b 6f80 a2be cbbd 243f 1f6f fe3e
00000080: 6583 12be 3323 32be 15ab b7be 6652 893e
00000090: 1d86 8f3e 91ff 65bd 985e d5bd 9dbc 363f
000000a0: 0836 7cbe 7609 9abd 6863 f73f b3a3 77be
000000b0: 7f94 4f3f ed8d 8d3f 9585 b3bd 78f0 41be
000000c0: a5f5 c3bd 3798 93bd

fc4.weight f4 [1, 50]
0.014572488 -0.05299436 0.55843896 -0.34743452 0.06192325 0.013554688 -0.027638726 0.41642478
-0.0058030696 -0.95005995 0.00087406905 -0.042562187 0.11999953 0.011654791 -0.34766966 0.15472163
-0.22635487 -0.15045467 -0.20397435 -0.14160055 -0.4902105 0.38107747 0.02515701 -0.032122757
-0.3762384 -0.0020182081 -0.29061177 -0.12690687 -0.0642732 0.06980693 -1.0823703 -0.20951249
-0.015365393 0.034585733 0.06698154 -0.26900524 0.017707355 0.027736792 -0.30775073 1.1032252
0.042785924 0.030304648 2.0601003 -0.0042038453 -0.48665127 1.399019 -0.088576905 -0.22457315
-0.0054364945 -0.0056032734
00000000: 72c1 6e3c 9d10 59bd dbf5 0e3f f0e2 b1be
00000010: 3ca3 7d3d 7b14 5e3c 9c6a e2bc a135 d53e
00000020: ad27 bebb 2137 73bf c821 653a b055 2ebd
00000030: 50c2 f53d bdf3 3e3c c201 b2be 596f 1e3e
00000040: 92c9 67be ca10 1abe a7de 50be bcff 10be
00000050: dffc fabe 961c c33e 1316 ce3c 2793 03bd
00000060: 52a2 c0be ea43 04bb 11cb 94be e0f3 01be
00000070: aba1 83bd f0f6 8e3d 1c8b 8abf 718a 56be
00000080: 21bf 7bbc c5a9 0d3d 9e2d 893d 0ebb 89be
00000090: 040f 913c 4538 e33c 8191 9dbe 7c36 8d3f
000000a0: 4b40 2f3d 7441 f83c afd8 0340 69c0 89bb
000000b0: 5b2a f9be 0e13 b33f cf67 b5bd 81f6 65be
000000c0: 9f24 b2bb aa9b b7bb
