fdia_model_ffnn_pytorch_100_200_100_torch.pth (torch, 216739 bytes, 8 tensors)

fc1.weight f4 [100, 128]
0.00915716 -0.03888881 -0.021232793 -0.021390965 -0.0077109737 0.03336584 0.0668651 0.021121357
0.02189677 -0.004204928 -0.07248505 -0.055938173 0.041297186 0.07525701 0.009344034 0.04137429
0.013044295 -0.08002232 -0.044423778 0.06202356 -0.052225787 0.087966464 0.065280415 -0.0570377
0.029051859 0.061299086 -0.08666508 0.044809923 -0.020275528 -0.0007620107 0.02862601 0.029614987
-0.04365281 0.02057195 0.009639699 -0.06494348 0.056562476 -0.07617925 -0.027096167 -0.027769372
0.01729265 0.0041759517 -0.058233265 -0.017401123 -0.025992295 0.04732983 0.01186964 0.056166247
0.05469298 -0.041431967 -0.030158915 -0.011509484 0.06858307 0.0644131 0.0199735 -0.019073246
-0.079645954 -0.04401941 -0.06524299 0.023921685 -0.070169285 -0.027368933 0.030460676 -0.0809788
0.042995717 0.015207695 0.07250426 -0.07655356 -0.019193718 0.01990874 -0.019426038 -0.03066335
0.07966717 -0.022991655 -0.07497646 0.04644991 -0.014247761 0.07045219 0.0015306106 0.05931125
0.02381164 0.034404516 -0.07170477 0.022939585 -0.071942195 -0.071605764 0.04697024 0.039872613
0.06100051 -0.02610131 0.0488622 0.05151468 -0.0122628175 0.03250649 -0.053119346 -0.030773483
-0.06563263 -0.026518997 -0.028785076 0.05878679 -0.049330126 -0.034479458 0.0066993637 0.02859891
-0.05508294 0.0009323099 -0.08854925 0.096376635 -0.07391499 -0.055802297 0.03507981 -0.017571807
-0.010435456 -0.0019492065 -0.0014731685 0.019100921 0.0074720955 0.09489579 0.08733976 0.018231818
-0.06321168 0.02711627 0.016059685 -0.05025225 0.013268943 0.028679132 0.014273332 0.06938937
0.08960731 -0.010967059 0.10968684 -0.029674139 -0.06697648 0.07675332 0.03456524 0.009270016
0.053207226 0.014282822 0.00022642345 0.087771244 0.082739994 0.030210454 0.061830178 0.079263166
0.058820397 0.03672468 -0.06866494 -0.024314092 -0.007178306 0.040320426 0.08139938 0.02260585
0.043016218 0.036053874 -0.006964321 0.019807989 0.024649035 0.026827425 0.035602033 0.03123991
-0.06788226 0.071035124 0.055884458 -0.088839516 0.019522766 -0.01721534 -0.017998163 -0.047068987
0.076915085 -0.059862167 -0.037694376 0.016414888 0.06894836 -0.0023455785 0.004576224 -0.07914472
0.038098603 -0.0046293573 0.036950044 0.102767535 -0.050898634 0.08362661 -0.025917498 0.084093854
0.07225894 -0.018854141 0.06639625 0.06998442 0.0425663 -0.013548106 -0.020677313 -0.055045817
-0.012963312 -0.024564514 -0.0019086536 0.029544363 0.04410088 -0.062296726 0.034704138 0.03420548
-0.025986053 0.09472697 0.006234492 0.030021045 -0.014211927 -0.01611194 0.101974934 0.086789794
0.03224491 0.03232741 0.04491315 0.0030186549 -0.06824041 0.045308687 0.046363037 -0.03468044
0.107710905 -0.047585674 0.008869458 -0.07708689 0.06494727 0.0357233 -0.021396428 -0.02955536
-0.030793324 0.11042007 0.072598256 -0.03990035 0.16814296 0.09262559 0.1090635 -0.012096831
-0.13226934 0.0029549699 -0.13892388 0.10593482 0.013627181 -0.06886636 -0.083255835 0.11598844
-0.0022857052 0.12914225 0.07482575 0.019190896 -0.018049221 0.03396715 -0.0092005115 0.022350378
-0.054343555 -0.0359909 0.020271212 0.048753902 0.07245338 0.0049096313 -0.06745316 0.014298129
00000000: ea07 163c df49 1fbd 65f0 adbc 1b3c afbc
00000010: 56ac fcbb 9eaa 083d 92f0 883d b206 ad3c
00000020: db60 b33c 7ec9 89bb 0b73 94bd 6d1f 65bd
00000030: 3d27 293d 5920 9a3d b817 193c 1678 293d
00000040: bdb7 553c bee2 a3bd b5f5 35bd 6b0c 7e3d
00000050: b5ea 55bd c327 b43d bdb1 853d 5da0 69bd
00000060: 2afe ed3c c014 7b3d 767d b1bd 9c8a 373d
00000070: dd18 a6bc acc1 47ba 1881 ea3c 219b f23c
00000080: 4acd 32bd 8286 a83c d4ef 1d3c 1601 85bd
00000090: 0eae 673d de03 9cbd c8f8 ddbc 987c e3bc
000000a0: 51a9 8d3c 6cd6 883b 0186 6ebd cd8c 8ebc
000000b0: cbed d4bc ecdc 413d e178 423c 940e 663d
000000c0: bf05 603d 91b4 29bd d40f f7bc 4692 3cbc
000000d0: 4875 8c3d 04eb 833d 779f a33c 7f3f 9cbc
000000e0: 6b1d a3bd b24d 34bd 1e9e 85bd 69f7 c33c
000000f0: eab4 8fbd d034 e0bc ab88 f93c 37d8 a5bd
00000100: 471c 303d b229 793c 1d7d 943d 1dc8 9cbd
00000110: 253c 9dbc a717 a33c 5b23 9fbc b531 fbbc
00000120: 8b28 a33d ff58 bcbc 428d 99bd 4342 3e3d
00000130: 716f 69bc 3d49 903d c59e c83a 5af0 723d
00000140: a110 c33c c0eb 0c3d f3d9 92bd cceb bb3c
00000150: 6e56 93bd 0ba6 92bd de63 403d 7751 233d
00000160: acdb 793d 6ad2 d5bc bb23 483d 0f01 533d
00000170: fce9 48bc 8625 053d ac93 59bd ac18 fcbc
00000180: 666a 86bd 5e3e d9bc aece ebbc 6bca 703d
00000190: 630e 4abd 553a 0dbd 5686 db3b 4348 ea3c
000001a0: a69e 61bd 4266 743a 4f59 b5bd 1d61 c53d
000001b0: be60 97bd f390 64bd d9af 0f3d c0f2 8fbc
000001c0: 7af9 2abc 847c ffba 5517 c1ba 8979 9c3c
000001d0: 7bd8 f43b b958 c23d 30df b23d e55a 953c
000001e0: 2075 81bd f122 de3c 9a8f 833c 4ed5 4dbd
000001f0: fb65 593c 80f0 ea3c b2da 693c 041c 8e3d
00000200: 0a84 b73d 2eaf 33bc 7ea3 e03d 2e17 f3bc
00000210: f72a 89bd d830 9d3d 4894 0d3d 44e1 173c
00000220: d2ef 593d 7f02 6a3c 156c 6d39 69c1 b33d
00000230: 9673 a93d ea7b f73c a441 7d3d ba54 a23d
00000240: a8ed 703d 9e6c 163d 34a0 8cbd 592e c7bc
00000250: ff37 ebbb 0827 253d b8b4 a63d e72f b93c
00000260: c631 303d 3aad 133d f534 e4bb 5d44 a23c
00000270: c6ec c93c 30c5 db3c 70d3 113d d7ea ff3c
00000280: db05 8bbd dd7a 913d 1ae7 643d 7ef1 b5bd
00000290: 35ee 9f3c 2f07 8dbc e270 93bc 69cb 40bd
000002a0: a885 9d3d 0832 75bd 6b65 1abd 8478 863c
000002b0: cc34 8d3d 47b8 19bb 26f4 953b a116 a2bd
000002c0: 480d 1c3d ddb1 97bb ee58 173d c977 d23d
000002d0: 167b 50bd 6e44 ab3d ef50 d4bc 6639 ac3d
000002e0: 7ffc 933d 0074 9abc c2fa 873d fe53 8f3d
000002f0: 005a 2e3d e0f8 5dbc 7863 a9bc b977 61bd
00000300: 1264 54bc 853b c9bc ca2b faba 0507 f23c
00000310: 20a3 343d da2a 7fbd ed25 0e3d 0c1b 0c3d
00000320: b4e0 d4bc 3700 c23d b64a cc3b b2ee f53c
00000330: 24d9 68bc 30fd 83bc 3cd8 d03d d9be b13d
00000340: 3d13 043d bf69 043d daf6 373d a0d4 453b
00000350: a1c1 8bbd 9a95 393d 2be7 3d3d 140d 0ebd
00000360: 8997 dc3d 32e9 42bd 3451 113c bbdf 9dbd
00000370: 1303 853d 9852 123d 9047 afbc 151e f2bc
00000380: 4842 fcbc eb23 e23d 65ae 943d 8d6e 23bd
00000390: ab2d 2c3e 7cb2 bd3d af5c df3d c931 46bc
000003a0: 9d71 07be 2ba8 413b 1042 0ebe 5bf4 d83d
000003b0: 8a44 5f3c ce09 8dbd 0982 aabd 598b ed3d
000003c0: c5cb 15bb de3d 043e 3e3e 993d 3a36 9d3c
000003d0: f6db 93bc 2321 0b3d bebd 16bc 2418 b73c
000003e0: 5997 5ebd 326b 13bd d00f a63c 2cb2 473d
000003f0: 7062 943d f9e0 a03b e224 8abd b342 6a3c

fc1.bias f4 [100]
0.005802203 -0.056177754 -0.074288495 0.03246675 0.022546845 0.05484995 -0.011667154 -0.003407471
-0.040474825 -0.08154493 0.04278354 -0.01913595 0.06564716 -0.031853314 -0.0437665 0.041665986
0.075008266 0.03318495 -0.078242436 0.0050433446 -0.011821568 0.0795688 -0.02322235 -0.09533362
0.068505496 -0.02335401 0.052851867 -0.031658325 0.044797864 0.045249023 -0.07821275 -0.071293436
0.07798012 0.013755613 -0.006716054 -0.0848131 -0.070695 -0.041533835 -0.09461333 0.07134465
-0.09824468 -0.0764404 -0.087164044 0.07131338 0.018638091 0.0050936197 0.03997669 -0.079961404
-0.04051215 -0.08602049 0.029968074 0.03038151 -0.06831494 0.07217196 0.078309216 0.0291241
-0.018516798 -0.018807374 -0.08842355 0.074405886 0.06391141 0.022057487 -0.0050506634 -0.05261764
-0.046134584 0.057617377 0.032866225 -0.07342808 0.08111857 0.017993618 0.032543726 -0.081697196
-0.06563123 0.054272432 0.045131195 -0.0260842 0.02307662 -0.005777963 -0.06417274 0.069356754
-0.07856842 -0.08273148 -0.0022553357 -0.094017364 -0.049981933 0.012278126 -0.027516192 -0.03591883
0.073833674 -0.07570935 0.040088724 -0.08396121 -0.025347734 -0.08450705 -0.055155568 0.0055627422
0.015013476 0.009230578 -0.0399108 -0.06350679
00000000: 6820 be3b a51a 66bd 9124 98bd dbfb 043d
00000010: 29b4 b83c 57aa 603d 9727 3fbc e14f 5fbb
00000020: eec8 25bd 0701 a7bd cb3d 2f3d ffc2 9cbc
00000030: 0572 863d 9f78 02bd 8044 33bd f4a9 2a3d
00000040: ef9d 993d f1ec 073d 923d a0bd a442 a53b
00000050: 40af 41bc f8f4 a23d cc3c bebc 463e c3bd
00000060: 9c4c 8c3d e950 bfbc 337b 583d 29ac 01bd
00000070: f77d 373d 0a57 393d 022e a0bd 4b02 92bd
00000080: 0bb4 9f3d 395f 613c 5812 dcbb 7eb2 adbd
00000090: 8ac8 90bd 621f 2abd a2c4 c1bd 251d 923d
000000a0: 8234 c9bd c98c 9cbd 1083 b2bd c00c 923d
000000b0: e9ae 983c 61e8 a63b 99be 233d cec2 a3bd
000000c0: 11f0 25bd 832b b0bd 9b7f f53c a5e2 f83c
000000d0: b4e8 8bbd e4ce 933d 9560 a03d aa95 ee3c
000000e0: 8ab0 97bc ec11 9abc 6817 b5bd 1d62 983d
000000f0: fce3 823d e7b1 b43c 0980 a5bb 9885 57bd
00000100: 9ef7 3cbd 3300 6c3d bc9e 063d 7661 96bd
00000110: 7e21 a63d 5a67 933c 924c 053d dc50 a7bd
00000120: ab69 86bd c54c 5e3d 7ddb 383d 88ae d5bc
00000130: 2e0b bd3c 1155 bdbb ff6c 83bd ea0a 8e3d
00000140: 7be8 a0bd 1f6f a9bd 41ce 13bb 2d8c c0bd
00000150: dbb9 4cbd 312a 493c a369 e1bc a01f 13bd
00000160: 1c36 973d 810d 9bbd 1334 243d dbf3 abbd
00000170: 0da6 cfbc 0812 adbd ceea 61bd aa47 b63b
00000180: 15fb 753c da3b 173c 8279 23bd d90f 82bd

fc2.weight f4 [200, 100]
-0.024360836 0.08686916 0.023619495 0.07935148 0.027777204 -0.08256933 0.003297442 -0.036776364
-0.020598287 0.02816899 -0.068960354 0.061029963 -0.2917312 -0.124499656 0.0382296 -0.033626128
0.084015094 -0.019512877 -0.05279109 -0.08874713 0.05699579 0.024293236 0.08453128 -0.042795572
-0.06219624 0.0002062376 -0.18078822 0.008213956 -0.03074481 0.105887175 -0.06441571 0.054286674
-0.014104986 -0.0029270556 0.077318884 0.020116955 -0.008916652 -0.019368835 -0.026089363 -0.02536196
0.0067540836 -0.07740767 -0.1241779 0.032533422 -0.040052462 -0.07635546 0.19244695 0.2226197
0.04968611 0.02811909 -0.0042212163 -0.083643265 0.03389474 -0.113885246 0.028910799 0.054039482
-0.016460115 0.06736191 0.052487195 0.14276695 -0.078759104 0.055275146 0.030212991 0.061153088
-0.20300198 -0.058471184 0.080532655 0.066678286 0.17063804 -0.041011315 -0.0120814815 0.030590309
0.046761602 0.052674666 -0.16544886 0.039812714 -0.048062235 -0.04819645 0.078306995 0.05341947
-0.060020007 -0.15892823 -0.115306295 0.04320926 0.01787588 -0.016906632 0.015884578 -0.0103712985
-0.012218324 -0.0017377135 0.09069449 0.016318012 0.06338792 -0.06224643 -0.08406367 -0.01047954
0.00417449 0.1023458 0.17748319 -0.003776676 -0.035092816 0.037765887 -0.09281013 -0.034698997
0.01186219 0.054259125 0.03105521 0.0017579313 -0.032494985 -0.15270317 -0.018845042 0.05988152
0.13833922 -0.20744205 0.12198715 -0.21059678 -0.09907648 -0.06001801 0.06328444 -0.3337723
-0.07378625 0.14206772 0.07327835 0.032916967 -0.10155801 0.019823711 -0.28315178 0.029719967
-0.04599805 0.09140027 0.10532236 0.011730827 0.07820968 -0.08126377 -0.3142918 0.21906827
-0.051581133 0.13307717 0.03014738 0.117879555 -0.2478927 0.030969061 0.087871104 0.030537963
-0.0051501365 0.09701781 -0.048210632 -0.053368803 -0.09739413 0.023902014 -0.06209665 0.09337941
-0.0479214 0.19789797 0.09384033 -0.14314732 -0.103949875 0.09587776 0.048892025 -0.0795712
0.020910587 0.081373766 0.051944405 0.019820722 0.13074838 0.120108634 0.088785194 -0.07619302
0.041030113 0.010798569 -0.10422836 0.097251415 -0.054527093 -0.09578556 0.0492905 0.015768463
-0.004606972 -0.06685577 -0.05931914 0.09604207 -0.05178141 -0.0015126186 -0.103142835 -0.024698803
0.010863622 0.045740783 -0.1331177 -0.5077756 -0.105484635 -0.030349804 -0.028596744 0.06916524
0.059372563 -0.063301876 -0.033891805 -0.0072749746 0.05229559 -0.028314425 -0.16932924 -0.040261593
0.0054688547 -0.11581592 0.1740422 -0.09577301 -0.105756 -0.073292576 0.051532187 0.016471025
0.12046733 0.21382193 -0.205507 0.016875377 0.16475244 -0.14919037 -0.27509475 0.010054545
0.0026655553 0.051416982 -0.054269135 -0.120314725 -0.08798272 0.084604956 -0.003791546 -0.025786603
0.07573828 0.09273184 -0.0065904683 0.15071426 0.11357674 0.028292535 -0.0075228703 -0.060524765
0.04114013 -0.014152863 -0.10332285 0.19050732 -0.06881124 -0.072211444 0.0018236244 -0.076539576
-0.007978798 0.0649237 0.009540806 -0.11032873 -0.00057245593 0.014103325 -0.0051772296 0.13748105
0.0045922813 -0.2242239 0.023265205 -0.05945634 0.077237725 0.19492145 0.0017857908 -0.06640217
00000000: 6090 c7bc 75e8 b13d ac7d c13c 0783 a23d
00000010: 058d e33c 1c1a a9bd e619 583b d0a2 16bd
00000020: bdbd a8bc a7c2 e63c 163b 8dbd 8efa 793d
00000030: cb5d 95be adf9 febd a496 1c3d 8dbb 09bd
00000040: 1b10 ac3d 78d9 9fbc 783b 58bd 0ec1 b5bd
00000050: 6b74 693d 9c02 c73c bc1e ad3d 694a 2fbd
00000060: 7cc1 7ebd 7c41 5839 8c20 39be d493 063c
00000070: 8adc fbbc 60db d83d 62ec 83bd b45b 5e3d
00000080: 9918 67bc d8d3 3fbb 5d59 9e3d 50cc a43c
00000090: 2617 12bc 64ab 9ebc 5cb9 d5bc e3c3 cfbc
000000a0: 5c51 dd3b ea87 9ebd fc50 febd c441 053d
000000b0: 0d0e 24bd 4060 9cbd d010 453e 6bf6 633e
000000c0: aa83 4b3d 015a e63c 2152 8abb 294d abbd
000000d0: 36d5 0a3d ab3c e9bd 57d6 ec3c 8158 5d3d
000000e0: 5dd7 86bc 0bf5 893d d0fc 563d 8031 123e
000000f0: 744c a1bd 3168 623d 3c81 f73c a97b 7a3d
00000100: c0df 4fbe 7b7f 6fbd 4eee a43d a08e 883d
00000110: bdbb 2e3e 7bfb 27bd 68f1 45bc 8798 fa3c
00000120: 1889 3f3d 64c1 573d 6d6b 29be a812 233d
00000130: e8dc 44bd a469 45bd 6b5f a03d 60ce 5a3d
00000140: 8ad7 75bd 15be 22be b525 ecbd 31fc 303d
00000150: 7070 923c c77f 8abc 6020 823c 61ec 29bc
00000160: 5d2f 48bc fdc3 e3ba 08be b93d 5aad 853c
00000170: 87d1 813d 1df6 7ebd 9329 acbd 60b2 2bbc
00000180: 29ca 883b ad9a d13d 27be 353e 1c82 77bb
00000190: 7cbd 0fbd 67b0 1a3d 3d13 bebd 8920 0ebd
000001a0: a259 423c d13e 5e3d 7f67 fe3c 636a e63a
000001b0: 7619 05bd 385e 1cbe eb60 9abc 5346 753d
000001c0: cca8 0d3e b06b 54be 66d4 f93d afa6 57be
000001d0: 9ce8 cabd 72d5 75bd 469b 813d 34e4 aabe
000001e0: 3f1d 97bd 337a 113e f612 963d f1d3 063d
000001f0: a5fd cfbd 5665 a23c 45f9 90be 4a77 f33c
00000200: 7468 3cbd 1130 bb3d 40b3 d73d a832 403c
00000210: 662c a03d 9f6d a6bd dbea a0be 6f53 603e
00000220: bd46 53bd 6245 083e a3f7 f63c d66a f13d
00000230: 95d7 7dbe d4b2 fd3c c4f5 b33d c02a fa3c
00000240: 7ac2 a8bb 46b1 c63d 8378 45bd 3f99 5abd
00000250: 9376 c7bd 28ce c33c 0f59 7ebd b43d bf3d
00000260: 3b49 44bd c4a5 4a3e 5c2f c03d 3695 12be
00000270: ace3 d4bd 8f5b c43d 0143 483d 3af6 a2bd
00000280: ae4c ab3c 4aa7 a63d a8c3 543d 115f a23c
00000290: e7e2 053e 84fb f53d 03d5 b53d 160b 9cbd
000002a0: 310f 283d 7bec 303c ae75 d5bd c02b c73d
000002b0: cd57 5fbd 382b c4bd d6e4 493d dd2c 813c
000002c0: 15f6 96bb aeeb 88bd a0f8 72bd b4b1 c43d
000002d0: be18 54bd 0f43 c6ba 8d3c d3bd 2555 cabc
000002e0: 55fd 313c b05a 3b3d 0250 08be 95fd 01bf
000002f0: 5408 d8bd 27a0 f8bc b843 eabc 81a6 8d3d
00000300: a530 733d 6aa4 81bd 22d2 0abd e962 eebb
00000310: e733 563d a7f3 e7bc a564 2dbe 57e9 24bd
00000320: 1434 b33b e630 edbd 1e38 323e a424 c4bd
00000330: 9a96 d8bd 6b1a 96bd 6a13 533d 3eee 863c
00000340: 93b7 f63d 23f4 5a3e 6d70 52be 3b3e 8a3c
00000350: ddb4 283e 5cc5 18be 38d9 8cbe d1bb 243c
00000360: 99b0 2e3b 9d9a 523d 5049 5ebd 9167 f6bd
00000370: 4930 b4bd 5d45 ad3d 967b 78bb 6d3e d3bc
00000380: ac1c 9b3d 31ea bd3d dbf4 d7bb d754 1a3e
00000390: ec9a e83d bfc5 e73c 6982 f6bb d1e8 77bd
000003a0: 8e82 283d 69e1 67bc ee9a d3bd 5a14 433e
000003b0: e8ec 8cbd 98e3 93bd ae06 ef3a c8c0 9cbd
000003c0: 81b9 02bc b8f6 843d 0a51 1c3c 07f4 e1bd
000003d0: de10 16ba a211 673c c0a5 a9bb d5c7 0c3e
000003e0: d97a 963b f39a 65be ac96 be3c 7e88 73bd
000003f0: d02e 9e3d 7d99 473e 3211 ea3a dcfd 87bd

fc2.bias f4 [200]
0.07869756 0.0054257824 0.014258841 -0.081381716 0.030296944 0.11045635 -0.04637868 0.0788834
-0.0651071 0.090538375 0.112024106 0.010887885 0.033491626 -0.0678208 0.056604944 -0.08617089
-0.06847892 0.09192001 -0.054200776 0.14218473 0.03842713 -0.042530544 0.05379546 -0.050041668
0.009444152 -0.035319008 -0.09958389 -0.047239278 0.13585529 0.113133 -0.12551355 0.19235322
0.018621609 -0.030717922 0.05385428 0.06579052 0.072041444 -0.021562366 -0.026719362 -0.15694389
-0.03715101 -0.11271636 0.0989958 -0.04253691 -0.07797153 -0.03700111 0.008789926 0.0911425
-0.08904208 -0.020630723 0.048589174 0.13531826 -0.044365175 -0.061555058 -0.030622587 0.062221505
0.10098575 -0.06611134 -0.14307413 -0.117924355 -0.060007636 -0.03839391 -0.06538683 -0.0036095602
-0.089235164 0.025149908 0.15566406 -0.17640729 0.10390038 -0.14195514 0.10187277 0.1818056
-0.064018026 -0.108067915 -0.15372096 -0.04887182 0.060542345 0.16043429 -0.057934135 -0.11556897
0.09517053 -0.097676106 0.02128026 -0.12102172 0.18662384 0.033212792 -0.1227306 -0.19789928
0.058726437 0.05903756 -0.114319876 -0.02991076 -0.031763196 -0.033570956 0.037183713 -0.024961669
0.009075677 -0.027626023 0.056365337 -0.03499686 0.051027004 -0.12412226 -0.16246301 0.1276725
-0.044021223 -0.09196864 0.12116406 -0.14711165 -0.04802879 -0.012321586 0.0575385 -0.10260356
-0.05236961 0.046195626 0.04236362 -0.06949924 0.0975496 0.11372657 -0.07196624 -0.121466726
0.08267311 -0.0039530094 -0.11028564 -0.0024203295 0.093880475 -0.030618588 -0.078969084 -0.11314583
0.061524745 0.099060364 -0.075793035 -0.1346118 0.054478 0.089293644 -0.0383401 0.13440001
0.10555314 0.16557793 -0.121685795 -0.0029358082 0.03490991 -0.103873074 -0.097900875 -0.049506754
-0.028480623 0.02038997 0.029069044 0.057517096 -0.10094169 0.12573428 -0.023312034 -0.0011175447
0.050351977 -0.12856217 0.14469118 -0.0861625 -0.10483243 -0.10079696 0.021653391 -0.12624137
-0.032107882 -0.063679 0.0151945725 0.06574114 0.11744064 -0.04934828 0.089123316 -0.041234758
-0.046599057 -0.0027920997 -0.18075788 -0.08929827 -0.09267923 -0.052568257 0.13464022 0.08815426
-0.04023683 0.08357397 0.023105543 -0.0717988 0.13943334 0.11779218 -0.11671093 -0.06811825
-0.053806715 -0.081562065 -0.13568038 -0.087586045 -0.14426523 -0.08803068 -0.09970214 -0.017002318
0.006684387 -0.0029363036 -0.08229519 -0.042157438 -0.098369494 0.01595974 -0.11099982 -0.056432124
00000000: 302c a13d c3ca b13b ea9d 693c 75ab a6bd
00000010: 4c31 f83c f036 e23d 92f7 3dbd 9f8d a13d
00000020: df56 85bd 2f6c b93d e56c e53d 1963 323c
00000030: 842e 093d a2e5 8abd 96da 673d 5d7a b0bd
00000040: ad3e 8cbd 8f40 bc3d a201 5ebd e098 113e
00000050: c465 1d3d 8234 2ebd a158 5c3d 7ef8 4cbd
00000060: a5bb 1a3c aaaa 10bd a3f2 cbbd f97d 41bd
00000070: a61d 0b3e 46b2 e73d a086 00be 3ef8 443e
00000080: 588c 983c 27a4 fbbc 4e96 5c3d 2ebd 863d
00000090: 778a 933d 8fa3 b0bc 90e2 dabc e6b5 20be
000000a0: a82b 18bd d6d7 e6bd 4fbe ca3d 2f3b 2ebd
000000b0: 8aaf 9fbd 7a8e 17bd 9f03 103c eba8 ba3d
000000c0: b25b b6bd c301 a9bc 7105 473d df90 0a3e
000000d0: 42b8 35bd 2821 7cbd 38dc fabc fadb 7e3d
000000e0: 9ed1 ce3d 6265 87bd 0682 12be 5382 f1bd
000000f0: 91ca 75bd ef42 1dbd 88e9 85bd 5f8e 6cbb
00000100: edc0 b6bd 2e07 ce3c 6666 1f3e 1da4 34be
00000110: b9c9 d43d b05c 11be aca2 d03d 3f2b 3a3e
00000120: e21b 83bd b652 ddbd 0769 1dbe d12d 48bd
00000130: 40fb 773d e348 243e 584c 6dbd 6daf ecbd
00000140: c4e8 c23d 690a c8bd f153 ae3c 3cda f7bd
00000150: 521a 3f3e 230a 083d 2e5a fbbd 1ca6 4abe
00000160: 228b 703d 5ed1 713d 8a20 eabd 6907 f5bc
00000170: 201a 02bd b381 09bd f34d 183d 6a7c ccbc
00000180: 26b2 143c f84f e2bc 57df 663d de58 0fbd
00000190: b101 513d d033 febd b45c 26be 94bc 023e
000001a0: 994f 34bd 0e5a bcbd dd24 f83d 70a4 16be
000001b0: d6b9 44bd 7ae0 49bc 7dad 6b3d d121 d2bd
000001c0: 8481 56bd a037 3d3d 7a85 2d3d 9e55 8ebd
000001d0: 16c8 c73d 7ae9 e83d 0963 93bd 8cc3 f8bd
000001e0: 8550 a93d 3f88 81bb 70dd e1bd 649e 1ebb
000001f0: 6844 c03d d5d3 fabc 8bba a1bd 00b9 e7bd
00000200: 5f01 7c3d 29e0 ca3d 6139 9bbd add7 09be
00000210: 5324 5f3d 96df b63d 820a 1dbd 28a0 093e
00000220: 3f2c d83d 438d 293e 6736 f9bd b066 40bb
00000230: b2fd 0e3d 68bb d4bd 4180 c8bd 98c7 4abd
00000240: 3250 e9bc de08 a73c 3422 ee3c 0c97 6b3d
00000250: 84ba cebd 7dc0 003e e1f8 bebc 947a 92ba
00000260: e03d 4e3d cda5 03be ed29 143e f775 b0bd
00000270: 63b2 d6bd a36e cebd 7462 b13c 6b45 01be
00000280: 8e83 03bd 236a 82bd a8f2 783c 4aa3 863d
00000290: b884 f03d 6c21 4abd 4986 b63d c7e5 28bd
000002a0: a7de 3ebd a9fb 36bb 9818 39be 03e2 b6bd
000002b0: 9cce bdbd d051 57bd 20df 093e 388a b43d
000002c0: 60cf 24bd d428 ab3d d647 bd3c 400b 93bd
000002d0: 9dc7 0e3e 073d f13d 2406 efbd 9581 8bbd
000002e0: 6e64 5cbd 030a a7bd ccef 0abe 5060 b3bd
000002f0: 44ba 13be 6e49 b4bd a330 ccbd 7248 8bbc
00000300: b408 db3b 006f 40bb 618a a8bd 47ad 2cbd
00000310: f275 c9bd 00be 823c e053 e3bd 5f25 67bd

fc3.weight f4 [100, 200]
-0.02231915 0.10855475 0.13285312 0.26216298 -0.016396957 0.10738895 0.028701935 0.007368821
0.061815258 -0.1834877 0.079108864 0.075077824 -0.0026539026 0.025028571 0.13080092 0.021738533
0.26414353 0.05018798 -0.040220242 0.03984452 0.118013754 -0.04889414 -0.03902462 -0.17312473
0.043950733 0.018032713 0.13567598 0.1435147 0.044216555 0.109328724 0.10605533 0.059999216
-0.039684918 0.020981891 0.010161116 0.071926296 0.19176227 0.019820092 -0.010522332 -0.017674541
0.046940073 -0.0053343894 0.07986229 0.09384927 0.033522386 -0.20644434 -0.016066974 -0.001309598
0.048867505 0.07644336 0.1047403 0.048411287 0.042144958 -0.011391512 0.17466103 -0.04514789
-0.055814877 -0.02795361 0.29234302 0.063634135 -0.014613737 -0.020826574 -0.013554286 0.087974705
-0.027306933 0.1524766 0.12230049 -0.10825451 0.12795134 0.3403863 0.1428451 0.09701328
-0.14145927 0.008969682 0.10627995 -0.0044230795 0.051703878 0.14223403 0.018936725 -0.012961114
-0.03903911 0.10355161 -0.165766 -0.003794338 0.022517296 0.082309835 -0.068564884 0.26046297
0.02404295 -0.059583377 0.23413867 0.16332118 -0.069105044 0.059820518 0.11054957 -0.013090678
-0.04988829 -0.20386802 0.080798544 0.28118327 0.11692247 -0.01867183 -0.18337972 0.09926437
-0.046549425 0.030259676 0.163968 -0.07541736 0.0989623 -0.20831543 -0.18540938 0.028238669
0.16200595 0.011668548 0.029025335 0.13838795 -0.043303743 0.084904775 0.027474163 0.024679534
0.05933846 0.08934897 -0.0102380365 -0.026338235 0.15156952 0.056901146 -0.031943794 0.25467393
-0.10728678 0.08999735 0.045440007 0.28574923 0.051212683 -0.07603292 0.24780579 0.030190295
0.042288586 0.039130915 0.060311835 0.1570901 0.14512022 -0.052813258 -0.035366602 -0.021332316
-0.38728255 0.039695486 -0.0026634003 -0.050172832 -0.06789874 0.028576799 0.04714386 0.05664408
-0.037991215 -0.04496334 0.051037863 -0.037681628 0.11440707 -0.053553946 0.024001257 0.045620237
-0.06502137 0.050609842 -0.036879376 0.19350119 0.05768343 -0.080845185 0.10553771 0.048008103
0.07763373 0.02772071 0.19690125 -0.1074537 0.123971485 -0.089825876 0.092578776 0.03439684
0.07781112 0.09864803 -0.16044638 0.11622098 0.42280912 0.08805813 0.076329835 -0.068994634
0.066011734 0.36968854 -0.027198901 0.2834707 -0.04199853 -0.023419773 0.064592674 0.08170798
0.039237164 0.30113733 0.02750044 0.01342348 -0.030339876 0.06025166 -0.55387855 -0.36043
0.02880371 0.019764638 0.03463967 -0.0386207 -0.111035034 0.011581097 -0.012087891 -0.19335349
0.023850909 -0.03931045 -0.009056591 0.02084784 -0.021715062 -0.06575031 -0.023709338 -0.08055759
-0.013459876 -0.06587442 -0.05228463 -0.041965336 -0.08346354 0.044601914 -0.05073379 -0.05260492
-0.0522011 -0.0815593 -0.039782587 -0.028717937 -0.07487601 -0.021086458 -0.08775816 -0.026676077
0.020154545 -0.026024075 0.019336404 -0.07641711 -0.0109271305 0.038808703 0.059365004 0.033296
0.03125202 0.039171375 -0.059956476 -0.064233124 0.047048796 -0.015879884 0.030468492 0.011004117
0.045357306 -0.08459733 -0.054262575 0.005824979 -0.0011932919 -0.055430412 -0.06631943 -0.0481017
00000000: a6d6 b6bc f451 de3d a60a 083e 3a3a 863e
00000010: e952 86bc bdee db3d 5220 eb3c 2776 f13b
00000020: ff31 7d3d 33e4 3bbe d403 a23d 67c2 993d
00000030: 19ed 2dbb b808 cd3c adf0 053e 0215 b23c
00000040: d23d 873e e991 4d3d fbbd 24bd 0234 233d
00000050: 32b1 f13d 3945 48bd 48d8 1fbd 9c47 31be
00000060: af05 343d 57b9 933c a5ee 0a3e 84f5 123e
00000070: 6b1c 353d bde7 df3d 8933 d93d bdc1 753d
00000080: a78c 22bd 37e2 ab3c cf7a 263c 184e 933d
00000090: 545d 443e bf5d a23c dc65 2cbc 33ca 90bc
000000a0: 3c44 403d 1acc aebb d78e a33d 0c34 c03d
000000b0: c54e 093d 2566 53be e39e 83bc d1a6 abba
000000c0: 4b29 483d 568e 9c3d 1582 d63d ea4a 463d
000000d0: 31a0 2c3d 77a3 3abc 57da 323e feec 38bd
000000e0: 249e 64bd f8fe e4bc fcad 953e 9d52 823d
000000f0: 756e 6fbc 7e9c aabc cc12 5ebc 152c b43d
00000100: cab2 dfbc d322 1c3e ae78 fa3d 8ab4 ddbd
00000110: ad05 033e 1d47 ae3e fc45 123e e6ae c63d
00000120: b3da 10be 93f5 123c 4da9 d93d 7bef 90bb
00000130: 72c7 533d cca5 113e 3121 9b3c da5a 54bc
00000140: 79e7 1fbd de12 d43d 90be 29be 6eaa 78bb
00000150: 3176 b83c 0f92 a83d bf6b 8cbd 675b 853e
00000160: b8f5 c43c b30d 74bd 0cc2 6f3e ab3d 273e
00000170: f286 8dbd 5c06 753d d067 e23d 487a 56bc
00000180: aa57 4cbd c7c2 50be b579 a53d 41f7 8f3e
00000190: 0c75 ef3d aaf5 98bc e5c7 3bbe 1e4b cb3d
000001a0: 9caa 3ebd 24e3 f73c 3ae7 273e 6b74 9abd
000001b0: bfac ca3d a450 55be f5db 3dbe c854 e73c
000001c0: e3e4 253e 702d 3f3c 8ac6 ed3c 92b5 0d3e
000001d0: 445f 31bd 8ee2 ad3d 7f11 e13c bc2c ca3c
000001e0: e30c 733d 98fc b63d 70bd 27bc 48c3 d7bc
000001f0: 0a35 1b3e 2d11 693d 7fd7 02bd 9f64 823e
00000200: 2cb9 dbbd 8850 b83d 4d1f 3a3d b94d 923e
00000210: 64c4 513d 26b7 9bbd cdc0 7d3e a351 f73c
00000220: cc36 2d3d bd47 203d 8b09 773d 3adc 203e
00000230: 659a 143e b752 58bd 92dc 10bd 1cc1 aebc
00000240: e649 c6be bc97 223d 718c 2ebb 0782 4dbd
00000250: 7f0e 8bbd e419 ea3c ec19 413d 9f03 683d
00000260: ad9c 1bbd 7b2b 38bd 140d 513d 0d58 1abd
00000270: 414e ea3d 625b 5bbd 499e c43c 49dc 3a3d
00000280: ed29 85bd 444c 4f3d d40e 17bd 2d25 463e
00000290: 7645 6c3d 2992 a5bd 2824 d83d 25a4 443d
000002a0: 6ffe 9e3d 8b16 e33c 7ba0 493e af10 dcbd
000002b0: c3e4 fd3d a1f6 b7bd f199 bd3d b3e3 0c3d
000002c0: 705b 9f3d fa07 ca3d 0e4c 24be 4405 ee3d
000002d0: 707a d83e d257 b43d d152 9c3d 0f4d 8dbd
000002e0: 2931 873d d147 bd3e 3bd0 debc 1223 913e
000002f0: a706 2cbd d3da bfbc 2a49 843d 8356 a73d
00000300: 26b7 203d ac2e 9a3e 9a48 e13c 28ee 5b3c
00000310: 558b f8bc 72ca 763d fcca 0dbf 488a b8be
00000320: c2f5 eb3c 73e9 a13c 54e2 0d3d bd30 1ebd
00000330: 5666 e3bd a4be 3d3c 4a0c 46bc 75fe 45be
00000340: fb62 c33c ff03 21bd 1962 14bc 17c9 aa3c
00000350: c9e3 b1bc 19a8 86bd 163a c2bc 61fb a4bd
00000360: d086 5cbc 2be9 86bd 6828 56bd d8e3 2bbd
00000370: efee aabd 7fb0 363d 3cce 4fbd 4278 57bd
00000380: d2d0 55bd 9008 a7bd 11f3 22bd e141 ebbc
00000390: 9858 99bd 82bd acbc 8dba b3bd ca87 dabc
000003a0: 251b a53c 7130 d5bc 6167 9e3c 9380 9cbd
000003b0: b507 33bc e0f5 1e3d b828 733d 6361 083d
000003c0: 1e02 003d 2a72 203d ec94 75bd a88c 83bd
000003d0: 3db6 403d 8816 82bc 0f99 f93c 9d4a 343c
000003e0: 95c8 393d 5d41 adbd 6f42 5ebd 77df be3b
000003f0: 3b68 9cba 000b 63bd 7bd2 87bd 4a06 45bd

fc3.bias f4 [100]
-0.009154417 -0.012427866 0.13047506 0.0380975 -0.06083726 -0.019122943 0.099332534 -0.046058185
0.06649507 0.011322278 0.026115185 -0.065822184 -0.04908524 -0.045364168 -0.06213447 0.08339809
0.12988058 0.044778503 -0.0027751804 0.04023924 0.0757989 0.063352026 0.14770463 0.07922152
0.044812992 -0.0046715867 -0.0041046715 0.07614548 0.08870544 -0.044120837 0.043126322 0.07957946
0.046355583 -0.07360318 0.06959367 0.11120796 0.03520389 -0.012345768 -0.004476417 0.083012894
0.13065143 0.008934176 0.08468403 0.07040609 0.09418711 0.12982889 0.08874021 -0.0032003708
0.072328456 -0.07659085 0.1022368 -0.0121464 0.016226636 -0.018061627 0.012412021 0.08740708
0.024289656 0.09763352 0.08994195 0.088402785 0.005608726 0.004679279 0.033102337 -0.1973883
0.03387326 -0.019752039 0.0140542835 -0.08314897 0.118544765 0.06971599 0.07915566 0.07599309
-0.028919142 -0.056086034 0.09410044 0.06593623 -0.06728283 -0.034051493 0.05305196 -0.060369376
0.017201645 0.06611419 -0.09001528 0.07222494 0.07988019 0.1436804 0.013733579 -0.053006057
0.043782707 -0.07795318 0.08362609 -0.07880455 0.07738965 0.053024694 0.058112796 0.11240042
-0.04671211 -0.016128596 0.008894674 0.04629426
00000000: 68fc 15bc 409e 4bbc 419b 053e 200c 1c3d
00000010: 7e30 79bd b8a7 9cbc db6e cb3d 82a7 3cbd
00000020: 912e 883d 1381 393c 83ef d53c c8cd 86bd
00000030: 9b0d 49bd c7cf 39bd b780 7ebd 9ecc aa3d
00000040: 6aff 043e aa69 373d cddf 35bb e7d1 243d
00000050: 743c 9b3d b5be 813d e23f 173e e43e a23d
00000060: d48d 373d 1c14 99bb 7b80 86bb 29f2 9b3d
00000070: 33ab b53d 0db8 34bd 3aa5 303d 8efa a23d
00000080: 5adf 3d3d 44bd 96bd 2087 8e3d 00c1 e33d
00000090: f431 103d e745 4abc e8ae 92bb aa02 aa3d
000000a0: 7dc9 053e a660 123c d26e ad3d 1131 903d
000000b0: 2ce5 c03d ddf1 043e 6dbd b53d 50bd 51bb
000000c0: f120 943d aadb 9cbd 8761 d13d b201 47bc
000000d0: b9ed 843c faf5 93bc ca5b 4b3c 7c02 b33d
000000e0: 1afb c63c 15f4 c73d 7c33 b83d 850c b53d
000000f0: 67c9 b73b a354 993b 5196 073d 2920 4abe
00000100: b0be 0a3d 07cf a1bc f043 663c 024a aabd
00000110: 99c7 f23d 42c7 8e3d 5d1c a23d 44a2 9b3d
00000120: d6e7 ecbc 78ba 65bd bbb7 c03d 9309 873d
00000130: 95cb 89bd 9479 0bbd 034d 593d e145 77bd
00000140: 77ea 8c3c e066 873d ee59 b8bd abea 933d
00000150: 3a98 a33d f420 133e ce02 613c e11c 59bd
00000160: 7f55 333d eba5 9fbd 2844 ab3d 4864 a1bd
00000170: 777e 9e3d 6c30 593d af07 6e3d 3132 e63d
00000180: 3355 3fbd 1e20 84bc f7ba 113c 0d9f 3d3d

fc4.weight f4 [2, 100]
0.2195655 -0.005211368 -0.54374146 0.17805998 -0.21019189 0.12346498 0.35754701 0.050963346
0.12499225 0.1917068 0.4459047 0.08110792 -0.3854291 -0.75327414 0.033732127 0.16527836
-0.7897346 -0.5220905 -0.6837512 0.2849552 0.13139795 0.18347786 -0.27157792 0.15503094
0.27868906 0.26334882 0.12285369 0.117572874 0.085278876 0.06629713 0.14427695 0.12635991
0.29713824 0.03279509 0.08249505 0.4609737 0.17336561 0.17090307 -0.34403625 0.2144303
-0.37186167 0.12995161 -0.55325097 0.14961116 0.22199506 -0.5483361 -0.540854 0.20933785
-0.41012114 -0.060201127 0.28775322 -0.3421226 -0.41976345 -0.010536845 -0.21485141 0.097631894
-0.37569934 0.25936207 -0.50604576 -0.69142896 -0.402035 -0.24366593 0.19031577 0.78790456
-0.32878125 0.20505613 0.26057288 0.0025881082 -0.5424099 0.05106467 0.17842937 0.18482694
-0.7881628 -0.023850948 0.24775267 0.15741509 -0.011217314 -0.030900147 0.17128849 -0.40847024
-0.6850693 -0.37444967 -0.05375122 -0.58683634 0.16407187 -0.25810206 0.20140208 0.01813243
-0.03719172 0.05791695 0.1372553 0.019459438 -0.3167694 0.30363053 0.30211762 0.37845823
-0.06772898 0.1986869 -0.018272063 -0.6632401 -0.13551137 0.06878007 0.53947735 -0.20304023
0.08799872 -0.18855846 -0.36937222 0.032677393 -0.10679349 -0.12861258 -0.2819761 -0.038698528
0.443122 0.7983137 0.04034686 -0.14970376 0.6365178 0.6122917 0.7250155 -0.28436646
-0.24895594 -0.28778931 0.39715028 -0.2027961 -0.24518971 -0.22999004 -0.25723338 -0.16952078
-0.2335979 0.08801045 -0.17642647 -0.11387485 -0.2122683 0.07366748 -0.2287971 -0.32358983
-0.2454489 -0.14810412 0.30453727 -0.14831562 0.4813425 -0.27337435 0.5113095 -0.24773577
-0.13182603 0.48776624 0.5174637 -0.17287739 0.46439427 -0.07498545 -0.11819211 0.24379513
0.4623556 0.04967003 0.08453472 -0.21292807 0.36876705 -0.12112789 0.56525284 0.6818385
0.34562778 0.23566519 -0.16598944 -0.899347 0.3452789 -0.225584 -0.2206062 -0.014392356
0.5832261 -0.20139268 -0.15796971 -0.22088543 0.68569165 0.009178595 -0.26012707 -0.19777845
-0.021781622 0.060923114 -0.17046465 0.43312892 0.542302 0.40316048 0.005135603 0.5191166
-0.1437377 0.36309704 -0.09530065 0.019164706 0.08412704 0.0628905 -0.20449328 0.02004867
0.31665653 -0.12183537 -0.19015016 -0.37563127 0.035142835 -0.18636893 -0.014752626 0.6837132
00000000: c7d5 603e 20c4 aabb a432 0bbf 5b55 363e
00000010: 8b3c 57be 35db fc3d 6710 b73e f1be 503d
00000020: f0fb ff3d ca4e 443e 9f4d e43e e91b a63d
00000030: f756 c5be 93d6 40bf b32a 0a3d bb3e 293e
00000040: 0c2c 4abf b9a7 05bf 520a 2fbf a6e5 913e
00000050: 2f8d 063e 9fe1 3b3e 430c 8bbe 6ec0 1e3e
00000060: 55b0 8e3e a8d5 863e b79a fb3d 0cca f03d
00000070: b1a6 ae3d cac6 873d 56bd 133e 7e64 013e
00000080: 8122 983e 2554 063d 2af3 a83d bf04 ec3e
00000090: c186 313e 3701 2f3e 8525 b0be 9e93 5b3e
000000a0: a764 bebe 0912 053e dba1 0dbf ab33 193e
000000b0: ac52 633e c15f 0cbf 6875 0abf a95c 563e
000000c0: 66fb d1be 7595 76bd 6454 933e b22a afbe
000000d0: 3ceb d6be bba2 2cbc 0202 5cbe 3bf3 c73d
000000e0: aa5b c0be 1bcb 843e 378c 01bf 7d01 31bf
000000f0: 88d7 cdbe 9083 79be 23e2 423e 1db4 493f
00000100: 0456 a8be 3cfa 513e cf69 853e 409d 293b
00000110: 60db 0abf 3029 513d 30b6 363e 4643 3d3e
00000120: 0ac5 49bf 1063 c3bc e0b2 7d3e 6c31 213e
00000130: d3c8 37bc 4e22 fdbc 4066 2f3e 0323 d1be
00000140: b460 2fbf deb7 bfbe 3d2a 5cbd e83a 16bf
00000150: 7502 283e f425 84be 593c 4e3e 768a 943c
00000160: 5856 18bd 533a 6d3d a78c 0c3e 6669 9f3c
00000170: 992f a2be 7675 9b3e 29af 9a3e 47c5 c13e
00000180: 7eb5 8abd 9474 4b3e 4baf 95bc 1aca 29bf
00000190: 7ec3 0abe 91dc 8c3d 301b 0a3f c7e9 4fbe
000001a0: ac38 b43d 7815 41be 5b1e bdbe bbd8 053d
000001b0: 8cb6 dabd 04b3 03be 2c5f 90be 5982 1ebd
000001c0: e3e0 e23e 495e 4c3f c042 253d f14b 19be
000001d0: d5f2 223f 26bf 1c3f 9e9a 393f 7b98 91be
000001e0: 4eee 7ebe 1f59 93be 4857 cb3e c8a9 4fbe
000001f0: 0313 7bbe 8282 6bbe 18b4 83be db96 2dbe
00000200: 4a34 6fbe d33e b43d 24a9 34be 3837 e9bd
00000210: dc5c 59be fade 963d c949 6abe 91ad a5be
00000220: f556 7bbe 9ba8 17be 4fec 9b3e 0de0 17be
00000230: 8672 f63e b9f7 8bbe 2ee5 023f 72ae 7dbe
00000240: 67fd 06be 7fbc f93e 8078 043f c506 31be
00000250: 16c5 ed3e f991 99bd b40e f2bd 6ea5 793e
00000260: e0b9 ec3e cd72 4b3d 8a20 ad3d d109 5abe
00000270: 09cf bc3e e611 f8bd 69b4 103f f88c 2e3f
00000280: 20f6 b03e 3752 713e 23f9 29be 9b3b 66bf
00000290: 65c8 b03e 7eff 66be 97e6 61be ebcd 6bbc
000002a0: 4e4e 153f e239 4ebe d0c2 21be ca2f 62be
000002b0: 7d89 2f3f d161 163c 602f 85be 6f86 4abe
000002c0: 5f6f b2bc 848a 793d 498e 2ebe 13c3 dd3e
000002d0: 4ed4 0a3f 0d6b ce3e 8f48 a83b d3e4 043f
000002e0: fa2f 13be dbe7 b93e fd2c c3bd 4dff 9c3c
000002f0: cc4a ac3d bccc 803d b066 51be 1c3d a43c
00000300: ce20 a23e d384 f9bd b9b6 42be be52 c0be
00000310: eff1 0f3d 7fd7 3ebe 00b5 71bc d407 2f3f

fc4.bias f4 [2]
0.09702277 -0.0038450763
00000000: e0b3 c63d adfd 7bbb
