fdia_model_ffnn_02_pytorch.pth (torch, 77243 bytes, 20 tensors)

layers.0.weight f4 [50, 128]
0.07549905 -0.09490333 -0.21307068 -0.008236844 -0.02790665 -0.061342005 -0.06286491 0.030063845
0.0799933 -0.015370662 -0.0746663 -0.018431569 0.18256646 0.17382608 -0.0940626 -0.116408706
-0.05960229 0.13025002 0.09488015 0.19905934 -0.0718441 -0.017640376 -0.15681586 0.1583616
0.00044743737 0.0992564 -0.351045 0.08522454 0.12877882 0.087298326 0.032919865 0.03458733
0.097183846 0.045012303 -0.021110658 0.004037358 0.101194635 0.15763898 0.06011527 -0.07599886
0.05768332 0.09166656 0.03378266 -0.14133751 -0.07183915 0.043265376 0.15208817 0.15902963
0.26306993 -0.056640927 -0.14053191 -0.1729104 0.07780023 0.086543076 0.13644363 -0.108047254
-0.035019327 0.06589658 0.040736146 0.11798326 0.07066383 0.051519092 0.036374826 -0.01861406
-0.00783774 0.021762256 0.025021529 -0.04754497 0.07041499 -0.027940374 0.01526057 -0.041769557
-0.08369645 -0.08143498 -0.1306118 0.023053668 0.2911211 0.12269149 0.022846617 -0.016889712
0.0055656373 0.19805187 0.00031400064 0.15736942 -0.0534429 -0.122091375 0.0124895945 -0.010709834
-0.025474317 -0.09472191 -0.020831909 -0.042652078 0.00790704 -0.0615966 -0.035845928 0.035429697
0.1216088 -0.048044633 -0.048526008 -0.1232614 0.26692808 0.014825547 -0.013306458 -0.058498006
0.076739736 0.0027671044 0.064344704 -0.09983664 -0.13265829 0.008959412 0.06901047 0.06525912
0.003792154 -0.27702972 0.0603858 -0.0038885449 -0.034179177 -0.031580854 0.05756091 -0.02438624
0.04027026 -0.0876037 -0.013653053 0.0908087 0.08507447 0.095041946 0.13358097 0.013632996
0.0035459136 -0.027384391 0.016906444 -0.02049997 -0.041023605 0.108448334 0.023711268 0.10512207
-0.04834225 0.100902684 -0.14764865 -0.004488945 0.100488134 0.26545215 -0.02761818 -0.014785842
-0.122008026 0.04323896 -0.0994282 0.069623485 0.011454319 0.059011795 0.03850041 -0.079289965
0.026672387 -0.11190513 -0.031132217 0.30431506 0.122366585 0.16972858 0.10336071 -0.05295194
-0.015448144 0.0071905786 0.114868276 -0.0014944645 0.024062602 0.21490738 -0.0040806103 -0.070941664
-0.010631539 0.0656939 -0.060730025 0.0453989 0.034306437 -0.00033573588 0.06920169 0.10123342
0.17031337 0.044259638 0.051280726 0.052144192 0.19894566 -0.056737937 -0.10824277 -0.13341035
0.014903371 -0.035073336 0.056898933 -0.007900632 0.022881359 0.0680539 0.037920814 0.022408597
-0.023544705 0.10898293 0.13580959 0.09118213 0.0630578 0.0008344608 0.062639855 0.022988401
0.05481902 -0.19390875 -0.127965 -0.052191455 0.34469762 -0.05837133 0.027637308 -0.016928095
-0.055875126 0.10469925 0.052244917 -0.107088625 0.08465039 0.00836379 0.012118576 0.1038275
0.06671139 -0.06061555 -0.015197059 0.0014444664 -0.035708018 -0.06081955 0.014807013 -0.0026484728
-0.008946203 -0.02998102 0.046940472 0.005679853 0.22346818 -0.11997188 -0.18638566 -0.10088719
-0.02004702 -0.37948102 -0.091997825 0.07036315 0.016705854 -0.06057556 -0.03450149 -0.035939764
-0.03068238 0.35796034 0.19902128 -0.064095154 -0.020767963 -0.042621337 0.0033715188 0.10893344
0.09079341 -0.03913758 0.09786924 0.13190319 0.051804796 0.10615755 -0.04993867 -0.03726684
00000000: 3f9f 9a3d ad5c c2bd 332f 5abe d4f3 06bc
00000010: 7d9c e4bc c141 7bbd 51bf 80bd 7448 f63c
00000020: 87d3 a33d 3bd5 7bbc a5ea 98bd cdfd 96bc
00000030: b4f2 3a3e 77ff 313e e4a3 c0bd b067 eebd
00000040: 8821 74bd 4360 053e 8650 c23d 36d6 4b3e
00000050: 0023 93bd 8d82 90bc 5694 20be 8b29 223e
00000060: 0796 ea39 f046 cb3d 2cbc b3be 348a ae3d
00000070: 98de 033e 77c9 b23d fbd6 063d 72ab 0d3d
00000080: 5308 c73d d25e 383d 42f0 acbc d04b 843b
00000090: 223f cf3d 1d6c 213e 6e3b 763d 4aa5 9bbd
000000a0: 5845 6c3d adbb bb3d b05f 0a3d c8ba 10be
000000b0: 6720 93bd 0937 313d 00bd 1b3e aad8 223e
000000c0: 1ab1 863e 5100 68bd 99e7 0fbe 6d0f 31be
000000d0: ba55 9f3d 7f3d b13d e1b7 0b3e e147 ddbd
000000e0: 6d70 0fbd c9f4 863d f2da 263d 35a1 f13d
000000f0: 33b8 903d af05 533d c5fd 143d 837c 98bc
00000100: dd69 00bc c246 b23c f3f9 cc3c 84be 42bd
00000110: bc35 903d 36e3 e4bc 7807 7a3c 8e16 2bbd
00000120: 0b69 abbd 62c7 a6bd 1abf 05be 0cdb bc3c
00000130: d30d 953e ad45 fb3d d428 bb3c 4b5c 8abc
00000140: f35f b63b 1cce 4a3e 74a0 a439 7325 213e
00000150: f1e6 5abd 0b0b fabd 28a1 4c3c 4d78 2fbc
00000160: 84af d0bc 90fd c1bd aea7 aabc f2b3 2ebd
00000170: 888c 013c b74c 7cbd 2ed3 12bd bb1e 113d
00000180: 090e f93d 73ca 44bd 35c3 46bd 7970 fcbd
00000190: ccaa 883e dae6 723c 5403 5abc 9b9b 6fbd
000001a0: b929 9d3d 4f58 353b 28c7 833d 2777 ccbd
000001b0: 93d7 07be 7fca 123c 5c55 8d3d 93a6 853d
000001c0: c985 783b d7d6 8dbe 1a57 773d f5d6 7ebb
000001d0: 77ff 0bbd ed5a 01bd fdc4 6b3d a7c5 c7bc
000001e0: 6ef2 243d 9269 b3bd 0eb1 5fbc e9f9 b93d
000001f0: 863b ae3d 5aa5 c23d 73c9 083e ee5c 5f3c
00000200: 8f62 683b 3b55 e0bc 627f 8a3c 8eef a7bc
00000210: 5e08 28bd 291a de3d 223e c23c 3d4a d73d
00000220: 8602 46bd 11a6 ce3d 3531 17be 0018 93bb
00000230: b9cc cd3d 58e9 873e 853f e2bc 5140 72bc
00000240: 58df f9bd 561b 313d 03a1 cbbd c296 8e3d
00000250: e5aa 3b3c 5ab6 713d 9bb2 1d3d c762 a2bd
00000260: 0d80 da3c 842e e5bd fe08 ffbc 2fcf 9b3e
00000270: 559b fa3d 54cd 2d3e c8ae d33d 22e4 58bd
00000280: 361a 7dbc f29e eb3b 0f40 eb3d e8e1 c3ba
00000290: ef1e c53c ae10 5c3e a4b6 85bb dd49 91bd
000002a0: e82f 2ebc 868a 863d 0cc0 78bd 32f4 393d
000002b0: e884 0c3d b505 b0b9 9eb9 8d3d 7853 cf3d
000002c0: a166 2e3e 9849 353d bd0b 523d 2695 553d
000002d0: 69b8 4b3e 0a66 68bd 63ae ddbd b99c 08be
000002e0: 452d 743c 0fa9 0fbd db0e 693d a771 01bc
000002f0: b071 bb3c d85f 8b3d db52 1b3d 3c92 b73c
00000300: d3e0 c0bc 7132 df3d ab11 0b3e b2bd ba3d
00000310: 7324 813d b7bf 5a3a 5349 803d 2c52 bc3c
00000320: e989 603d 0490 46be 4209 03be b5c6 55bd
00000330: 357c b03e c716 6fbd a367 e23c caac 8abc
00000340: 51dd 64bd 8f6c d63d c4fe 553d 4851 dbbd
00000350: 2f5d ad3d 4708 093c fe8c 463c 83a3 d43d
00000360: fb9f 883d 0348 78bd 16fd 78bc 4054 bd3a
00000370: 9242 12bd ec1d 79bd 1d99 723c 0092 2dbb
00000380: 1893 12bc c29a f5bc a744 403d 0f1e ba3b
00000390: d8d4 643e d1b3 f5bd e2db 3ebe f19d cebd
000003a0: a639 a4bc 564b c2be 5b69 bcbd 8e1a 903d
000003b0: b7da 883c 141e 78bd 6f51 0dbd 9335 13bd
000003c0: 9d59 fbbc 9446 b73e 3ccc 4b3e 5244 83bd
000003d0: 9321 aabc b693 2ebd b3f4 5c3b 7f18 df3d
000003e0: e5f1 b93d ba4e 20bd ab6f c83d a111 073e
000003f0: 4431 543d 2169 d93d 7e8c 4cbd 1da5 18bd

layers.0.bias f4 [50]
-0.04717521 0.046170186 0.08329375 0.0078072036 0.036615074 -0.011337939 0.043027524 0.029679542
0.05981639 -0.05504328 -0.03946138 -0.032806333 -0.07090032 -0.010053292 -0.0336361 0.03553409
-0.03167842 0.11729961 -0.014930022 0.02546663 -0.07937107 -0.018187363 -0.05586574 -0.026276993
0.008673513 0.05805711 0.07363608 -0.041748952 -0.080225356 0.05216329 -0.061342854 -0.10765097
-0.031623535 -0.016756805 -0.018169122 0.060243543 0.03787885 -0.062665515 -0.01856553 -0.20390311
-0.007094397 0.022332022 0.050125875 0.083890945 0.06255873 0.052162122 0.0046878546 -0.05260786
-0.072181836 0.028024985
00000000: cb3a 41bd f31c 3d3d ea95 aa3d 92d3 ff3b
00000010: b0f9 153d c3c2 39bc a13d 303d 8322 f33c
00000020: 0802 753d 1075 61bd 42a2 21bd ef5f 06bd
00000030: 3034 91bd 90b6 24bc 02c6 09bd 328c 113d
00000040: 3bc1 01bd c73a f03d 0d9d 74bc 659f d03c
00000050: 4d8d a2bd aafd 94bc 79d3 64bd d942 d7bc
00000060: 5a1b 0e3c 4bcd 6d3d 83ce 963d f300 2bbd
00000070: 314d a4bd 2da9 553d a542 7bbd 1d78 dcbd
00000080: ae87 01bd 9145 89bc 69d7 94bc efc1 763d
00000090: da26 1b3d c756 80bd bd16 98bc facb 50be
000000a0: 1e78 e8bb a5f1 b63c ca50 4d3d 04cf ab3d
000000b0: cb1e 803d f3a7 553d 939c 993b 577b 57bd
000000c0: 12d4 93bd a794 e53c

layers.2.weight f4 [50]
0.9433194 0.9809618 0.8791076 1.007109 0.85053164 0.9920321 0.9892381 0.99802244
0.96655387 0.9884833 0.9805497 0.9936728 0.88689697 0.91009223 0.95204407 0.965149
0.92974687 1.033945 0.9816096 0.95794183 0.9840116 0.972679 0.8569571 0.82189846
0.9538226 1.0529841 1.1002026 0.9813748 0.9901442 1.0687667 0.96784055 1.0017709
0.97317225 1.0048128 0.95849013 0.88845587 1.0022005 0.87077063 0.9074324 1.1530222
0.9801745 0.8728652 0.98193246 1.0918565 0.94535035 0.7853245 0.99012446 0.9905425
1.001716 1.0099193
00000000: 617d 713f 5020 7b3f 320d 613f f3e8 803f
00000010: 71bc 593f d1f5 7d3f b53e 7d3f 667e 7f3f
00000020: 1370 773f 3e0d 7d3f 4e05 7b3f 5761 7e3f
00000030: ae0b 633f cefb 683f 29b9 733f 0114 773f
00000040: e403 6e3f 4f58 843f c44a 7b3f ad3b 753f
00000050: 2fe8 7b3f 7e01 793f 8a61 5b3f f067 523f
00000060: b82d 743f 2fc8 863f 70d3 8c3f 613b 7b3f
00000070: 177a 7d3f 59cd 883f 66c4 773f 073a 803f
00000080: d121 793f b59d 803f 9c5f 753f d871 633f
00000090: 1b48 803f d3ea 5e3f 7d4d 683f 3b96 933f
000000a0: b7ec 7a3f 1874 5f3f ed5f 7b3f f4c1 8b3f
000000b0: 7b02 723f 070b 493f cc78 7d3f 3194 7d3f
000000c0: 3b38 803f 0945 813f

layers.2.bias f4 [50]
-0.05551211 -0.071615025 0.18665588 0.16320172 0.07812391 0.22460987 -0.22518931 -0.119506516
0.030204048 -0.0026400231 -0.12753205 0.026021088 -0.014824344 -0.15536822 -0.032131206 0.1830422
-0.011266047 -0.042864062 0.16266328 0.12862633 0.052704778 0.09592151 -0.037248705 0.042317435
0.047910232 0.28547207 -0.005317203 0.20286559 0.17398614 0.0037647474 0.09789235 -0.14149973
-0.13313569 0.077500656 -0.009241369 0.22517675 0.04684359 0.1498732 -0.13127282 0.014586384
0.017259872 0.10028284 -0.0017260464 0.28623238 0.045983303 0.09738529 0.05799351 -0.18150227
0.03350627 -0.25700516
00000000: ab60 63bd e6aa 92bd b822 3f3e 5a1e 273e
00000010: 6eff 9f3d 2100 663e 0798 66be d5bf f4bd
00000020: 7b6e f73c 3d04 2dbb c397 02be 2d2a d53c
00000030: cee1 72bc d918 1fbe 039c 03bd 6a6f 3b3e
00000040: 3a95 38bc 3a92 2fbd 3491 263e 9fb6 033e
00000050: f7e0 573d 7f72 c43d 1992 18bd 0c55 2d3d
00000060: 853d 443d 6529 923e ee3b aebb ffbb 4f3e
00000070: 6c29 323e fbb9 763b c97b c83d 4ee5 10be
00000080: b954 08be aab8 9e3d 1c69 17bc bc94 663e
00000090: 10df 3f3d 5c78 193e 626c 06be bbfb 6e3c
000000a0: 9364 8d3c 1761 cd3d 823c e2ba 0d8d 923e
000000b0: fd58 3c3d f071 c73d 9a8a 6d3d bbdb 39be
000000c0: df3d 093d 2e96 83be

layers.2.running_mean f4 [50]
0.7997091 0.78415525 0.86538905 1.1060549 0.0074223666 6e-45 1.1708618 0.5847466
0.30585054 6e-45 6e-45 1.2188705 6e-45 0.59478545 3.620104e-15 0.0070371716
0.73283315 0.677072 6e-45 0.008039249 0.00023398368 0.8339886 0.66570044 0.0003922884
0.07805109 0.19980326 0.042299747 6e-45 6e-45 1.4696248 1.0219383 6e-45
0.4046392 0.018330539 1.080795 0.19221531 6e-45 0.0039431034 0.93616265 3.7441488e-27
0.59733075 0.21756294 1.0577965 1.3798441 1.0535942 0.67204136 3.595575e-05 6e-45
0.7019181 6e-45
00000000: bcb9 4c3f 66be 483f 238a 5d3f 3593 8d3f
00000010: 5337 f33b 0400 0000 cdde 953f f4b1 153f
00000020: 7198 9c3e 0400 0000 0400 0000 f303 9c3f
00000030: 0400 0000 dc43 183f 916d 8227 1398 e63b
00000040: f49a 3b3f 9754 2d3f 0400 0000 0eb7 033c
00000050: 8459 7539 4780 553f 586b 2a3f 0fac cd39
00000060: 40d9 9f3d 3a99 4c3e 8042 2d3d 0400 0000
00000070: 0400 0000 aa1c bc3f e0ce 823f 0400 0000
00000080: df2c cf3e ed29 963c 7e57 8a3f 17d4 443e
00000090: 0400 0000 2635 813b 5ba8 6f3f 2e52 9413
000000a0: abea 183f d2c8 5e3e e065 873f bb9e b03f
000000b0: 2ddc 863f e70a 2c3f 31cf 1638 0400 0000
000000c0: e8b0 333f 0400 0000

layers.2.running_var f4 [50]
0.0998016 0.041499246 0.07419877 0.11007861 0.006149783 6e-45 0.071452565 0.047336794
0.11607176 6e-45 6e-45 0.098010644 6e-45 0.061451625 1.1170523e-15 0.005740408
0.06517104 0.060599726 6e-45 0.008887123 8.5747146e-05 0.059974115 0.070569076 0.00014731495
0.028474983 0.0704158 0.011257896 6e-45 6e-45 0.059121273 0.16797926 6e-45
0.00895097 0.0051197535 0.011940313 0.073986076 6e-45 0.003811187 0.1062491 5.299073e-29
0.05400761 0.11956203 0.037384797 0.031139776 0.07198976 0.203838 1.1768523e-05 6e-45
0.0525435 6e-45
00000000: c864 cc3d 1dfb 293d 86f5 973d e570 e13d
00000010: 1e84 c93b 0400 0000 b955 923d 3ae4 413d
00000020: 08b7 ed3d 0400 0000 0400 0000 ceb9 c83d
00000030: 0400 0000 b3b4 7b3d f5fb a026 081a bc3b
00000040: 6578 853d 6b37 783d 0400 0000 4c9b 113c
00000050: 26d3 b338 6ba7 753d 8586 903d 8e78 1a39
00000060: 5e44 e93c 2936 903d 0a73 383c 0400 0000
00000070: 0400 0000 2629 723d c102 2c3e 0400 0000
00000080: 17a7 123c 9bc3 a73b 4da1 433c 0386 973d
00000090: 0400 0000 1cc5 793b 2199 d93d f358 8610
000000a0: 1537 5d3d f0dc f43d cd20 193d d818 ff3c
000000b0: 5e6f 933d e9ba 503e 6c71 4537 0400 0000
000000c0: da37 573d 0400 0000

layers.4.weight f4 [100, 50]
-0.09887716 -0.020392058 -0.0008707751 0.0072290124 0.04665895 -0.15278988 0.031148203 0.01731934
0.055919115 -0.080821246 -0.023669781 0.006215589 0.110282846 -0.07584078 0.112646766 0.075545855
-0.03989836 -0.13245341 0.037845183 -0.077735096 -0.069173835 0.08537141 -0.06780235 0.11073155
0.12571342 0.10615283 -0.05316741 0.03157901 -0.21109468 -0.03015396 0.0985388 0.16674379
0.29725567 0.055930454 -0.14690103 -0.085984364 0.013171341 -0.18537483 0.088992335 -0.032719254
0.04548659 -0.08485719 -0.14661145 -0.08156839 0.18074901 0.03880397 -0.06038235 0.0044170083
-0.08944562 0.12099356 0.013764574 0.09283208 -0.008365731 0.018919488 -0.0957483 -0.114812024
-0.11794544 -0.015508446 -0.098857135 0.022084793 -0.007028206 0.017769821 -0.08229308 0.16164671
-0.050074488 0.014588846 0.13025978 -0.17327803 0.07773998 0.12673703 -0.0042065517 0.01107266
0.10701487 -0.09164782 -0.0089717535 -0.16775565 0.03470538 -0.07833376 -0.115884066 0.19600141
-0.047129598 0.07649164 0.0050114696 -0.0681396 0.1750315 -0.18471937 -0.10922555 -0.06207212
0.04368555 -0.015176433 -0.014954612 0.070522465 0.05431845 0.10642991 -0.052059688 0.019682305
-0.12364208 0.13378243 0.18740389 -0.13007365 -0.074948676 0.022633996 0.105404474 0.06590484
-0.052582182 -0.10660929 -0.004346699 0.012334224 0.027973596 0.01800529 -0.0645978 -0.034370303
0.09682826 -0.067315824 -0.027628846 -0.09094353 -0.07394787 -0.07869347 -0.06402603 -0.19242008
0.007950322 0.019125491 0.010109021 0.07567836 -0.014568573 0.042333644 0.1903596 -0.06246523
-0.16730687 0.21654956 -0.017850948 -0.06703785 -0.14390197 0.07207807 0.19588934 0.0056104343
-0.018996933 -0.0006660262 0.090366766 0.08181412 0.26638404 -0.082418196 -0.055507623 0.018718502
0.035913046 0.04864693 0.031567346 0.18172264 0.009824591 0.027653757 -0.10786858 0.15151955
0.05034874 -0.025986204 -0.15630384 0.12801346 -0.030669585 -0.04969861 0.008475676 -0.040136386
0.07556948 -0.018562391 0.05637594 -0.041157003 -0.02311731 0.059696935 0.06085134 -0.10997962
0.08591206 -0.04526461 -0.029121721 -0.06314786 0.05885881 -0.07045308 -0.03647026 -0.07425792
0.26427522 -0.034939565 -0.059912447 0.035936173 0.14456613 0.04779472 0.048804507 -0.0040176106
0.124591075 0.09335566 0.068140075 -0.07489391 0.01625415 -0.077890106 0.08825188 -0.062355854
-0.047196805 0.23900296 -0.07706616 0.02692536 -0.052361693 0.11116324 0.27664962 -0.12027863
0.01962099 0.04652727 -0.0067907753 -0.05030618 0.056317244 0.01758215 -0.06919729 0.07547108
-0.014064927 0.03455495 -0.017938195 -0.06721008 -0.028570142 0.053584974 0.018385442 0.091331825
0.06972266 0.047485374 -0.031107258 0.033166524 0.06755124 0.017267521 0.2252349 -0.102573164
-0.099249914 0.09857295 0.10327066 -0.07772533 -0.11793042 0.05727908 -0.0925707 0.019542117
0.11252314 -0.08069201 -0.004535068 0.06529322 -0.096317165 -0.17566976 0.083987 -0.16721849
-0.0041541397 0.14899102 0.0785955 0.26854 -0.036416724 -0.08342523 0.09315504 -0.023975836
0.12477199 0.09419054 -0.1627722 0.07466043 -0.063085295 -0.10755833 0.033007953 0.0219418
00000000: 1c80 cabd 3f0d a7bc ba44 64ba 5ae1 ec3b
00000010: 751d 3f3d f374 1cbe 842a ff3c 4ae1 8d3c
00000020: 710b 653d 9c85 a5bd 21e7 c1bc 24ac cb3b
00000030: f9db e13d 6952 9bbd 59b3 e63d c9b7 9a3d
00000040: 766c 23bd dea1 07be 8d03 1b3d 9433 9fbd
00000050: 03ab 8dbd 35d7 ae3d f5db 8abd 39c7 e23d
00000060: 05bb 003e a866 d93d 12c6 59bd fe58 013d
00000070: 3429 58be 7005 f7bc b6ce c93d e2be 2a3e
00000080: e531 983e 5517 653d 396d 16be 9218 b0bd
00000090: 9ccc 573c e6d2 3dbe 9d41 b63d a004 06bd
000000a0: 2650 3a3d 9bc9 adbd 5021 16be 540d a7bd
000000b0: 4516 393e e9f0 1e3d 7c53 77bd 8dbc 903b
000000c0: 442f b7bd 79cb f73d cf84 613c bf1e be3d
000000d0: 6b10 09bc 0bfd 9a3c af17 c4bd 9122 ebbd
000000e0: 618d f1bd 2317 7ebc 9c75 cabd 2beb b43c
000000f0: dd4c e6bb 0492 913c 4689 a8bd b786 253e
00000100: e81a 4dbd 0e06 6f3c d262 053e cc6f 31be
00000110: 2336 9f3d 5ac7 013e 1dd7 89bb 1a6a 353c
00000120: 9d2a db3d dab1 bbbd 43fe 12bc 23c8 2bbe
00000130: 3b27 0e3d 736d a0bd a054 edbd 98b4 483e
00000140: f70a 41bd a6a7 9c3d 4137 a43b c68c 8bbd
00000150: 753b 333e 1327 3dbe a5b1 dfbd 563f 7ebd
00000160: 9fef 323d 93a6 78bc 3004 75bc 156e 903d
00000170: 067d 5e3d edf7 d93d 8a3c 55bd c93c a13c
00000180: 0f38 fdbd 43fe 083e cee6 3f3e 0732 05be
00000190: b17e 99bd ee6a b93c 4dde d73d 1ef9 863d
000001a0: 6a60 57bd f955 dabd c16e 8ebb 7c15 4a3c
000001b0: e228 e53c d47f 933c da4b 84bd e0c7 0cbd
000001c0: e54d c63d e1dc 89bd e455 e2bc 9a40 babd
000001d0: fb71 97bd 0b2a a1bd 1420 83bd c509 45be
000001e0: 1142 023c 10ad 9c3c 4fa0 253c 42fd 9a3d
000001f0: 06b1 6ebc 0b66 2d3d a1ed 423e 8adb 7fbd
00000200: 7e52 2bbe 2bbf 5d3e 273c 92bc 244b 89bd
00000210: 0a5b 13be ab9d 933d 3797 483e bcd7 b73b
00000220: 759f 9bbc 4398 2eba 3612 b93d 298e a73d
00000230: 7d63 883e dfca a8bd f65b 63bd 8b57 993c
00000240: 8f19 133d 0142 473d c34c 013d 8015 3a3e
00000250: 52f7 203c 228a e23c 34ea dcbd f127 1b3e
00000260: 7b3a 4e3d 05e1 d4bc 1d0e 20be f615 033e
00000270: c83e fbbc c590 4bbd 90dd 0a3c 0d66 24bd
00000280: 2cc4 9a3d 2810 98bc 75ea 663d 3f94 28bd
00000290: 8360 bdbc c684 743d 413f 793d ff3c e1bd
000002a0: aaf2 af3d 6267 39bd ad90 eebc aa53 81bd
000002b0: f015 713d b449 90bd d761 15bd 8914 98bd
000002c0: 154f 873e ca1c 0fbd c166 75bd cf31 133d
000002d0: 2509 143e 65c4 433d 3ce7 473d 29a6 83bb
000002e0: 9b29 ff3d 4131 bf3d 068d 8b3d fa61 99bd
000002f0: 6c27 853c d984 9fbd 67bd b43d da68 7fbd
00000300: 7051 41bd 31bd 743e ddd4 9dbd 9392 dc3c
00000310: 3779 56bd 8ea9 e33d 05a5 8d3e a454 f6bd
00000320: 33bc a03c 6193 3e3d 2785 debb da0d 4ebd
00000330: e9ac 663d 7108 903c 4fb7 8dbd 9590 9a3d
00000340: 9470 66bc 7e89 0d3d 1ff3 92bc 70a5 89bd
00000350: ee0b eabc eb7b 5b3d 119d 963c 2e0c bb3d
00000360: c1ca 8e3d 0680 423d a6d4 febc 9fd9 073d
00000370: 4e58 8a3d 9e74 8d3c faa3 663e e111 d2bd
00000380: 8a43 cbbd 9de0 c93d 917f d33d 752e 9fbd
00000390: 8185 f1bd 789d 6a3d b595 bdbd ca16 a03c
000003a0: 8872 e63d da41 a5bd e89a 94bb 74b8 853d
000003b0: ef41 c5bd c6e2 33be 6001 ac3d 533b 2bbe
000003c0: 731f 88bb 1a91 183e adf6 a03d 137e 893e
000003d0: b429 15bd d9da aabd 12c8 be3d f968 c4bc
000003e0: 7588 ff3d f8e6 c03d c1ad 26be 91e7 983d
000003f0: dd32 81bd 8b47 dcbd 5933 073d 4abf b33c

layers.4.bias f4 [100]
-0.23447077 -0.1603436 -0.06869162 0.09692448 0.082743675 -0.021593897 -0.17524606 -0.014325609
-0.33796948 -0.17563556 -0.026445033 -0.1704852 -0.07099188 -0.054243185 -0.15651307 -0.06874154
-0.31382224 -0.17158924 -0.041875802 -0.25091317 -0.03924072 -0.07478249 -0.17024384 -0.01058118
-0.13060395 -0.065519676 0.07418307 -0.17133152 -0.022965005 -0.0251739 -0.083768636 0.07145589
-0.16738923 -0.08131479 -0.38728607 -0.07391875 0.02365171 -0.12843722 -0.0153887095 0.022932582
-0.18285649 -0.14169997 0.1127861 -0.17687275 -0.06856458 -0.24897388 -0.09299355 0.053049084
-0.12353085 0.096738346 -0.14700504 0.022893138 -0.15182176 0.028061306 0.025435828 -0.103213675
-0.25053513 0.0022325746 -0.33841968 -0.018100778 0.05501994 -0.12857153 -0.23433487 -0.071811624
-0.3337879 -0.058518987 -0.18866055 -0.23530072 -0.18431087 -0.014830026 0.11308003 -0.26527387
-0.16744791 -0.11668094 -0.17681095 -0.1486544 -0.36602896 -0.26937708 -0.034932185 -0.1313431
-0.24048269 -0.28663048 -0.24020433 -0.09104324 0.11251828 0.13907316 -0.030893506 0.13358891
-0.20687208 0.048820846 -0.108884506 -0.11082969 -0.17808312 -0.09865736 -0.21781985 -0.106664374
-0.27042067 -0.053758327 -0.024502387 -0.068393596
00000000: 1b19 70be 1d31 24be 31ae 8cbd 5780 c63d
00000010: 8475 a93d afe5 b0bc b473 33be f6b5 6abc
00000020: 560a adbe cfd9 33be 41a3 d8bc ac93 2ebe
00000030: 3164 91bd 1a2e 5ebd f644 20be 5dc8 8cbd
00000040: 4fad a0be 17b5 2fbe f685 2bbd b177 80be
00000050: e1ba 20bd 9027 99bd 6754 2ebe b05c 2dbc
00000060: 0bbd 05be 2e2f 86bd 4bed 973d 8871 2fbe
00000070: 1b21 bcbc 7f39 cebc e48e abbd 7757 923d
00000080: 1568 2bbe 5e88 a6bd 5c4a c6be b762 97bd
00000090: 3bc1 c13c 0c85 03be ed20 7cbc 1cdd bb3c
000000a0: bb3e 3bbe cc19 11be 66fc e63d 211e 35be
000000b0: 966b 8cbd 02f3 7ebe 6773 bebd ff49 593d
000000c0: befd fcbd c11e c63d 7d88 16be 648a bb3c
000000d0: 2a77 1bbe d3e0 e53c cc5e d03c b161 d3bd
000000e0: 2446 80be 6350 123b 5845 adbe 1548 94bc
000000f0: 975c 613d 41a8 03be 7bf5 6fbe f911 93bd
00000100: 3fe6 aabe 9bb1 6fbd 3b30 41be acf2 70be
00000110: fdbb 3cbe a3f9 72bc 8196 e73d fad1 87be
00000120: 7777 2bbe 6bf6 eebd ee0d 35be dc38 18be
00000130: 2668 bbbe cbeb 89be 0d15 0fbd ce7e 06be
00000140: 1841 76be 3bc1 92be 20f8 75be e174 babd
00000150: fc6f e63d 3269 0e3e 6114 fdbc 88cb 083e
00000160: 46d6 53be 5ef8 473d d7fe debd adfa e2bd
00000170: 6c5b 36be df0c cabd 2b0c 5fbe da72 dabd
00000180: 9474 8abe b131 5cbd 3bb9 c8bc f111 8cbd

layers.6.weight f4 [100]
0.9456565 0.96802485 1.020112 0.9322109 1.0199996 0.8386797 1.1632878 0.94188225
1.0713418 1.0443577 0.9358132 1.0220838 1.0060283 0.90453994 1.0910871 0.8353215
1.1383716 0.990623 0.9510708 0.9615 0.90063083 0.9408912 0.9012443 0.97903866
1.091824 1.0002565 0.8476918 1.0086246 0.960419 0.93346226 0.98385143 0.8451094
1.1279225 1.0096545 1.0674188 0.9542352 1.0477571 0.997848 0.9626306 0.9890308
1.0647029 1.0162075 0.9587046 1.0286244 1.0988715 1.0040869 0.89129263 0.92741007
0.9204751 1.0104645 1.0227143 0.97715425 1.0160259 0.94578147 0.88615 0.91354054
0.92810476 0.9787322 0.9839044 0.9032157 0.9612187 0.90283424 1.1120003 0.9806629
1.0409108 0.93758786 1.0442721 0.9863369 0.957355 1.0309777 0.98387516 1.0599113
0.97005796 0.94889563 0.8693746 1.0119381 0.95782024 0.9954239 0.9448853 0.9654512
0.886232 1.1255783 1.0079006 0.9707055 0.9624004 0.8420724 1.0208318 0.85509884
0.9960379 0.89852476 0.9299217 1.0523251 1.0583818 0.90803814 1.0031581 0.96314794
1.029089 0.93750954 0.8959669 1.0286891
00000000: 8b16 723f 7ad0 773f 0893 823f 60a5 6e3f
00000010: 598f 823f b6b3 563f 9de6 943f 321f 713f
00000020: ba21 893f 83ad 853f 7491 6f3f a4d3 823f
00000030: 89c5 803f ee8f 673f bea8 8b3f a1d7 553f
00000040: 29b6 913f 7899 7d3f 6079 733f dd24 763f
00000050: be8f 663f 3fde 703f f2b7 663f 47a2 7a3f
00000060: e4c0 8b3f 6808 803f 5402 593f 9c1a 813f
00000070: 05de 753f 62f7 6e3f b0dd 7b3f 1759 583f
00000080: c45f 903f 5c3c 813f 2ea1 883f c248 743f
00000090: e81c 863f f772 7f3f f66e 763f 1f31 7d3f
000000a0: 2f48 883f 1613 823f aa6d 753f f7a9 833f
000000b0: d2a7 8c3f eb85 803f c12b 643f bf6a 6d3f
000000c0: 42a4 6b3f e756 813f 4de8 823f c826 7a3f
000000d0: 230d 823f bc1e 723f bada 623f cbdd 693f
000000e0: 4698 6d3f 328e 7a3f 29e1 7b3f 2539 673f
000000f0: 6e12 763f 2520 673f 0756 8e3f b90c 7b3f
00000100: 913c 853f c205 703f b5aa 853f 9380 7c3f
00000110: 3815 753f 14f7 833f 3edf 7b3f 2cab 873f
00000120: b855 783f d3ea 723f 558f 5e3f 3087 813f
00000130: b533 753f 1ad4 7e3f 01e4 713f cf27 773f
00000140: 1ae0 623f f312 903f e302 813f 2880 783f
00000150: df5f 763f 0f92 573f 9eaa 823f c2e7 5a3f
00000160: 57fc 7e3f b805 663f 590f 6e3f 97b2 863f
00000170: 0e79 873f 3075 683f 7c67 803f dd90 763f
00000180: 30b9 833f a000 703f 165e 653f 16ac 833f

layers.6.bias f4 [100]
-0.12995991 0.017430503 -0.05177112 0.106129706 0.06899572 0.10303623 -0.07466195 0.21452175
-0.073576145 -0.18979892 -0.063451335 0.20555438 -0.2299986 0.004890442 -0.06606564 0.068259716
-0.028778227 -0.16879846 0.086262174 0.2840063 0.09725638 0.46001908 0.30477786 0.020476278
0.27424735 -0.13445972 0.29025206 0.22421674 -0.08896915 0.19466202 0.20384361 -0.24723068
0.27110243 0.19941925 -0.110799536 0.011491946 0.008647418 -0.12258255 0.30334365 0.13153578
0.0454879 0.11228124 0.3312292 0.27939433 0.4634834 0.14608595 -0.057832073 -0.0050823097
0.13884814 0.026330538 0.058747876 0.24868517 -0.09562179 -0.015736002 0.11832907 -0.30747855
-0.045532335 0.07761161 0.0216468 0.11468278 0.12861764 0.28653038 0.17827633 -0.009567855
-0.10631241 0.003368567 0.15667114 0.37602407 -0.054736942 0.15170786 -0.20399809 0.33606127
0.2330802 0.00037895812 0.16081515 0.044520546 -0.106574595 0.055517282 0.1400685 0.12379497
0.047681216 0.082956254 -0.062281318 -0.23110805 -0.16882771 0.22378421 -0.16785482 -0.020325514
0.042826466 0.028642524 -0.04073944 0.07243051 0.25231537 0.04548483 0.10908976 0.09184849
0.17615351 0.24735609 0.2351376 0.1011415
00000000: 3614 05be 6aca 8e3c f40d 54bd 885a d93d
00000010: a14d 8d3d a904 d33d 5de8 98bd 97ab 5b3e
00000020: 17af 96bd a65a 42be c6f2 81bd d97c 523e
00000030: c184 6bbe 0040 a03b 6c4d 87bd c0cb 8b3d
00000040: 51c0 ebbc 81d9 2cbe 39aa b03d 4669 913e
00000050: 5a2e c73d 9f87 eb3e d80b 9c3e debd a73c
00000060: 266a 8c3e cfaf 09be eb9b 943e 1399 653e
00000070: 7535 b6bd 7b55 473e 61bc 503e 0a2a 7dbe
00000080: f0cd 8a3e 8f34 4c3e deea e2bd b748 3c3c
00000090: e6ad 0d3c 8f0c fbbd dc4f 9b3e 51b1 063e
000000a0: 8551 3a3d b5f3 e53d e096 a93e c60c 8f3e
000000b0: b24d ed3e 8e97 153e 53e1 6cbd 8189 a6bb
000000c0: 352e 0e3e 24b3 d73c 9da1 703d 53a7 7e3e
000000d0: 5bd5 c3bd cae8 80bc 8356 f23d d46d 9dbe
000000e0: 1d80 3abd d6f2 9e3d a154 b13c cede ea3d
000000f0: 58b4 033e 1cb4 923e 128e 363e 7ec2 1cbc
00000100: 52ba d9bd 2dc3 5c3b 666e 203e 3a86 c03e
00000110: d833 60bd 4e59 1b3e e0e4 50be 3910 ac3e
00000120: 93ac 6e3e e6ae c639 baac 243e 2d5b 363d
00000130: c843 dabd 1766 633d 1e6e 0f3e 3888 fd3d
00000140: 614d 433d f8e4 a93d b21a 7fbd 97a7 6cbe
00000150: 2ce1 2cbe b027 653e 22e2 2bbe b181 a6bc
00000160: ce6a 2f3d baa3 ea3c 66de 26bd 7256 943d
00000170: 7b2f 813e 4d4e 3a3d 746a df3d 101b bc3d
00000180: 9661 343e ea4a 7d3e e9c7 703e 4623 cf3d

layers.6.running_mean f4 [100]
0.10162539 0.1635728 0.23869233 0.42899635 0.3542449 0.3773839 0.18863453 0.16452357
0.089281045 0.26045287 0.28042853 0.19070952 0.14847931 0.15539707 0.17260127 0.2076351
0.115668915 0.09159618 0.15141645 0.08962469 0.34312168 0.22281352 0.19806638 0.21096772
0.32351536 0.23245578 0.34201643 0.17250276 0.31823134 0.23671523 0.11201537 0.26065293
0.21403988 0.18522744 0.05073289 0.25069913 0.28844532 0.12392253 0.4342529 0.295156
0.17512104 0.20672402 0.52905136 0.22163677 0.35793602 0.17797635 0.13652074 0.23788339
0.25197953 0.22718726 0.21730128 0.16275132 0.13699795 0.31357795 0.22965804 0.26897693
0.08639799 0.19051275 0.12993503 0.21352807 0.38554725 0.17601094 0.19185968 0.23441756
0.22873457 0.19445933 0.14553642 0.22349016 0.076679185 0.15658791 0.24810247 0.14944954
0.24325658 0.18186694 0.12869589 0.04798391 0.035431594 0.03696548 0.31765056 0.27784008
0.1284977 0.13165663 0.07093397 0.14084674 0.39992365 0.3113451 0.38076583 0.39916933
0.15223822 0.36710027 0.29084855 0.2672141 0.21823226 0.12561613 0.13172819 0.25846568
0.18867931 0.18597177 0.3703549 0.19859515
00000000: f920 d03d a17f 273e c36b 743e 69a5 db3e
00000010: 965f b53e 7638 c13e 6929 413e de78 283e
00000020: fbd8 b63d 145a 853e 5494 8f3e 5b49 433e
00000030: f60a 183e 6920 1f3e 63be 303e 4c9e 543e
00000040: d3e3 ec3d c796 bb3d ea0c 1b3e 268d b73d
00000050: a5ad af3e 3a29 643e ead1 4a3e ec07 583e
00000060: cea3 a53e e308 6e3e c71c af3e 90a4 303e
00000070: 38ef a23e 7a65 723e 5068 e53d 4d74 853e
00000080: 452d 5b3e 43ac 3d3e 4acd 4f3d a35b 803e
00000090: 1baf 933e 18cb fd3d 6556 de3e b01e 973e
000000a0: ee52 333e 76af 533e e96f 073f c0f4 623e
000000b0: 6443 b73e 6f3f 363e 18cc 0b3e b497 733e
000000c0: 7603 813e c7a3 683e 3a84 5e3e 48a8 263e
000000d0: 3149 0c3e 4a8d a03e 7a2b 6b3e 58b7 893e
000000e0: 6ef1 b03d c615 433e b00d 053e 1aa7 5a3e
000000f0: 7366 c53e 363c 343e dd76 443e 280b 703e
00000100: 6539 6a3e 5920 473e 8007 153e 9bda 643e
00000110: fa09 9d3d 9558 203e 930e 7e3e 4d09 193e
00000120: 4118 793e 543b 3a3e dbc8 033e c78a 443d
00000130: b820 113d 1d69 173d 18a3 a23e 0e41 8e3e
00000140: e794 033e ffd0 063e d445 913d 213a 103e
00000150: cbc2 cc3e a068 9f3e bdf3 c23e ec5f cc3e
00000160: 56e4 1b3e 91f4 bb3e 1aea 943e 49d0 883e
00000170: 4778 5f3e 84a1 003e c1e3 063e 9d55 843e
00000180: 2635 413e 626f 3e3e 289f bd3e 875c 4b3e

layers.6.running_var f4 [100]
0.060469303 0.10145328 0.15159307 0.314857 0.2866728 0.31594855 0.120997295 0.08228826
0.0546427 0.18092005 0.186525 0.1303716 0.08102048 0.072090596 0.07760064 0.1429974
0.076526195 0.05612438 0.07719027 0.052091178 0.18165118 0.17139962 0.15208936 0.09483586
0.23455682 0.16544083 0.20726497 0.108031586 0.20743605 0.12948418 0.06718789 0.11761821
0.15126795 0.12586437 0.023717163 0.17237915 0.18005069 0.06604378 0.35808584 0.19887823
0.1114316 0.15419713 0.48703906 0.13455747 0.307767 0.12405203 0.08974162 0.11985378
0.13484098 0.10019011 0.12730305 0.08980646 0.08562302 0.1923254 0.14270262 0.15848067
0.042150885 0.11294467 0.07561811 0.11363653 0.24986207 0.11100635 0.13712445 0.16936988
0.19459379 0.12770092 0.08503454 0.1577156 0.038059074 0.073539495 0.13493028 0.10246854
0.19519886 0.13092564 0.055834156 0.02910638 0.017424151 0.017544836 0.29389971 0.20309444
0.07391617 0.085313104 0.043390278 0.068141386 0.26183325 0.15874211 0.3069452 0.23401307
0.07652657 0.27273327 0.21336365 0.20271663 0.17679101 0.057986077 0.08093363 0.15841493
0.12444921 0.10731759 0.22627604 0.12820359
00000000: a9ae 773d bdc6 cf3d 373b 1b3e f034 a13e
00000010: c7c6 923e 02c4 a13e 6ecd f73d bf86 a83d
00000020: 06d1 5f3d 1b43 393e 6900 3f3e 2280 053e
00000030: 11ee a53d 3ca4 933d 16ed 9e3d e96d 123e
00000040: c4b9 9c3d aee2 653d ef15 9e3d 8f5d 553d
00000050: c402 3a3e 6283 2f3e 50bd 1b3e 4e39 c23d
00000060: aa2f 703e 5269 293e 453d 543e aa3f dd3d
00000070: 1e6a 543e 8097 043e ce99 893d d1e1 f03d
00000080: fce5 1a3e 97e2 003e 7f4a c23c 2984 303e
00000090: 355f 383e f641 873d 0757 b73e bca6 4b3e
000000a0: 4036 e43d dae5 1d3e 2f5d f93e 6fc9 093e
000000b0: a393 9d3e fe0e fe3d 74ca b73d e675 f53d
000000c0: c113 0a3e 7930 cd3d bb5b 023e 73ec b73d
000000d0: 1f5b af3d f3f0 443e a320 123e c248 223e
000000e0: 68a6 2c3d 894f e73d abdd 9a3d 45ba e83d
000000f0: d8db 7f3e 4c57 e33d 5a6a 0c3e 4c6f 2d3e
00000100: 9843 473e 08c4 023e 9726 ae3d 3380 213e
00000110: d5e3 1b3d e09b 963d 2a2b 0a3e 07db d13d
00000120: 36e2 473e 5f11 063e 5bb2 643d 8170 ee3c
00000130: 18bd 8e3c 30ba 8f3c 067a 963e fdf7 4f3e
00000140: 5c61 973d a3b8 ae3d 01ba 313d b68d 8b3d
00000150: 020f 863e 4b8d 223e ec27 9d3e 1fa1 6f3e
00000160: f6b9 9c3d b2a3 8b3e 007c 5a3e f394 4f3e
00000170: b408 353e cf82 6d3d 88c0 a53d 8637 223e
00000180: 3adf fe3d 53c9 db3d e8b4 673e cd47 033e

layers.8.weight f4 [50, 100]
0.055941828 0.000589664 -0.009498073 -0.07595765 0.0017131921 0.0008549623 -0.0056364182 -0.11220801
0.047356103 0.026615169 0.045025483 -0.028783903 0.11370224 0.07900362 -0.10284871 0.043988045
-0.10059341 -0.020680368 0.0010393545 0.073812105 -0.052867386 0.027224798 -0.060177702 -0.043239042
-0.18683001 0.09662461 0.07472994 -0.10413773 -0.04241857 -0.07010261 -0.018221611 0.006573931
-0.1554407 -0.06916316 0.08595403 -0.05908304 -0.0023394327 0.019088274 -0.15488778 -0.07300682
-0.2319717 0.04590067 -0.18533668 -0.1311099 -0.49800253 0.029085634 0.050441504 0.012344282
-0.037546 0.054350752 -0.11319864 -0.03768272 -0.024306476 0.030795027 -0.020992288 0.005683043
0.033749092 0.08685069 -0.0260616 -0.06260669 0.054429356 -0.03901276 -0.24978946 0.07649984
-0.045729253 0.08863251 -0.13450222 -0.22730781 0.062284235 -0.1662201 0.022843426 -0.2246927
-0.080814585 -0.020386454 0.1073806 0.10062699 0.0036442725 -0.013004426 0.011025009 -0.030169904
0.0044238507 0.026910797 0.037639603 0.02491401 0.059075397 0.06581236 -0.09671546 0.06270806
-0.09420311 -0.015556576 -0.06724696 -0.045299605 -0.1570868 0.04171451 0.0023056609 -0.004673922
-0.17372632 -0.072351 -0.03306341 0.1755104 -0.048969667 -0.01747663 0.078072965 -0.032944426
-0.094073646 -0.048433457 -0.23017557 -0.056433532 0.015455618 0.021977248 0.04257195 -0.06348768
-0.10751982 -0.025749607 -0.081520274 -0.027365766 -0.06208018 -0.012619479 0.012947011 0.04888425
-0.115909964 -0.045478106 -0.012274989 0.032045342 0.051310647 0.00246356 0.067910254 -0.080565505
-0.08359465 -0.00048334448 -0.11521676 0.09584865 -0.012789896 0.014791734 -0.008969639 0.010614509
0.08045476 -0.08791497 -0.18522339 -0.057047144 -0.08177928 -0.0658392 0.053390414 0.09365367
-0.16643074 -0.011352391 0.05675832 0.07790027 -0.026814273 -0.06623082 0.009144197 -0.006968064
0.09247009 -0.1568066 0.0023958143 -0.086184606 0.0048005967 -0.021150136 0.015569924 -0.051784474
-0.106854275 -0.031169688 0.08862426 0.046832204 -0.21677953 0.026352737 0.0021856783 -0.158294
-0.019723251 -0.14885429 -0.019376652 -0.17511451 -0.14656183 -0.14846241 0.03622933 -0.0129453465
-0.08789138 -0.024520895 -0.022081023 0.004893379 -0.15362373 0.017835954 -0.06850521 0.11754765
0.0456101 0.012612306 0.02903966 0.060002673 -0.02284233 0.11522878 0.01443214 -0.014902895
-0.058399286 -0.08536874 0.17134789 0.036930367 0.0043160575 0.046920966 -0.022326821 0.025074832
0.0025571978 -0.08432376 -0.028167415 -0.09723294 0.08839374 0.0133645395 0.063912794 0.0032671194
-0.063943535 0.056869783 -0.029434843 0.0051154946 -0.0794807 0.13744706 -0.0495005 0.07090699
0.131125 0.12412506 -0.09823937 -0.022686364 -0.031365126 -0.117825925 0.08874554 -0.08439645
-0.0518459 0.052955303 0.023965664 0.044535793 0.093698815 -0.13516356 -0.094943285 0.03233383
0.05671907 -0.047597703 -0.024006559 0.0677635 -0.030776128 0.0143974535 -0.10432413 5.961444e-05
0.10540185 -0.10858806 -0.009408633 0.014431961 -0.038539447 0.018426612 -0.06667366 -0.14516085
-0.19602974 -0.1020749 0.048168708 -0.04560033 0.09857732 0.09831976 -0.070088826 -0.09862751
00000000: 4223 653d ae93 1a3a ce9d 1bbc af8f 9bbd
00000010: 308d e03a 8c1f 603a b4b1 b8bb 50cd e5bd
00000020: 79f8 413d 0e08 da3c a46c 383d 38cc ebbc
00000030: b8dc e83d a6cc a13d 58a2 d2bd cf2c 343d
00000040: eb03 cebd e069 a9bc f33a 883a cd2a 973d
00000050: 798b 58bd 8a06 df3c e57c 76bd 6c1b 31bd
00000060: 5e50 3fbe 20e3 c53d 030c 993d 2a46 d5bd
00000070: 18bf 2dbd f591 8fbd 7d45 95bc 216a d73b
00000080: d92b 1fbe 6aa5 8dbd ab08 b03d 0f01 72bd
00000090: 2b51 19bb 035f 9c3c e79a 1ebe 9a84 95bd
000000a0: fd89 6dbe 5702 3c3d e6c8 3dbe ac41 06be
000000b0: 30fa febe ff44 ee3c c09b 4e3d ac3f 4a3c
000000c0: d6c9 19bd e59e 5e3d b0d4 e7bd 3259 1abd
000000d0: 601e c7bc da45 fc3c 05f8 abbc d238 ba3b
000000e0: 7d3c 0a3d c6de b13d 237f d5bc f037 80bd
000000f0: 51f1 5e3d d8cb 1fbd cfc8 7fbe f3ab 9c3d
00000100: 994e 3bbd f684 b53d f3ba 09be 61c3 68be
00000110: c11d 7f3d 9a35 2abe 2322 bb3c d815 66be
00000120: 1e82 a5bd 7e01 a7bc 5cea db3d 8615 ce3d
00000130: bfd4 6e3b 8410 55bc 3da2 343c e026 f7bc
00000140: f3f5 903b 0874 dc3c fc2b 1a3d 7718 cc3c
00000150: 0bf9 713d a1c8 863d c112 c6bd 156d 803d
00000160: 8fed c0bd 02e1 7ebc c6b8 89bd 148c 39bd
00000170: 5ddb 20be d6dc 2a3d 921a 173b b327 99bb
00000180: 50e5 31be c32c 94bd 806d 07bd 00b9 333e
00000190: 6b94 48bd 262b 8fbc b8e4 9f3d bcf0 06bd
000001a0: afa9 c0bd 2962 46bd 25b3 6bbe d926 67bd
000001b0: 8f39 7d3c a109 b43c ed5f 2e3d d405 82bd
000001c0: 5a33 dcbd d7f0 d2bc 1af4 a6bd 2c2e e0bc
000001d0: c947 7ebd eec1 4ebc b31f 543c da3a 483d
000001e0: 3462 edbd 4047 3abd 091d 49bc fa41 033d
000001f0: 1d2b 523d ae73 213b 8814 8b3d 87ff a4bd
00000200: ac33 abbd 6669 fdb9 c4f6 ebbd 4c4c c43d
00000210: b68c 51bc 0759 723c 65f5 12bc 7ae8 2d3c
00000220: 77c5 a43d c40c b4bd 33ab 3dbe 44aa 69bd
00000230: e57b a7bd b4d6 86bd e8af 5a3d 7fcd bf3d
00000240: d26c 2abe 61ff 39bc 6a7b 683d 2d8a 9f3d
00000250: 9ba9 dbbc 06a4 87bd 8bd1 153c 5b54 e4bb
00000260: f560 bd3d e991 20be 1803 1d3b 8e81 b0bd
00000270: 534e 9d3b 0d43 adbc ff18 7f3c f51b 54bd
00000280: 6ad6 dabd 9357 ffbc a380 b53d 20d3 3f3d
00000290: 74fb 5dbe b2e1 d73c 993d 0f3b d317 22be
000002a0: a892 a1bc 426d 18be c9bb 9ebc 3851 33be
000002b0: 4e14 16be 8806 18be 3565 143d b818 54bc
000002c0: 6500 b4bd 0be0 c8bc 43e3 b4bc a358 a03b
000002d0: 8a4f 1dbe b51c 923c 764c 8cbd d3bc f03d
000002e0: a8d1 3a3d d8a3 4e3c 95e4 ed3c 5dc5 753d
000002f0: d71f bbbc 11fd eb3d c874 6c3c 462b 74bc
00000300: 1734 6fbd ced5 aebd d275 2f3e 4c44 173d
00000310: b76d 8d3b 3330 403d bde6 b6bc bc69 cd3c
00000320: a996 273b efb1 acbd 5abf e6bc 1022 c7bd
00000330: c707 b53d f1f6 5a3c b6e4 823d 2b1d 563b
00000340: d4f4 82bd 4af0 683d 5721 f1bc e19f a73b
00000350: c7c6 a2bd ecbe 0c3e 09c1 4abd af37 913d
00000360: a245 063e 4835 fe3d b931 c9bd c1d8 b9bc
00000370: b878 00bd b84e f1bd 39c0 b53d 0cd8 acbd
00000380: 5e5c 54bd a9e7 583d a453 c43c 2a6b 363d
00000390: 2ae5 bf3d 5168 0abe a071 c2bd 7a70 043d
000003a0: 4152 683d cff5 42bd 67a9 c4bc 97c7 8a3d
000003b0: 381e fcbc 4ce3 6b3c e4a7 d5bd 840a 7a38
000003c0: eddc d73d 6b63 debd ab26 1abc 0874 6c3c
000003d0: 8adb 1dbd 68f3 963c 338c 88bd 0ca5 14be
000003e0: 05bc 48be a50c d1bd 8d4c 453d 69c7 3abd
000003f0: e8e2 c93d df5b c93d bb8a 8fbd 38fd c9bd

layers.8.bias f4 [50]
-0.015672836 -0.06469837 -0.12332021 -0.061933257 -0.2619682 -0.04657955 -0.09317912 0.046535164
-0.20376027 -0.22455993 -0.20865029 -0.16904572 -0.23321599 -0.118608266 -0.24943034 -0.09660838
-0.11723948 -0.04507083 -0.11109158 -0.28677982 -0.12703258 -0.23632953 -0.1678736 -0.17468575
0.01901237 -0.21195944 -0.2508443 -0.13221633 -0.2930898 -0.06986019 -0.10449024 0.03753667
-0.112969264 -0.25346878 -0.2713758 -0.15189025 -0.22049056 -0.042274296 -0.24726905 -0.13746272
-0.41209266 -0.07947003 -0.14390992 -0.16004378 -0.15735601 -0.0043426068 -0.30003458 -0.18469408
-0.3045251 -0.3086874
00000000: 5264 80bc 9480 84bd 4e8f fcbd baad 7dbd
00000010: b220 86be 33ca 3ebd b2d4 bebd a89b 3e3d
00000020: 88a6 50be 0af3 65be 6ca8 55be 521a 2dbe
00000030: 2cd0 6ebe e4e8 f2bd ab6a 7fbe 9dda c5bd
00000040: 411b f0bd 319c 38bd fb83 e3bd ced4 92be
00000050: d414 02be 5e00 72be 0fe7 2bbe d2e0 32be
00000060: d4bf 9b3c e50b 59be aa6e 80be b863 07be
00000070: de0f 96be dc12 8fbd fbfe d5bd 0dc0 193d
00000080: 6e5c e7bd a9c6 81be c5f1 8abe 1e89 1bbe
00000090: 47c8 61be d027 2dbd 1934 7dbe 07c3 0cbe
000000a0: cffd d2be 2fc1 a2bd 1f5d 13be 84e2 23be
000000b0: ef21 21be 6d4c 8ebb 229e 99be 7220 3dbe
000000c0: b7ea 9bbe 460c 9ebe

layers.10.weight f4 [50]
1.0655987 0.97710127 1.009831 0.95650697 1.0023886 1.047842 1.0017891 0.9879547
1.000453 0.9876683 1.0331343 1.0735738 1.0525078 0.99413294 1.0079255 0.97826535
0.9904739 1.0130962 1.0270325 1.1401168 0.9527473 1.0239357 0.97832286 0.9815183
1.0064306 0.9669981 1.0293009 0.9737903 1.1626152 1.0123533 0.9387337 0.99858457
1.0099138 1.013918 1.0897578 1.1097775 1.0818425 0.9564956 1.1286111 1.064109
1.0419824 0.97142756 0.9889831 0.97955185 0.97072536 0.94246024 1.1182295 0.97610754
1.1477306 0.9868619
00000000: 8a65 883f 4f23 7a3f 2442 813f a4dd 743f
00000010: 454e 803f b01f 863f a03a 803f 99ea 7c3f
00000020: d80e 803f d4d7 7c3f bf3d 843f de6a 893f
00000030: 93b8 863f 7f7f 7e3f b403 813f 996f 7a3f
00000040: b38f 7d3f 23ad 813f cd75 833f 59ef 913f
00000050: 3fe7 733f 5310 833f 5e73 7a3f c944 7b3f
00000060: b8d2 803f 308d 773f 22c0 833f 524a 793f
00000070: 93d0 943f cb94 813f da50 703f 3da3 7f3f
00000080: db44 813f 11c8 813f 2f7d 8b3f 300d 8e3f
00000090: d179 8a3f e5dc 743f 5476 903f b934 883f
000000a0: ae5f 853f 7aaf 783f ff2d 7d3f e9c3 7a3f
000000b0: 7581 783f 1345 713f 2522 8f3f 2fe2 793f
000000c0: d6e8 923f fba2 7c3f

layers.10.bias f4 [50]
-0.23295988 -0.24016157 0.17714289 0.33142903 -0.15652026 0.18595603 0.22459573 -0.19184448
-0.16080453 0.18490648 0.22144702 0.2321156 -0.13185102 0.18560809 0.18517682 -0.20611325
0.18607797 0.21965462 0.2645233 -0.23125713 -0.15305492 0.18872882 -0.2569356 -0.19784872
0.20309475 -0.23231333 -0.27112573 -0.18081507 -0.14496137 0.3035459 -0.18466577 -0.18976013
-0.21406353 0.19945866 0.24511044 0.2701312 0.21578144 -0.18133727 0.23973858 -0.18262358
-0.18708563 -0.22897199 0.17733376 0.18740606 -0.14565116 -0.15513021 0.22862491 -0.14479682
0.26578313 -0.1589019
00000000: 098d 6ebe eaec 75be f264 353e 11b1 a93e
00000010: d946 20be 426b 3e3e 6cfc 653e e172 44be
00000020: f1a9 24be 2058 3d3e 02c3 623e b6af 6d3e
00000030: f403 07be 0c10 3e3e fe9e 3d3e 5a0f 53be
00000040: 398b 3e3e 24ed 603e 996f 873e abce 6cbe
00000050: 6eba 1cbe 2142 413e 108d 83be db98 4abe
00000060: 12f8 4f3e 8ce3 6dbe fed0 8abe 9627 39be
00000070: c170 14be 5e6a 9b3e 0619 3dbe 7b50 42be
00000080: 7833 5bbe e43e 4c3e 3bfe 7a3e a34e 8a3e
00000090: cff5 5c3e 7ab0 39be 087e 753e ad01 3bbe
000000a0: 6093 3fbe a277 6abe fb96 353e 60e7 3f3e
000000b0: 9425 15be 74da 1ebe a61c 6a3e 9e45 14be
000000c0: ba14 883e 2eb7 22be

layers.10.running_mean f4 [50]
0.17227146 0.384401 0.1888052 0.47442392 0.057270277 0.2877405 0.31787333 0.29023236
0.21095854 0.2752794 0.21302801 0.23952237 0.18035673 0.33409053 0.16543981 0.113073744
0.354974 0.33699876 0.24593838 0.1392879 0.47909483 0.1961343 0.23742262 0.2167425
0.49552837 0.18870196 0.26266816 0.24339288 0.10775772 0.4541218 0.21358377 0.37832808
0.31178388 0.10655502 0.15949179 0.2704135 0.256114 0.29315686 0.31881312 0.12109642
0.12652576 0.15053181 0.341769 0.29624888 0.30011448 0.31575632 0.18457174 0.3125992
0.34253547 0.19586898
00000000: ee67 303e 35d0 c43e 2656 413e b1e7 f23e
00000010: 3d94 6a3d b952 933e 4bc0 a23e 5699 943e
00000020: 8405 583e 6cf1 8c3e 0424 5a3e 5a45 753e
00000030: 6faf 383e ea0d ab3e 0e69 293e 3593 e73d
00000040: 27bf b53e 1a8b ac3e 45d7 7b3e 7da1 0e3e
00000050: eb4b f53e 6ed7 483e ea1e 733e bff1 5d3e
00000060: e5b5 fd3e 163b 413e 717c 863e fc3b 793e
00000070: 14b0 dc3d a782 e83e b4b5 5a3e 38b4 c13e
00000080: 23a2 9f3e 8539 da3d d151 233e a373 8a3e
00000090: 6021 833e a818 963e 793b a33e 6601 f83d
000000a0: f88f 013e 0325 1a3e 59fc ae3e efad 973e
000000b0: 9ba8 993e d0aa a13e 6000 3d3e 010d a03e
000000c0: cf60 af3e e191 483e

layers.10.running_var f4 [50]
0.1119788 0.34336218 0.11791072 0.3116621 0.031435788 0.1945233 0.36023772 0.21126302
0.28034198 0.3199116 0.13514946 0.1617933 0.12878625 0.26161322 0.108023934 0.074093826
0.4996943 0.39363533 0.19421294 0.08337033 0.46226186 0.10734679 0.18188876 0.1841112
0.5105223 0.16791587 0.27013558 0.18839976 0.12098474 0.5075976 0.16860747 0.30424935
0.26770377 0.08360973 0.09289472 0.3401815 0.16525899 0.17946501 0.2655901 0.06548792
0.14411616 0.12080111 0.24662949 0.27249953 0.3077449 0.24793056 0.28693116 0.31689298
0.5316616 0.25660652
00000000: 2455 e53d 2bcd af3e 2d7b f13d 2d92 9f3e
00000010: d0c2 003d 1e31 473e 1471 b83e 5555 583e
00000020: fc88 8f3e 74cb a33e 9f64 0a3e 25ad 253e
00000030: 8be0 033e 2bf2 853e a73b dd3d 81be 973d
00000040: eed7 ff3e 928a c93e c2df 463e 10be aa3d
00000050: 96ad ec3e a2d8 db3d 0c41 3a3e a587 3c3e
00000060: 97b1 023f 23f2 2b3e 364f 8a3e deeb 403e
00000070: d9c6 f73d ebf1 013f 70a7 2c3e 92c6 9b3e
00000080: 7810 893e 943b ab3d 963f be3d 452c ae3e
00000090: a739 293e adc5 373e 6dfb 873e 881e 863d
000000a0: 3093 133e 9366 f73d 718c 7c3e 0f85 8b3e
000000b0: bd90 9d3e 82e1 7d3e a4e8 923e cc3f a23e
000000c0: fa1a 083f ee61 833e

layers.12.weight f4 [2, 50]
-0.08850938 -0.039474275 0.19353178 -0.039949123 -0.13878915 0.19631723 0.195269 -0.013749076
-0.06428286 0.10588462 0.09917363 0.19912282 -0.14100718 0.111984715 0.1858089 -0.049877014
0.14229637 0.22745368 0.008721602 -0.14179143 -0.07797044 0.021559741 0.010018894 -0.18244351
0.12302003 -0.16466005 -0.13587938 -0.08951328 -0.19590636 0.091478586 -0.058986124 -0.077858314
-0.23092797 0.111866646 0.11456953 0.25732484 0.25013363 -0.13670447 0.20338924 -0.11261496
-0.21163735 -0.0055236965 0.066834465 0.070125096 -0.13343297 -0.05785719 0.28543115 -0.039509725
0.31097883 -0.085281335 0.20750834 0.12031521 -0.18141964 -0.17273827 0.10642596 -0.14813574
-0.04115868 0.1592941 0.13507019 -0.16426645 -0.24490286 -0.1698065 0.19562425 -0.08104711
-0.21302637 0.16432235 -0.14849336 -0.15204626 -0.23514831 0.24359548 0.078658745 -0.19712743
0.16177355 0.004260943 -0.1324139 -0.042856965 0.088638104 0.06773866 0.20747577 -0.14305167
0.12255348 0.13603479 -0.010761209 -0.107266605 -0.27846017 -0.23598516 -0.057474248 0.057028126
-0.15048936 0.21048708 0.053085018 0.1461389 -0.17586596 -0.13089249 0.087190226 0.11919122
-0.097753115 0.17396906 -0.12959005 0.11279989
00000000: 6844 b5bd c7af 21bd 322d 463e b1a1 23bd
00000010: be1e 0ebe 6207 493e 99f4 473e ce43 61bc
00000020: bba6 83bd 09da d83d 8b1b cb3d dae6 4b3e
00000030: 3064 10be 3e58 e53d b044 3e3e d74b 4cbd
00000040: 24b6 113e 9ee9 683e 0de5 0e3c c631 11be
00000050: f7ae 9fbd 0e9e b03c 4a26 243c 79d2 3abe
00000060: edf1 fb3d a59c 28be f723 0bbe bd52 b7bd
00000070: ad9b 48be 2059 bb3d 6f9b 71bd 2e74 9fbd
00000080: 6278 6cbe 571a e53d 6ea3 ea3d 15c0 833e
00000090: 8411 803e 42fc 0bbe 4545 503e aca2 e6bd
000000a0: 76b7 58be 2000 b5bb 82e0 883d bf9d 8f3d
000000b0: a7a2 08be a9fb 6cbd 0824 923e f3d4 21bd
000000c0: 9e38 9f3e fba7 aebd 117d 543e d267 f63d
000000d0: 12c6 39be 4de2 30be dbf5 d93d e5b0 17be
000000e0: 0196 28bd fe1d 233e d74f 0a3e 7735 28be
000000f0: d1c7 7abe c1e1 2dbe b951 483e 07fc a5bd
00000100: 9623 5abe 1e44 283e a50e 18be 04b2 1bbe
00000110: b8ca 70be 1871 793e d617 a13d c6db 49be
00000120: f7a7 253e 619f 8b3b 8297 07be c98a 2fbd
00000130: e587 b53d 91ba 8a3d 8774 543e 237c 12be
00000140: 52fd fa3d b44c 0b3e c84f 30bc 98ae dbbd
00000150: 5592 8ebe 18a6 71be 1e6a 6bbd 5396 693d
00000160: e219 1abe ed89 573e ad6f 593d 70a5 153e
00000170: 3516 34be ae08 06be ca90 b23d 871a f43d
00000180: c932 c8bd f224 323e 41b3 04be a103 e73d

layers.12.bias f4 [2]
0.30503735 -0.13287957
00000000: db2d 9c3e 9511 08be
