fdia_model_ffnn_pytorch_200_400_200.onnx (onnx, 748137 bytes, 8 tensors)

fc1.weight f4 [200, 128]
0	0xbaa9f3f4	-0.001296638
1	0xbd2a584e	-0.04158812
2	0x3de0e211	0.10980619
3	0x3da852f1	0.08218945
4	0xbc3ab55e	-0.01139578
5	0xbcbb4d20	-0.022863925
6	0xbc9fbd42	-0.019499425
7	0x3c8170bc	0.015800826
8	0x3bfb7363	0.0076736673
9	0x3d46eecc	0.04856758
10	0xbda51ecb	-0.08062514
11	0xbd25b443	-0.040455114
12	0xbbc9214f	-0.006138004
13	0x3d21aef9	0.039473508
14	0x3d6fb11f	0.058518525
15	0x3d40080d	0.046882678
16	0x3d4121bd	0.047151316
17	0x3cbd1e8c	0.023085855
18	0xbb4be615	-0.0031112481
19	0xbcb674dd	-0.022272522
20	0x3d99d923	0.07512119
21	0xbd813cae	-0.06310402
22	0x3cf07b20	0.029355586
23	0x3c9197b1	0.017772527
24	0xbc969413	-0.018381154
25	0x3d2fb80f	0.04290014
26	0xbcabee12	-0.020987544
27	0x3c224c4b	0.009905885
28	0xbc8148bf	-0.015781758
29	0x3dbd4a44	0.09242681
30	0xbdaa3194	-0.083102375
31	0xbd63ad80	-0.055585384
32	0x3dc39a04	0.095508605
33	0x3aa34adc	0.0012458223
34	0xbd81c5cd	-0.06336556
35	0xbbfe6abe	-0.0077641895
36	0xbda5d21b	-0.08096715
37	0x3d2ef97b	0.042718392
38	0x3d215c84	0.03939487
39	0xbc037d33	-0.008025455
40	0x3d3a3465	0.045460124
41	0xbd3a548a	-0.04549078
42	0x3da78885	0.08180336
43	0x3d2c81af	0.042115863
44	0x3d3d8f68	0.04627934
45	0x39c96e50	0.00038419897
46	0xbad5365a	-0.0016266808
47	0x3d84bddf	0.064815275
48	0x3d1d3da4	0.038388863
49	0xbd2d4c73	-0.042309236
50	0xbc28d347	-0.010304279
51	0xbcb8635b	-0.022508314
52	0xbd8f8e90	-0.070096135
53	0x3d97ded1	0.07415546
54	0xbd7cc28a	-0.061708964
55	0xbd342a19	-0.04398546
56	0xbbec0112	-0.007202276
57	0x3dbce78f	0.09223854
58	0xbcf32f4f	-0.029685644
59	0x3dad0dea	0.084499195
60	0xbde0af3d	-0.10970924
61	0x3d3245b7	0.043523517
62	0x3d7d1163	0.06178416
63	0x3c94624b	0.018113276
64	0xbd031dfb	-0.032011013
65	0x3cec4a35	0.028843978
66	0x3da110eb	0.07864555
67	0xbd25c856	-0.04047426
68	0xbcad0f35	-0.021125415
69	0xbdd16bc0	-0.1022563
70	0xbd9ae6b1	-0.07563532
71	0x3d9c9af2	0.07646741
72	0xbcc0bb61	-0.02352685
73	0xbccc1c66	-0.024915885
74	0x3dcfbc39	0.101433225
75	0x3c3ba62d	0.011453194
76	0xba191338	-0.00058393506
77	0x3d487773	0.04894204
78	0xbd48a611	-0.0489865
79	0x3d98a705	0.074537314
80	0x3c99eba6	0.018789124
81	0xbab34d03	-0.0013679567
82	0x3dc6726d	0.09689794
83	0x3da017f0	0.07817066
84	0xbcd834af	-0.026392309
85	0x3d86ad7d	0.06576059
86	0x3c97d3a5	0.018533537
87	0xbc192dc9	-0.009349295
88	0xbc8daf33	-0.017295456
89	0x3d7a588a	0.061119594
90	0x3d119c6a	0.03554956
91	0x3d9735b3	0.07383289
92	0x3d191023	0.037368905
93	0xbe095561	-0.13411476
94	0x3deab18b	0.11459645
95	0xbbf3e09d	-0.0074425475
96	0x3dd5f289	0.104466505
97	0xbcffc1f7	-0.03122042
98	0xbc85fc4b	-0.016355654
99	0xbb8225c3	-0.0039717867
100	0xbd526360	-0.051364303
101	0xbd479692	-0.04872758
102	0xbd7602f7	-0.06006142
103	0x3d9bbaef	0.07604014
104	0xbdc534ce	-0.09629212
105	0xbbc204d9	-0.005920988
106	0x3d8e9d29	0.0696357
107	0x3d742a44	0.05961062
108	0x3d2351f4	0.03987308
109	0xbd1239c4	-0.03569962
110	0x3d5c07db	0.05371843
111	0xbd917e49	-0.07104165
112	0xbd354c9e	-0.04426252
113	0x3c1a9e7c	0.0094372
114	0xbca3e160	-0.020004928
115	0xbce14551	-0.027498873
116	0x3d5c6651	0.053808514
117	0xbb92f099	-0.004484248
118	0x3db72a3d	0.08943603
119	0x3c71c24e	0.0147557985
120	0xbd0dcb41	-0.034617666
121	0x3db02d7b	0.08602425
122	0x3db22767	0.08698922
123	0x3d9f3a79	0.07774825
124	0x3ca6fb44	0.020383485
125	0xbd84bca7	-0.06481295
126	0x3d9b4661	0.07581783
127	0xbd072d27	-0.033002045
128	0x3d23d20e	0.039995246
129	0x3d4ec56d	0.05048125
130	0xbe0b90c9	-0.1362945
131	0xbd288183	-0.041139137
132	0x3bf937a7	0.007605511
133	0xbd914adb	-0.07094356
134	0x3dae64f0	0.08515346
135	0x3cfe1425	0.031015465
136	0x3d420ec9	0.04737738
137	0xbd9ced75	-0.07662479
138	0xbd828c10	-0.06374371
139	0xbcfb7284	-0.030694254
140	0x3deb5199	0.11490173
141	0x3dbb8e02	0.09157945
142	0x3dc2a14f	0.095034234
143	0x3dbfd0d9	0.093660064
144	0xbd284316	-0.041079603
145	0x3d4ea6a1	0.05045188
146	0xbdff9521	-0.12479616
147	0x3ccf875a	0.025333095
148	0xbcbda3f8	-0.023149475
149	0xbbd0e9df	-0.006375536
150	0x3bb8b7c8	0.005637143
151	0x3d4f024a	0.050539292
152	0xbd351391	-0.044208113
153	0x3d3fc9fd	0.04682349
154	0x3db2492f	0.08705365
155	0xbd3dd18e	-0.046342425
156	0x3dac8fa2	0.08425833
157	0x3c64c1bb	0.013962205
158	0x3d5d27db	0.053993087
159	0x3c3f2d98	0.011668585
160	0xbdd23e32	-0.10265769
161	0xbcb41cdb	-0.021986416
162	0xbd1435d2	-0.03618414
163	0x3c61f4db	0.013791288
164	0xbde7b1c6	-0.113132045
165	0x3db35418	0.08756274
166	0xbe2d05d6	-0.16896757
167	0xbcadf448	-0.021234646
168	0xbe099bd4	-0.1343835
169	0x3dca5b88	0.098807395
170	0xbd5c89d6	-0.053842388
171	0xbcd5f112	-0.026115928
172	0x3cda9846	0.026683938
173	0xbccb0c00	-0.024785995
174	0x3ce3ed86	0.027823221
175	0x3d1727a5	0.036903042
176	0xbdd6b824	-0.10484341
177	0x3ddcc915	0.10780541
178	0x3cee389f	0.029079733
179	0x3df679a2	0.12034918
180	0xbc6f14da	-0.014592374
181	0xbd6406c3	-0.05567051
182	0xbd1fd802	-0.03902436
183	0x3d311383	0.0432315
184	0x3cabc9dc	0.020970277
185	0x3d810e23	0.063015245
186	0xbdb5323b	-0.08847471
187	0xbc3857ea	-0.011251429
188	0x3dcc4d29	0.09975655
189	0xbd814281	-0.06311513
190	0x3e00fb12	0.12595776
191	0x3a779dc5	0.0009445812
192	0x3d8ef760	0.06980777
193	0xbc8f975b	-0.017528227
194	0xbd6dc395	-0.05804785
195	0xbc234065	-0.009964083
196	0xbca026eb	-0.019549808
197	0xbe13e5aa	-0.14443079
198	0x3d7747a3	0.060371052
199	0x3de7a249	0.1131025
200	0x3cf3c6d0	0.029757887
201	0xbd233f00	-0.039855003
202	0x3de9161f	0.113811724
203	0x3bbe6a68	0.0058110245
204	0xbd1ae8fc	-0.037819847
205	0x3cf60494	0.03003148
206	0x3d598ade	0.05311095
207	0x3d4c0d09	0.04981712
208	0xbd6d7f2a	-0.0579826
209	0x3d037c79	0.03210113
210	0x3d6468fc	0.055764183
211	0x3d907c23	0.07054927
212	0xbd3842ae	-0.044985466
213	0x3ce1db28	0.027570322
214	0x3d892b21	0.06697679
215	0x3da32c08	0.07967383
216	0x3dd96aaa	0.10616048
217	0xbddd95f0	-0.10819614
218	0xbdb4e6a4	-0.08833054
219	0xb994a331	-0.00028350347
220	0xbd0d10f9	-0.034440015
221	0xbcf4e5b4	-0.029894687
222	0x3d00ec6f	0.03147548
223	0x3b3c610b	0.0028744366
224	0x3d916683	0.07099631
225	0x3d86c4e5	0.065805234
226	0x3dd87e9d	0.105710246
227	0xbd0c94df	-0.034321662
228	0x3dcc16b4	0.09965268
229	0xbbde2a23	-0.0067799254
230	0x3d192c7b	0.037395936
231	0x3d55c501	0.05218983
232	0xbd1998c5	-0.037499208
233	0x3cbea39c	0.023271374
234	0xbd0e0033	-0.03466816
235	0x3dcca96a	0.09993251
236	0x3db12c6b	0.0865105
237	0x3c84a015	0.016189614
238	0xbc953cbf	-0.018217443
239	0x3c4aeaa8	0.012385048
240	0x3d1f4501	0.038884167
241	0x3e005ece	0.12536165
242	0x3b81796b	0.0039512417
243	0x3dd98082	0.10620214
244	0x3dd37e9e	0.10326885
245	0x3d522d1d	0.051312555
246	0xbd42e6a9	-0.047583256
247	0xbb6c41c2	-0.0036049937
248	0x3da0d6ed	0.07853494
249	0xbd3dd8de	-0.0463494
250	0xbcc6fdce	-0.024290945
251	0x3e251f68	0.16125262
252	0x3decdcec	0.11565575
253	0xbc658fdf	-0.014011352
254	0x3d99cb5c	0.07509491
255	0x3de5eefc	0.11227223

fc1.bias f4 [200]
0	0xbda8851d	-0.08228514
1	0xbb48a88d	-0.0030618042
2	0xbc901eb0	-0.017592758
3	0xbcdefc94	-0.027220048
4	0xbc695218	-0.014240764
5	0xbd89a78f	-0.067214124
6	0x3cc5fd81	0.024168732
7	0x3c4decd0	0.0125686675
8	0x3d164936	0.036690913
9	0x3d1c2b0e	0.038126998
10	0x3ca32441	0.019914748
11	0xbd7571c6	-0.059922956
12	0xbc49bf2a	-0.0123136435
13	0x3cf9cf33	0.030494308
14	0x3d26c9af	0.040719684
15	0xbd4148ee	-0.04718869
16	0xbc82a6a2	-0.015948597
17	0xbd34d726	-0.044150494
18	0xbca61169	-0.020271974
19	0x3d134b98	0.035960764
20	0x3d93343b	0.071876965
21	0xbdc89e58	-0.09795827
22	0xbd08aae9	-0.033366118
23	0xbd4eb8d2	-0.050469227
24	0xbcaeb018	-0.021324202
25	0xbd7be471	-0.061497156
26	0xbd2e41e8	-0.04254332
27	0x3d056667	0.03256836
28	0xbd5295e7	-0.05141249
29	0xbdb37700	-0.08762932
30	0x3cc90234	0.024537183
31	0x3c8a3c7e	0.016874548
32	0xbd349189	-0.044084106
33	0x3d28b59e	0.04118883
34	0xbd742c44	-0.059612527
35	0x3cfffd35	0.031248668
36	0xbbb37e99	-0.005477738
37	0xbd1533a9	-0.03642622
38	0x3d84c151	0.06482185
39	0x3cb3c26c	0.021943294
40	0x3d3059b3	0.043054294
41	0x3c97a021	0.018508973
42	0x3cdf3eaa	0.02725156
43	0x3c459efa	0.012061829
44	0xbd87cccd	-0.066308595
45	0xbd8cf349	-0.068823405
46	0x3befac2d	0.007314226
47	0x3d8d0f41	0.06887675
48	0x3bf04260	0.0073321313
49	0xbd786c7a	-0.060650326
50	0xbc4b1bf0	-0.012396798
51	0xbc255ee0	-0.010093421
52	0xbce79c08	-0.028272644
53	0xbdb2fc66	-0.087395474
54	0xbcb8d845	-0.022564063
55	0xbcb4a053	-0.022049105
56	0x3d5c2f0e	0.053755812
57	0x3dbac90c	0.09120378
58	0x3d551cd2	0.05202944
59	0xbdbbdc1f	-0.09172844
60	0xbd778574	-0.060430005
61	0x3d8717ea	0.06596358
62	0xbcda721a	-0.026665736
63	0x3d119af1	0.035548154
64	0x3d525a96	0.05135592
65	0xbd0e5ba5	-0.034755368
66	0x3d42b4f3	0.047535848
67	0xbd914320	-0.07092881
68	0x3d95f736	0.07322542
69	0xbdc69cc7	-0.09697872
70	0x3d7f04b5	0.06226035
71	0x3d559063	0.05213965
72	0x3cc514ff	0.024057863
73	0xbdbccae0	-0.09218383
74	0xbc5969aa	-0.013269821
75	0x3d1c104d	0.038101483
76	0xbbe292c5	-0.006914469
77	0xbd34d18e	-0.04414516
78	0xbc9fd39c	-0.019510083
79	0xbcefd389	-0.029275673
80	0x3d28f606	0.04125025
81	0x3d8b1317	0.067907505
82	0x3bdd2807	0.0067491564
83	0x3d598c71	0.05311245
84	0xbb91b566	-0.004446673
85	0x3d82bafa	0.06383319
86	0x3ceb0916	0.028690856
87	0xbbc0bb4a	-0.0058817016
88	0xbda543cd	-0.080695726
89	0xbda048e3	-0.07826402
90	0x3c50259e	0.012704281
91	0xbd006108	-0.031342536
92	0x3d62d3d5	0.0553778
93	0xbca2e1e8	-0.019883111
94	0x3d077ef2	0.03308005
95	0x3c08d961	0.008352608
96	0xbdb91a78	-0.09038252
97	0xbcdb6980	-0.026783705
98	0xbcbb010f	-0.022827653
99	0xbd47273d	-0.048621405
100	0xbd5f0c2c	-0.054454967
101	0xbcd7cc12	-0.026342425
102	0x3d85b734	0.06529084
103	0x3d80ca86	0.06288628
104	0xbd680522	-0.05664552
105	0xbd7f1df6	-0.062284432
106	0xbd891171	-0.0669278
107	0x3acc8149	0.0015602495
108	0xbdbde820	-0.0927279
109	0x3d21c469	0.039493952
110	0x3c18c000	0.00932312
111	0xbd0545fa	-0.032537438
112	0x3a455963	0.0007528273
113	0xbcc9da50	-0.024640232
114	0xbcee3ebd	-0.02908265
115	0xbcef47d1	-0.02920905
116	0xbd4cb917	-0.049981203
117	0x3c3db540	0.011578858
118	0x3d94dc6e	0.07268606
119	0x3d450f1e	0.04811012
120	0x3d4d79fc	0.05016516
121	0xbc5a602d	-0.013328594
122	0x3d40c907	0.047066715
123	0xbd0321e3	-0.03201474
124	0xbdd028f6	-0.10164063
125	0xbca5dcab	-0.020246824
126	0x3c82bc8f	0.015959052
127	0xbcff2aa9	-0.031148272
128	0xbbd3441f	-0.0064473297
129	0x3d194bf2	0.037425943
130	0x3d11a127	0.035554077
131	0xbd3ab4b1	-0.045582477
132	0xbd3840ac	-0.04498355
133	0x3caef819	0.021358537
134	0xbd090fb1	-0.03346223
135	0x3b2c9ad0	0.0026337393
136	0x3cc1f621	0.023676934
137	0xbb98e269	-0.004665662
138	0x3bde845d	0.0067906813
139	0xbd2fe5eb	-0.042943876
140	0xbdb92966	-0.09041099
141	0x3d2ca8eb	0.04215328
142	0x3d29aa10	0.04142195
143	0xbdb442d3	-0.08801808
144	0xbdeee5c1	-0.11664916
145	0x3d3baa83	0.04581691
146	0xbd3c6316	-0.045992933
147	0x3d38222f	0.044954475
148	0xbceb7cd9	-0.028746055
149	0xbcab308a	-0.020897169
150	0x3ad6ff2f	0.0016402955
151	0x3c7fb379	0.015606754
152	0x3d92fb52	0.07176842
153	0xbc6164be	-0.013756929
154	0x3da38ae8	0.07985479
155	0xbd77cdbb	-0.060498934
156	0xbd2d4e95	-0.04231127
157	0x3d15a999	0.036538694
158	0xbd9aaf49	-0.07552964
159	0x3ce697ba	0.02814852
160	0xbd9c1b85	-0.076224364
161	0xbc59ccae	-0.013293428
162	0x3cc43625	0.0239516
163	0xbccbf135	-0.02489529
164	0xbdbb5ab5	-0.0914816
165	0xbd850ff8	-0.064971864
166	0xbdc9003e	-0.09814499
167	0xbcddb798	-0.027065083
168	0xbddd929e	-0.10818981
169	0x3d953e0f	0.07287227
170	0x3d4b4103	0.049622547
171	0x3ccd7e1a	0.025084544
172	0x3db9045d	0.09034035
173	0xbdcc1e03	-0.09966662
174	0xbd3d78cc	-0.04625778
175	0xbd9ca297	-0.07648199
176	0xbc874b6f	-0.016515462
177	0xbd0890f4	-0.033341363
178	0x3ca958a1	0.020672144
179	0xbcab6ff8	-0.020927414
180	0xbcb244b6	-0.02176128
181	0xbd16e95f	-0.036843654
182	0x3d707cfb	0.05871294
183	0xbd41ab6b	-0.047282618
184	0xbd99f6fa	-0.0751781
185	0xbd534cff	-0.0515871
186	0x3dc63b93	0.09679332
187	0xbc3f2959	-0.011667573
188	0x3c959eb5	0.018264154
189	0xbcbb693f	-0.022877334
190	0x3d53e3c8	0.0517309
191	0xbd76c74b	-0.060248654
192	0x3d0c9cb1	0.03432912
193	0xbd111555	-0.035420734
194	0xbc097939	-0.008390718
195	0x3d22aef7	0.03971764
196	0x3c8422b7	0.016129835
197	0x3d4d829e	0.050173394
198	0x3cf82889	0.030292766
199	0x3d5b7c88	0.05358556

fc2.weight f4 [400, 200]
0	0xbd5dc764	-0.05414523
1	0x3cceeba9	0.025258856
2	0xbd4e8f03	-0.050429355
3	0xba4075e1	-0.0007341784
4	0xbcf8e101	-0.030380728
5	0x3d791fc8	0.060821325
6	0x3c5da514	0.013528127
7	0x3c599bc5	0.013281767
8	0x3cf1518d	0.029457832
9	0x3dc19990	0.09453118
10	0xbd9c44de	-0.07630323
11	0x3d0faddd	0.03507792
12	0x3afff182	0.0019526931
13	0xbde61394	-0.11234203
14	0x3d000317	0.031252947
15	0xbde1bfb3	-0.11022892
16	0xbbdb5767	-0.006693769
17	0xbdb152f8	-0.08658403
18	0xbc6d0713	-0.014467019
19	0x3d70295f	0.058633205
20	0xbdb54ad7	-0.08852165
21	0x3d844671	0.06458748
22	0x3c2d217b	0.010567064
23	0xbd7ef2d5	-0.0622433
24	0xbd90c219	-0.07068271
25	0xbd168494	-0.03674753
26	0x3cd8082f	0.02637109
27	0x3d9dcfbe	0.07705639
28	0x3bf9c165	0.0076219314
29	0xbd178fcf	-0.03700238
30	0x3b560998	0.0032659527
31	0xbd5b02af	-0.053469356
32	0x3d7c8ab4	0.061655715
33	0x3d1e61a1	0.038667325
34	0x3d191105	0.037369747
35	0xbda92713	-0.08259406
36	0xbd27c25f	-0.04095685
37	0x3d608b83	0.05482055
38	0x3cc416c7	0.023936642
39	0x3d742cc3	0.059613
40	0x3d1eb181	0.0387435
41	0xbd1d9ce0	-0.038479686
42	0x3cacbaa8	0.021085098
43	0xbd0ba03f	-0.03408837
44	0x3d8e38d2	0.06944431
45	0xbd1a3c7a	-0.03765533
46	0xbd84b09d	-0.06478999
47	0x3d9328dc	0.07185528
48	0xbc472148	-0.012153931
49	0xbd3b7ef8	-0.045775384
50	0x3c87418d	0.01651075
51	0xb652d961	-3.141897e-06
52	0x3d5ccbee	0.05390542
53	0x3d446c94	0.04795511
54	0x3d09253d	0.03348278
55	0xbcd3fc64	-0.025877185
56	0x3c53c3e4	0.012925122
57	0xbda203c8	-0.079108775
58	0xbc4c997a	-0.012487764
59	0xbe44b4fa	-0.19209662
60	0xbe144c06	-0.14482126
61	0x3d57b559	0.05266318
62	0x3d9770c3	0.073945545
63	0x3c2ec4a2	0.010666998
64	0x3d234aac	0.039866135
65	0x3c902214	0.017594375
66	0x3d77a376	0.060458623
67	0xbd32cdcc	-0.043653294
68	0xbdc4d0ec	-0.09610161
69	0x3bf8513a	0.0075780423
70	0xbd6735e4	-0.05644788
71	0x3df7c082	0.12097265
72	0x3e0d7bcc	0.13816756
73	0x3d8398d5	0.06425635
74	0x3c4bf5b5	0.012448718
75	0xbd17d965	-0.037072558
76	0xbcbe5968	-0.023235992
77	0xbccd0a14	-0.02502922
78	0x3c50d98b	0.012747179
79	0x3d2ffe78	0.04296729
80	0x3d7cee81	0.061750893
81	0xbd3f3c8a	-0.046688594
82	0xbd49d7e3	-0.04927815
83	0x3c8369f3	0.016041731
84	0xbad9a955	-0.0016606251
85	0x3cdfbe80	0.027312517
86	0x3b51685a	0.0031953068
87	0x3c0c195b	0.008550967
88	0x3d245b1b	0.040125947
89	0xbd5eb8f9	-0.054375622
90	0x3cc56ec2	0.024100665
91	0xbd60f51d	-0.05492126
92	0xbc17e420	-0.009270698
93	0x3dcba28c	0.09943113
94	0x3c7fb213	0.015606421
95	0xbd470cbd	-0.048596133
96	0x3cc5be02	0.024138454
97	0xbdd7dd08	-0.10540205
98	0xbca3f7b3	-0.020015573
99	0x3c98af93	0.018638408
100	0x3cebc955	0.028782526
101	0xbd9017c3	-0.07035782
102	0xb95bbb48	-0.00020955235
103	0xbd8cf65d	-0.068829276
104	0x3cfa77bf	0.030574678
105	0xbd23a16e	-0.039948873
106	0xbcf762d7	-0.030198498
107	0xbdd6d3a6	-0.104895875
108	0x3c75c37c	0.01500022
109	0xbca453ed	-0.02005955
110	0xbc39349a	-0.011304045
111	0x3d335c9c	0.04378949
112	0x3d2a9b6e	0.041652136
113	0xbd49a3fb	-0.04922865
114	0x3d5338d7	0.05156788
115	0x3e3aea88	0.18253529
116	0x3cb4dd88	0.02207829
117	0xbc91e60b	-0.017809888
118	0x3ce698fe	0.028149124
119	0xbe0622d4	-0.13099223
120	0xbdbd2884	-0.09236243
121	0xbdac0967	-0.08400231
122	0xbd1104a0	-0.0354048
123	0xbd5f5f1f	-0.054534074
124	0xbbac01e5	-0.0052492493
125	0x3d4ff1f3	0.05076785
126	0xbd159ee8	-0.036528498
127	0x3d80f86a	0.06297381
128	0x3cb1cc7b	0.02170395
129	0xbd2ce607	-0.04221156
130	0xbc8c0e00	-0.01709652
131	0xbd5386d9	-0.051642273
132	0xbdcd0eff	-0.10012626
133	0x3da6ab38	0.08138126
134	0x3c0cf7c3	0.008603993
135	0xbd042599	-0.03226242
136	0x3d38f024	0.04515089
137	0x3d73596e	0.05941146
138	0xbdac46f8	-0.08411974
139	0xbd3e2e2f	-0.046430763
140	0xbc6b557d	-0.014363644
141	0x3d80b9dd	0.062854506
142	0x3d0afc9f	0.033932324
143	0x3a6f6a8d	0.0009133004
144	0xbd851c8e	-0.06499587
145	0xbd1c8b3c	-0.03821872
146	0x3d855144	0.06509641
147	0xbd51d6cf	-0.051230248
148	0xbd80bb8c	-0.06285772
149	0xbd9e5207	-0.07730489
150	0xbcfc6215	-0.030808488
151	0xbd695808	-0.05696872
152	0xbcb7c896	-0.022434514
153	0x3d80e22c	0.06293139
154	0xbcf9111b	-0.030403664
155	0xbd318cfc	-0.043347344
156	0xbcfcdf21	-0.030868115
157	0x3d75b131	0.059983436
158	0x3c93a647	0.018023623
159	0xbb920f9b	-0.0044574267
160	0xbbc139b0	-0.0058967695
161	0x3b2e67a7	0.0026612075
162	0xbb930f5d	-0.0044879154
163	0xbd2c47d2	-0.04206068
164	0x3d8a9788	0.067671835
165	0xbdd156ff	-0.10221671
166	0x3d129800	0.03578949
167	0xbb0c5b89	-0.0021416864
168	0x3d36bef6	0.04461571
169	0xbda3052a	-0.07959969
170	0xbc816ea1	-0.015799822
171	0xbd5889d4	-0.05286582
172	0x3de86b98	0.11348647
173	0x3c8fdf03	0.017562395
174	0x3d7c12a8	0.06154123
175	0x3db2d71e	0.087324366
176	0xbd140ef7	-0.036147084
177	0xbda95de2	-0.0826986
178	0x3d33d5f0	0.0439052
179	0x3d81c3f9	0.06336207
180	0xbd3aff6b	-0.04565374
181	0x3d4b98ef	0.049706396
182	0xbd2e9cad	-0.042629886
183	0x3c5292b2	0.012852358
184	0x3d69d565	0.057088275
185	0xbd27fc0a	-0.041011848
186	0xbcc4d962	-0.024029437
187	0x3dab1f8a	0.08355625
188	0x3d011103	0.031510364
189	0xbba6b8cf	-0.005087949
190	0xbd08a449	-0.0333598
191	0x3d16eb6b	0.036845606
192	0x3d3bb2b7	0.045824733
193	0x3cb20acd	0.021733666
194	0x3d5ec91a	0.054391004
195	0x3bbe0666	0.0057991026
196	0x3c7efa10	0.015562549
197	0x3c19f5b2	0.009396957
198	0x3d338576	0.04382845
199	0xbd1048c3	-0.03522564
200	0xbd913b2a	-0.07091363
201	0x3d148f3e	0.03626942
202	0xbc2cd73d	-0.010549364
203	0xbd866c53	-0.0656363
204	0x3d8b9fe9	0.0681761
205	0x3d41d792	0.047324724
206	0x3d137a17	0.036005106
207	0xbd5eee12	-0.05442626
208	0xbdd81499	-0.10550804
209	0x3d3658de	0.044518344
210	0xbd298883	-0.041389953
211	0x3cb0663f	0.02153313
212	0xbc54d164	-0.012989376
213	0xbd1aafed	-0.037765432
214	0x3ccd5c26	0.025068354
215	0xbcf12aa5	-0.02943928
216	0x3cdfe50e	0.027330901
217	0xbd8f55e5	-0.06998805
218	0x3bf26dca	0.007398342
219	0x3b657df0	0.0035017692
220	0x3ce22dcf	0.027609734
221	0x3d4631a8	0.0483872
222	0xbacefa15	-0.0015791083
223	0x3d8fb584	0.07017043
224	0x3b523b51	0.0032078812
225	0xbb9ab3c8	-0.0047211386
226	0xbce5c2c5	-0.028046975
227	0x3aee34fb	0.0018173748
228	0x3d308cc8	0.04310301
229	0x3d5eea39	0.05442259
230	0x3d1ee95e	0.038796775
231	0x3cbb737e	0.02288222
232	0x3c059fbb	0.0081557585
233	0xbc45eeb2	-0.012080835
234	0x3d240aaf	0.04004925
235	0xbcf1e0af	-0.029526083
236	0xbcd2e234	-0.025742628
237	0xbbb28c30	-0.0054488406
238	0xbd0f19c9	-0.0349367
239	0xbd84c512	-0.06482901
240	0xbd6c073f	-0.057624098
241	0xbd54d4fc	-0.05196093
242	0x3c1871a2	0.009304436
243	0xbd4ad2aa	-0.04951731
244	0xbd248dcc	-0.04017429
245	0xbcc9750a	-0.024591941
246	0x3cc22d75	0.023703316
247	0xbd62b669	-0.05534974
248	0xbd1c224d	-0.03811865
249	0xbd37a0ea	-0.044831194
250	0xbd2a86ca	-0.04163245
251	0xbc92fb47	-0.017942084
252	0x3d516a33	0.05112667
253	0x3d7ce914	0.061745718
254	0xb982ce51	-0.0002494925
255	0xbcde41b2	-0.027130935

fc2.bias f4 [400]
0	0xbd9e3c59	-0.07726354
1	0xbdcb07ad	-0.099135734
2	0x3d7b0d73	0.061292123
3	0x3cb7ca53	0.022435343
4	0xbd20ec88	-0.039288074
5	0x3c7ca036	0.015419057
6	0xbe05bdd8	-0.13060701
7	0xbc72e2d3	-0.014824587
8	0x3c746e6a	0.014918903
9	0x39e4dbcf	0.0004365132
10	0xbacaad6b	-0.001546306
11	0xbaabd477	-0.0013109584
12	0xbd8ea06a	-0.0696419
13	0x3bfaa7e4	0.0076494087
14	0xbc0f7c0a	-0.008757601
15	0xbde1f11c	-0.11032316
16	0xbd80af13	-0.06283393
17	0xbd8e95f6	-0.069621965
18	0xbdb26081	-0.08709813
19	0xbc85a04d	-0.016311789
20	0x3d492cca	0.04911498
21	0xbdc0aff6	-0.09408562
22	0xbc5df69b	-0.013547565
23	0xbd0edeeb	-0.03488056
24	0xbd88e84a	-0.066849306
25	0xbc9b6d30	-0.018972963
26	0x3d9fac78	0.07796568
27	0xbd8491af	-0.064730994
28	0x3d044ed4	0.03230174
29	0x3d938a2b	0.07204088
30	0xbd813d2c	-0.06310496
31	0xbda36c58	-0.07979649
32	0xbccabe26	-0.024748873
33	0xbd018dbc	-0.03162931
34	0x3d0fc7da	0.035102703
35	0xbd80dd96	-0.06292264
36	0xbe385ca5	-0.18004091
37	0xbcd00e00	-0.0253973
38	0x3d69c9c4	0.057077184
39	0xbd53f38c	-0.051745936
40	0xbcec76e9	-0.028865295
41	0xbd68e822	-0.056862004
42	0x3e13672e	0.14394829
43	0x3c14d6d0	0.009084418
44	0xbcf4f038	-0.029899701
45	0xbbc7814a	-0.0060884105
46	0xbc7bebdb	-0.015376057
47	0xbdb7530e	-0.08951388
48	0x3ccda211	0.025101693
49	0x3c7c5550	0.015401199
50	0x3dbd8657	0.09254139
51	0xbd62f13f	-0.05540585
52	0x3da60158	0.08105725
53	0xbd4aff15	-0.04955967
54	0x3c86fc41	0.016477706
55	0x3d492cdf	0.049115058
56	0x3d77b2a0	0.060473084
57	0xbccf7a2b	-0.025326809
58	0xbaac9df4	-0.0013169632
59	0xbd04cab6	-0.032419883
60	0xbd6b8511	-0.05749995
61	0xbd4cbee8	-0.04998675
62	0x3dee69a5	0.11641244
63	0xbde9c7ca	-0.1141506
64	0xbd945ae9	-0.07243902
65	0xbcef1749	-0.029185908
66	0x3c84e564	0.016222663
67	0xbd7999e2	-0.06093777
68	0x3dea156e	0.11429869
69	0xbd334488	-0.04376653
70	0x3cf0d00a	0.029396076
71	0x3dba41d7	0.09094589
72	0xbd79b0fd	-0.060959805
73	0xba07c11c	-0.0005178617
74	0xbdce931c	-0.10086653
75	0x3d9973c5	0.074927844
76	0xbb8926cd	-0.0041855336
77	0xbdb47b22	-0.08812548
78	0x3e05cb0e	0.1306574
79	0xbdb5ed4f	-0.08883154
80	0xbdbb84cb	-0.091561876
81	0x3bba2034	0.0056801084
82	0xbd7baaa0	-0.061442018
83	0xbdb9d4e0	-0.09073806
84	0x3cd49030	0.02594766
85	0x3cf37b3c	0.029721849
86	0xbe033cdc	-0.12816185
87	0x3c9cb11a	0.019127417
88	0x3d8bf6dd	0.06834195
89	0xbd5294ae	-0.051411323
90	0x3d33e044	0.04391505
91	0x3b25954c	0.002526599
92	0x3cd669f8	0.026173577
93	0x3df43cc6	0.11925654
94	0x3dad1594	0.08451381
95	0xbc8e9147	-0.017403258
96	0xbd704ea1	-0.058668736
97	0xbd96f0fa	-0.073701814
98	0x3a4775e9	0.00076088175
99	0x3ca2de68	0.019881442
100	0xbc123cec	-0.008925658
101	0xbdbf2e2e	-0.0933498
102	0x3d1a48b4	0.03766699
103	0x3ced4a00	0.02896595
104	0x3d294c5d	0.04133259
105	0xbd047bc5	-0.0323446
106	0xbcabea78	-0.020985827
107	0x3d1e0000	0.03857422
108	0x3d379f1d	0.044829477
109	0xbdcc05fe	-0.099620804
110	0xbac851c1	-0.0015283154
111	0x3da24885	0.07923988
112	0xbd673ced	-0.056454588
113	0x3bf02a02	0.0073292265
114	0x3cca7af3	0.02471683
115	0xbc2bdeef	-0.010490163
116	0xbd13ad4a	-0.036053933
117	0x3d37a85d	0.044838298
118	0x3d2fc3d0	0.04291135
119	0x3d7497cd	0.05971508
120	0x3cac5cfe	0.021040436
121	0x3d5cc93a	0.053902842
122	0x3dd4555d	0.10367844
123	0xbdd9668f	-0.106152646
124	0xbca27dad	-0.019835318
125	0x3d3bb642	0.04582811
126	0x3c701652	0.014653759
127	0xbdbfebb1	-0.093711264
128	0xbe13dbf3	-0.14439373
129	0x3d67697d	0.056497086
130	0x3ce8d617	0.028422398
131	0xbd8a980b	-0.06767281
132	0x3b5aa5fa	0.003336309
133	0xbdc69474	-0.09696284
134	0xbd40e81d	-0.04709636
135	0xbdbc7cd3	-0.09203496
136	0xbd0a86d3	-0.033819985
137	0xba48f994	-0.00076665846
138	0x3d5f99a3	0.05458988
139	0x3d56f5db	0.05248056
140	0xbd1ddbc6	-0.03853967
141	0xbbd5331d	-0.0065063373
142	0x3d38e238	0.045137614
143	0xbdaf8bc6	-0.085715815
144	0xbdb4dd5e	-0.08831285
145	0x3d8ae47d	0.06781862
146	0xbc89ebce	-0.016836073
147	0xbd020a3c	-0.03174804
148	0xbda7afea	-0.0818785
149	0x3ccfa3e2	0.0253467
150	0xbb9e4933	-0.0048305034
151	0x3d2b4361	0.041812304
152	0x3b85dc06	0.0040850667
153	0xbe28d91d	-0.16489072
154	0x3d8c0031	0.06835974
155	0x3d05a4d6	0.032627903
156	0x3e20624f	0.15662502
157	0xbd7df991	-0.062005583
158	0x3c4a7b98	0.012358569
159	0xbda97479	-0.082741685
160	0x3d5847cc	0.052802846
161	0xbd36ea2c	-0.044656917
162	0x3d86d129	0.06582863
163	0xbdca02ac	-0.09863791
164	0xbde12299	-0.10992927
165	0x3d8c33c9	0.06845815
166	0xbc197c49	-0.009368011
167	0x3a95246e	0.0011378655
168	0x3d04750e	0.032338195
169	0x3d6bc5ee	0.057561807
170	0x3d56b2cc	0.052416608
171	0xbd8defd2	-0.06930508
172	0xbdbb0d0b	-0.09133347
173	0x3e125e9e	0.14293906
174	0xbc31203f	-0.010810911
175	0xbaebd990	-0.0017993916
176	0x3d31ddcf	0.043424424
177	0xbcb6e7c9	-0.02232732
178	0xbd1629b2	-0.036660857
179	0xbd0d5b9f	-0.034511205
180	0xbcdbafaa	-0.026817162
181	0xbd5f4e16	-0.054517828
182	0xbdd0fa18	-0.102039516
183	0x3cda39dd	0.02663892
184	0x3dc04820	0.09388757
185	0x3d7be1d2	0.061494656
186	0xbb8a3bf6	-0.0042185737
187	0xbdca11e7	-0.09866696
188	0xbd9fd2fd	-0.07803915
189	0xbde9e752	-0.11421074
190	0xbd8c8d0e	-0.068628415
191	0x3bd871f0	0.0066053793
192	0xbd5c90d8	-0.05384907
193	0xbdb28abd	-0.087178685
194	0x3cc10331	0.023561092
195	0xbdcef071	-0.10104454
196	0xbdf59f9f	-0.11993336
197	0xbcde750e	-0.027155425
198	0xbde16c30	-0.11006963
199	0x3d4b0f04	0.049574867
200	0xbd8c1dee	-0.06841646
201	0x3d324071	0.043518487
202	0x3d858333	0.06519165
203	0xbd1a3b76	-0.037654363
204	0xbdbd8b68	-0.09255105
205	0xbd8ea731	-0.06965483
206	0xbd764995	-0.060128767
207	0xbdb7941e	-0.08963798
208	0x3ced9b74	0.02900479
209	0x3d837a2c	0.06419787
210	0x3da27b72	0.079337016
211	0x3d887ec6	0.06664805
212	0x3ce2e3f7	0.027696593
213	0xbddad9ef	-0.10686099
214	0xbd6a4da7	-0.05720296
215	0x3b358579	0.0027697964
216	0xbdbc2cd8	-0.09188241
217	0xbd83ab49	-0.064291544
218	0xbd6de017	-0.058075037
219	0x3daec985	0.085345306
220	0xbd737eb1	-0.059446994
221	0x3d2df3ab	0.042468708
222	0xbd106d5d	-0.035260547
223	0xbd3dbde7	-0.046323683
224	0x3d912f3e	0.07089089
225	0x3cacf7eb	0.02111431
226	0xbd82f83b	-0.063950025
227	0xbcc07b07	-0.023496164
228	0xbd130f55	-0.035903294
229	0xbc408d38	-0.011752419
230	0xbb1ce014	-0.0023937272
231	0xbc7ec9a6	-0.015551006
232	0x3d186b81	0.0372119
233	0x3d73d88e	0.059532695
234	0x3d38c368	0.04510823
235	0xbd06a53b	-0.03287242
236	0x3d22c702	0.03974057
237	0x3d6be205	0.057588596
238	0xbe0a88e9	-0.1352879
239	0xbcee8645	-0.02911676
240	0x3cbc5036	0.022987466
241	0xbcdcf473	-0.026972031
242	0xbc670796	-0.01410093
243	0x3c24c3b1	0.010056422
244	0x3dafb28b	0.08578976
245	0xbc79e108	-0.015251406
246	0xbcb17afa	-0.021665085
247	0x3d90581c	0.070480555
248	0xbdbb26a3	-0.09138229
249	0x3d9358f4	0.07194701
250	0x3d4a41f2	0.049379297
251	0xbc3a13ce	-0.011357261
252	0xbd063c7a	-0.03277252
253	0xbd27f977	-0.041009393
254	0xbdc3c71b	-0.09559461
255	0x3da182c9	0.078862734

fc3.weight f4 [200, 400]
0	0xbdbafb45	-0.09129957
1	0x3d2528b4	0.04032202
2	0x3e1fce15	0.15605958
3	0xbdd782cd	-0.10522995
4	0x3c31bc9b	0.01084819
5	0xbe8ed304	-0.27895367
6	0xbcd1b841	-0.025600554
7	0xbb99df4d	-0.004695809
8	0xbea632cf	-0.3246064
9	0xbd0e4212	-0.03473098
10	0x3c246143	0.010032955
11	0xbd0f76bc	-0.035025343
12	0xbdfc96fa	-0.12333484
13	0xbc2d1c9a	-0.010565901
14	0xbd432369	-0.04764119
15	0xbe089ca3	-0.13341002
16	0xbdd50f9e	-0.10403369
17	0xbea80edb	-0.32823834
18	0xbeb3e7d6	-0.35137814
19	0xbd92d170	-0.07168853
20	0xbc105698	-0.008809708
21	0x3e9c0aa6	0.30476874
22	0xbe26b051	-0.16278197
23	0xbdf32e14	-0.11874023
24	0x3c2b5672	0.010457622
25	0xbd3ce445	-0.046116132
26	0xbd45335f	-0.048144694
27	0xbe59f869	-0.21286167
28	0xbd4cc67a	-0.04999397
29	0x3dacc0f5	0.08435241
30	0xbe4937b9	-0.19650163
31	0x3d7cde26	0.061735295
32	0xbe281d9d	-0.16417547
33	0xbd618d41	-0.05506635
34	0x3e8f0a69	0.2793763
35	0x3e77f03e	0.24212739
36	0x3e092eb1	0.13396718
37	0xbe55e36a	-0.20887533
38	0xbe4714fb	-0.19441597
39	0xbe7e699e	-0.24844977
40	0xbdb9190c	-0.090379804
41	0xbd51a562	-0.051183112
42	0x3d0bc3e6	0.03412237
43	0x3c2354e0	0.009968966
44	0xbd96f3fe	-0.073707566
45	0x3d4af7ef	0.049552854
46	0xbe3a0b1b	-0.18168299
47	0xbe586378	-0.21131694
48	0xbc9a690c	-0.018848918
49	0xbe572906	-0.21011743
50	0xbd4247fd	-0.047431935
51	0x3d5ab746	0.05339744
52	0x3e1006a4	0.14065033
53	0xbcaa7992	-0.020809922
54	0x3bf90b87	0.007600251
55	0x3db679b2	0.0890993
56	0x3d08d1d2	0.033403225
57	0xbe7e1c7c	-0.24815553
58	0xbd6e45b8	-0.058171958
59	0x3db328dd	0.087480284
60	0x3ba4b818	0.0050268285
61	0x3cddc07f	0.027069328
62	0xbe922b4e	-0.28548664
63	0x3e35c09f	0.1774926
64	0xbd05b5c0	-0.032644033
65	0x3d9b6aef	0.07588755
66	0xbe843604	-0.2582246
67	0xbd427035	-0.04747029
68	0xbd2b73e1	-0.041858558
69	0x3d792a73	0.0608315
70	0xbda91b79	-0.08257193
71	0xbc60de60	-0.013724893
72	0xbe0b1319	-0.13581504
73	0xba9e8a5c	-0.0012095678
74	0x3d51cd23	0.051221024
75	0xbdf60f4e	-0.12014638
76	0xbd1aa45b	-0.037754398
77	0x3e23d0bf	0.15997599
78	0x3c2ddeb9	0.010612183
79	0x3c480117	0.012207291
80	0x3d9056ea	0.070478275
81	0x3e1fad7b	0.15593521
82	0xbc9f767f	-0.019465683
83	0xbdbda5ee	-0.09260164
84	0xbe904068	-0.28174138
85	0x3d7f836d	0.062381197
86	0x3e73df25	0.23815592
87	0x3caba7ed	0.020954097
88	0x3e742db0	0.23845553
89	0xbcc91cca	-0.02454986
90	0xbd074fd7	-0.033035126
91	0x3d3bb900	0.045830727
92	0x3e166568	0.14687121
93	0xbd3f355a	-0.04668174
94	0xbd72f08c	-0.059311435
95	0xbe96d001	-0.2945557
96	0x3d5ecac8	0.054392606
97	0x3cab1fc3	0.020889169
98	0xbc8bfd4c	-0.017088555
99	0xba933ee9	-0.0011233959
100	0x3cfbc883	0.03073526
101	0xbdeec397	-0.116583996
102	0xbdd00f96	-0.10159223
103	0x3d91af92	0.071135655
104	0xbd99faf6	-0.0751857
105	0xbdc6c542	-0.09705593
106	0xbe431ba4	-0.19053513
107	0xbdb7837f	-0.08960628
108	0x3c6c52f4	0.014424074
109	0xbe0a20d0	-0.1348908
110	0xbdbd62aa	-0.09247334
111	0x3cb3e2c3	0.021958714
112	0xbde23f77	-0.11047261
113	0xbb49b781	-0.0030779543
114	0x3da81bd1	0.082084306
115	0xbd20693e	-0.039162867
116	0xbd82e114	-0.063905865
117	0x3d5a84f7	0.05334946
118	0xbe175fbb	-0.14782612
119	0xbdcb924f	-0.099400155
120	0xbccfd95b	-0.025372198
121	0x3d2578ca	0.040398397
122	0x3d49cdf2	0.04926867
123	0xbca39ec7	-0.019973172
124	0x3dc94cee	0.09829126
125	0xbc8472bc	-0.01616799
126	0xbe81295f	-0.25226876
127	0x3e413dc1	0.18871213
128	0x3da31212	0.07962431
129	0xbcc8a22e	-0.024491396
130	0xbdd78f72	-0.10525407
131	0xbd998ba0	-0.074973345
132	0x3de53519	0.11191768
133	0xbc6b4472	-0.01435958
134	0x3eb77085	0.35828033
135	0xbe5a3642	-0.2130976
136	0x3c344a4e	0.011004044
137	0xbdc44300	-0.09583092
138	0x3dbcbadf	0.0921533
139	0x3ec3bde9	0.38230827
140	0xbecd6f21	-0.40123847
141	0x3c6ea6b8	0.014566116
142	0x3c8a44aa	0.016878445
143	0xbd7e38bc	-0.062065825
144	0x3cd6377e	0.026149508
145	0x3d8e6266	0.06952362
146	0x3af0a4b6	0.0018359635
147	0xbd81ae13	-0.0633203
148	0xbd1010e6	-0.035172366
149	0xbdd20b53	-0.10256066
150	0x3d280e3f	0.04102921
151	0xb93151a9	-0.00016910456
152	0x3d2aa126	0.04165759
153	0x3eba79c9	0.3642104
154	0xbeb0131f	-0.34389588
155	0x3dbb1508	0.09134871
156	0x3da26e48	0.07931191
157	0xbd45cae4	-0.048289195
158	0xbdf725ed	-0.12067781
159	0x3db5df6f	0.08880507
160	0x3b83a6e5	0.004017698
161	0xbd1d81cb	-0.03845386
162	0x3b446d16	0.0029972247
163	0x3dcaf73c	0.099104375
164	0x3c2e8b93	0.010653394
165	0xbcd694ee	-0.026194062
166	0xbdff1e6b	-0.12456974
167	0xbd9fe372	-0.078070536
168	0x3b91be10	0.004447706
169	0xbe505a77	-0.2034701
170	0xbcc6b005	-0.024253855
171	0xbce2e1c5	-0.027695546
172	0xbd2545e0	-0.04034984
173	0x3cdb8c8d	0.026800418
174	0xbd3e0ed4	-0.04640086
175	0xbd6fcacb	-0.058543008
176	0xbd82b820	-0.06382775
177	0xbe9f66d3	-0.31133136
178	0xbd8be307	-0.068304114
179	0xbe3abccd	-0.18236084
180	0x3d3b51eb	0.04573242
181	0xbd5ce347	-0.053927686
182	0x3d3b8ede	0.045790546
183	0xbd8338f9	-0.06407351
184	0x3d9beabb	0.07613131
185	0xbd038dd3	-0.032117676
186	0xbe94fc11	-0.2909856
187	0x38b99b20	8.850382e-05
188	0xbd8afab7	-0.06786101
189	0x3cee9eb1	0.029128404
190	0x3d02e465	0.031956095
191	0xbdd6a6e9	-0.10481054
192	0xbda6058c	-0.08106527
193	0xbcc772b3	-0.024346685
194	0x3dcc053c	0.09961936
195	0x3c1c8420	0.009552985
196	0x3e85c08d	0.26123467
197	0xbd045817	-0.03231057
198	0xbde31fba	-0.11090036
199	0xbe164684	-0.14675337
200	0xbc8c0563	-0.017092412
201	0x3db3d3d0	0.087806344
202	0xbe22f6ec	-0.15914506
203	0xbd8fa25b	-0.07013389
204	0xbccc1661	-0.024913015
205	0xbdb1c868	-0.086808026
206	0xbccd2a15	-0.02504448
207	0x3be19d96	0.006885241
208	0xbbdc4119	-0.0067216274
209	0x3b81c062	0.0039597014
210	0xbd650649	-0.055914197
211	0xbd710ecf	-0.058852013
212	0xbe00c0f9	-0.12573613
213	0x3c15b8ca	0.009138295
214	0xbe89d84c	-0.26922834
215	0xbd39258b	-0.04520182
216	0x3db25641	0.08707858
217	0xbe8519a9	-0.2599614
218	0xbbb265e7	-0.0054442766
219	0x3e8583c9	0.26077107
220	0xbd100f55	-0.03517087
221	0x3e97c44c	0.2964195
222	0xbbf719ca	-0.007540916
223	0xbd2c3a54	-0.042047814
224	0x3cc9bb2e	0.024625387
225	0xbc388506	-0.011262184
226	0x3ca2e6f8	0.019885525
227	0x3d1c99a8	0.038232476
228	0x3c8637c5	0.016384015
229	0x3ca47cc3	0.020079022
230	0x3d9ea1be	0.077456936
231	0xbe0db706	-0.13839349
232	0xbd930f89	-0.071806975
233	0x3e7834d3	0.24238901
234	0x3c1c1309	0.009526023
235	0x3c2badc5	0.010478442
236	0xbde96516	-0.11396234
237	0xbd4b8a49	-0.049692426
238	0x3cb61b15	0.02222971
239	0x3c1a956a	0.009435037
240	0xbddb9049	-0.107208796
241	0x3e6d810c	0.23193759
242	0xbdb43441	-0.08799029
243	0xbdcade15	-0.0990564
244	0x3ac9aadc	0.0015386003
245	0xbcd37d01	-0.025816442
246	0xbc7d2139	-0.015449815
247	0x3d2d6665	0.04233398
248	0xbc90907a	-0.017647017
249	0xbd56e138	-0.05246088
250	0x3ddf2ae8	0.108968556
251	0x3d28ccd4	0.041210964
252	0xbd28b276	-0.04118582
253	0xbcb37713	-0.021907365
254	0xbe548edd	-0.20757623
255	0x3d7197ff	0.058982845

fc3.bias f4 [200]
0	0x3d9cc2d9	0.07654352
1	0x3d93cd77	0.07216924
2	0xbd94d4e7	-0.072671704
3	0xbd083072	-0.033249326
4	0xbd6d1145	-0.057877798
5	0xbd6e10af	-0.05812138
6	0x3d8fa49d	0.07013819
7	0xbc88e0d9	-0.016708778
8	0x3d52bd52	0.05145008
9	0xbc4adc42	-0.012381615
10	0xbd49872c	-0.049201176
11	0x3caee156	0.021347683
12	0xbd6b9ea8	-0.057524353
13	0x3d49c3df	0.049259063
14	0xbd6c22d4	-0.057650402
15	0xbceaca5f	-0.028660951
16	0x3d0528c2	0.032509573
17	0xbccde275	-0.025132397
18	0x3c66f725	0.01409701
19	0x3c62a56d	0.013833386
20	0x3d469754	0.04848416
21	0x3ca8a70e	0.02058747
22	0x3c5ab4d5	0.013348778
23	0xbd2b029a	-0.041750528
24	0x3d9774ed	0.07395349
25	0x3d910dfd	0.07082746
26	0x3daaa1af	0.0833162
27	0x3c17c4ab	0.009263198
28	0xbd0886d6	-0.033331715
29	0xbd446efd	-0.04795741
30	0xbc283b11	-0.010267989
31	0x3c93bbd7	0.018033905
32	0xbd3efba3	-0.0466267
33	0xbd1b251f	-0.0378772
34	0xbcec99ef	-0.028881995
35	0xbd603803	-0.054740917
36	0x3c8cf0c5	0.017204652
37	0x3db8681f	0.090042345
38	0xbca59129	-0.02021082
39	0xbd2049d7	-0.03913292
40	0x3bdc4874	0.0067225043
41	0x3da8d887	0.08244424
42	0x3d7a26e9	0.061072264
43	0xbc1cc193	-0.009567636
44	0x3d83eeec	0.06442055
45	0x3d5fe754	0.05466397
46	0xbd683401	-0.05669022
47	0xbb8f06fd	-0.0043648467
48	0xbcef5e31	-0.029219719
49	0x3d2baa8f	0.041910704
50	0x3d85bbcb	0.06529959
51	0x3d902822	0.07038905
52	0xbb77bb5c	-0.0037800884
53	0x3db8646a	0.090035275
54	0x3db955ed	0.09049592
55	0xbd827441	-0.0636983
56	0x3d12ce77	0.03584143
57	0x3cda35f0	0.026637048
58	0x3c4f5822	0.01265529
59	0x3d8f0031	0.069824584
60	0xbd67d18e	-0.05659633
61	0x3cf2fec3	0.029662495
62	0x3d539c5b	0.051662784
63	0xbd43efa2	-0.047835954
64	0x3e0350f6	0.12823853
65	0x3ce8f96f	0.028439252
66	0x3d8f3651	0.06992782
67	0x3af1c532	0.001844561
68	0x3ce69f04	0.028151996
69	0x3d869d5f	0.06572985
70	0x3daca0dd	0.0842912
71	0xbc1d4b1f	-0.00960043
72	0x3dcf9960	0.10136676
73	0x3bca607c	0.0061760526
74	0xba4a3230	-0.0007713167
75	0x3d9cdd01	0.07659341
76	0x3cdd0cfe	0.026983734
77	0xbcba4284	-0.022736795
78	0xbc8e8217	-0.017396016
79	0x3d28b8c3	0.041191828
80	0x3d84049e	0.06446193
81	0x3d7b2706	0.061316513
82	0xbc75e3a8	-0.015007891
83	0x3da071fa	0.07834239
84	0x3c955b85	0.018232116
85	0xbcc595b2	-0.024119232
86	0xbd59d347	-0.053180005
87	0xbbd7125a	-0.006563467
88	0xbd9316fa	-0.07182117
89	0xbcadb528	-0.021204546
90	0xbcdace7f	-0.026709793
91	0x3c6f82ea	0.014618615
92	0x3d8f2369	0.06989176
93	0x3c879e55	0.01655499
94	0x3de6ecd9	0.11275644
95	0x3c45d482	0.012074592
96	0x3c27cac9	0.010241219
97	0x3e2e6afe	0.17033002
98	0x3ccb40a3	0.024811095
99	0x3cd6e051	0.02623001
100	0xbd60e02e	-0.054901294
101	0xbd79b499	-0.060963247
102	0x3c42affc	0.011882778
103	0x3d51b225	0.051195282
104	0xbd526f4c	-0.051375672
105	0xbc7ee699	-0.015557908
106	0xbb12322c	-0.0022307737
107	0xbaefbf4c	-0.0018291264
108	0x3d0618ab	0.03273837
109	0x3caab49a	0.02083807
110	0xbd275733	-0.040854644
111	0xbd121950	-0.03566867
112	0x3ce35bb6	0.027753692
113	0x3d1f509f	0.038895246
114	0xbc148061	-0.009063811
115	0xbe01e9b4	-0.12686807
116	0x3d6243ac	0.05524032
117	0xbc999acd	-0.018750573
118	0xbdbd9117	-0.09256189
119	0x3c83062b	0.015994152
120	0x3c91a3c8	0.017778292
121	0xbc0162a3	-0.007897052
122	0x3da3eed4	0.08004537
123	0xbc283914	-0.010267515
124	0x3d86fa6a	0.065907314
125	0xbce7ab89	-0.028280037
126	0x3d7ec802	0.06220246
127	0xbd159747	-0.036521222
128	0xbdb04341	-0.08606578
129	0xbd2768c5	-0.0408714
130	0x3d993f16	0.07482736
131	0xbcce2e4f	-0.025168566
132	0x3d82f322	0.0639403
133	0x39a13dd2	0.00030754373
134	0x3aadc906	0.0013258762
135	0xbd0fce8a	-0.03510908
136	0x3d194423	0.037418496
137	0x3da21274	0.07913676
138	0xbdc7b1d0	-0.09750712
139	0x3c56bc6e	0.013106449
140	0xbcb4260b	-0.021990797
141	0xbd5c62bc	-0.053805098
142	0xbc925b0b	-0.017865678
143	0x3c71bd44	0.014754597
144	0x3d5d284a	0.0539935
145	0x3e22e963	0.15909342
146	0xbd456415	-0.04819115
147	0xbd91bfb1	-0.0711664
148	0x3c122851	0.008920745
149	0xbd6f3a20	-0.05840504
150	0xbd1b0a27	-0.03785148
151	0x3d06fbdc	0.032955036
152	0xbcb8dc80	-0.02256608
153	0x3ac3dfd1	0.0014944022
154	0x3c830097	0.015991492
155	0x3dab8578	0.083750665
156	0xbd220bba	-0.039561965
157	0x3cd64032	0.026153658
158	0x3cdce688	0.026965395
159	0x3d7687fe	0.060188286
160	0x3d86a882	0.06575109
161	0xbd426679	-0.047461007
162	0x3d9f732b	0.077856384
163	0xbd60410b	-0.05474953
164	0xbc9cb9b9	-0.019131528
165	0x3db7dce7	0.08977681
166	0xbcb6869d	-0.022280985
167	0xbd6c7325	-0.057726998
168	0xbd44dda5	-0.04806294
169	0xbadbb1a6	-0.0016761317
170	0x3db69132	0.089144126
171	0xbc8dd1db	-0.017311981
172	0xbd198486	-0.0374799
173	0xbc074fae	-0.008258743
174	0x3d499dfe	0.04922294
175	0xbd24b8c0	-0.040215254
176	0xbd19563b	-0.03743575
177	0x3d45b2c3	0.048266184
178	0x3d839452	0.06424774
179	0x3d932ae7	0.07185917
180	0x3c7b769c	0.015348103
181	0x3c6eb900	0.014570475
182	0xbcefc139	-0.02926694
183	0x3d3713ef	0.044696745
184	0xbd684f18	-0.056716055
185	0x3a2d40a6	0.00066090596
186	0x3c1c2f30	0.009532735
187	0x3dcabcbf	0.09899282
188	0x3d0a84f1	0.03381819
189	0x3aadb155	0.0013251702
190	0xbb86b1a5	-0.0041105323
191	0x3c8c2f3c	0.017112367
192	0x3c9df488	0.01928164
193	0x3da61f58	0.08111447
194	0x3b5c9145	0.0033655923
195	0xbc91bccd	-0.017790223
196	0x3d135b27	0.0359756
197	0xbbceb168	-0.0063077696
198	0x3cd8e6b4	0.026477195
199	0xbd0d12fa	-0.034441926

fc4.weight f4 [2, 200]
0	0xbebac878	-0.3648107
1	0x3de2635d	0.11054108
2	0x3d6d0107	0.057862308
3	0xbd2f5725	-0.042807717
4	0x3e955600	0.29167175
5	0xbcb302bc	-0.02185189
6	0x3dabba9b	0.083852015
7	0xbd074efa	-0.033034302
8	0xbf2945c5	-0.66122085
9	0x3dc549d8	0.09633225
10	0xbd0dcb33	-0.034617614
11	0xbe9c95b8	-0.30582976
12	0x3d93dc0f	0.07219707
13	0x3df497c0	0.119430065
14	0xbc973144	-0.018456109
15	0x3d40f712	0.047110625
16	0x3e0d5132	0.13800505
17	0x3df246b3	0.11829891
18	0xbe13500f	-0.14386009
19	0x3de53acf	0.111928575
20	0x3d5f6c90	0.054546893
21	0x3d8544ca	0.06507261
22	0x3d615d69	0.055020723
23	0xbd3fe478	-0.046848744
24	0x3e18ada0	0.14909983
25	0xbe974a0b	-0.29548678
26	0x3e164da8	0.14678061
27	0x3d988924	0.074480325
28	0x3cd66bfc	0.026174538
29	0xbc7b27ac	-0.015329283
30	0x3e1bcbda	0.15214482
31	0x3da53d9e	0.08068393
32	0xbc86bd5c	-0.016447715
33	0x3a46dbc5	0.0007585849
34	0x3ca02650	0.019549519
35	0x3d64c073	0.055847596
36	0xbc8ed928	-0.017437533
37	0x3de01e60	0.109432936
38	0xbeda2669	-0.4260743
39	0x3dc21b2c	0.09477839
40	0x3c4b2d58	0.0124009475
41	0x3db793bd	0.08963726
42	0x3e0a43dd	0.1350245
43	0xbd7c02a0	-0.06152594
44	0x3e2b3231	0.16718365
45	0x3dd155d3	0.10221448
46	0xbd6cc8cb	-0.05780868
47	0xbd5c47ee	-0.053779535
48	0x3e03837e	0.12843129
49	0x3df0e294	0.11761966
50	0x3e0c3fc1	0.13696195
51	0x3da86f1d	0.08224318
52	0x3df6480b	0.1202546
53	0x3dfd95a8	0.1238206
54	0xbf18fb13	-0.5975811
55	0xbd88bae2	-0.0667627
56	0x3de2cf34	0.11074677
57	0x3db910c0	0.09036398
58	0xbe9728d9	-0.29523352
59	0x3df135e2	0.117778555
60	0x3caa980d	0.020824457
61	0x3d66999d	0.05629884
62	0x3db41a49	0.08794076
63	0xbd402846	-0.046913408
64	0xbea70b1c	-0.32625663
65	0x3de2a6b9	0.11066956
66	0x3d26ff4e	0.04077082
67	0x3e36a7b1	0.17837407
68	0x3dc92321	0.098211534
69	0x3e17ee76	0.1483706
70	0x3df0d4f3	0.11759367
71	0x3e14d9e4	0.14536244
72	0x3e08fd44	0.13377863
73	0xbd6cb47b	-0.057789307
74	0xbdf1fddb	-0.11815997
75	0x3e9003dc	0.28127944
76	0x3e0a2704	0.13491446
77	0x3c545e35	0.012961914
78	0x3df7f987	0.121081404
79	0x3e350fcb	0.17681806
80	0x3e13f975	0.14450629
81	0xbe9f7fa3	-0.31152067
82	0xbd5cb34f	-0.05388194
83	0xbef357f3	-0.47528037
84	0xbdbd7f9b	-0.092528544
85	0xbd6f649c	-0.058445558
86	0xbc42bf14	-0.011886377
87	0x3b147d68	0.0022657756
88	0xbb2dfb6f	-0.0026547571
89	0x3c5cb8da	0.013471806
90	0x3e28c6d8	0.16482103
91	0x3a075a78	0.0005163322
92	0x3e06ab66	0.13151321
93	0xbe473f2a	-0.19457689
94	0xbf0c2e3d	-0.54758054
95	0x3e05f376	0.13081154
96	0xbe6221d3	-0.22083215
97	0xbf059677	-0.52182716
98	0x3dd25aae	0.10271202
99	0xbea29941	-0.31757548
100	0xbe6aed4b	-0.22942083
101	0xbcd53234	-0.026024915
102	0xbf12c053	-0.57324713
103	0x3dec9bb1	0.11553133
104	0x3c82aed8	0.015952513
105	0xbd164092	-0.036682673
106	0x3d17676a	0.036963858
107	0x3dc1c9bd	0.09462307
108	0xbd708b87	-0.058726814
109	0x3cbb453a	0.022860158
110	0xbd7b1d51	-0.061307255
111	0x3dc9373d	0.09824989
112	0x3df229e1	0.11824394
113	0x3db60a2b	0.08888658
114	0xbd677f7c	-0.056518063
115	0x3e80b4dc	0.25137985
116	0x3deefeb1	0.11669672
117	0x3e2c1108	0.16803372
118	0xbc37b212	-0.011211889
119	0xbcb95fa9	-0.022628622
120	0x3d8df386	0.06931214
121	0xbd5484e1	-0.051884536
122	0xbee6b45d	-0.4505948
123	0x3cef1d13	0.029188668
124	0x3dcfab78	0.10140127
125	0x3b6c343c	0.0036041876
126	0x3e06f6c0	0.13180065
127	0x3c335496	0.01094546
128	0x3d423bb3	0.047420215
129	0xbf186fca	-0.59545577
130	0xbe95c6f0	-0.2925334
131	0x3be52b6b	0.006993701
132	0x3e1ac149	0.15112795
133	0xbe7ca314	-0.24671584
134	0xbd481464	-0.04884757
135	0x3cfbfeba	0.030761112
136	0x3dd580af	0.10424935
137	0xbe9eb61e	-0.3099832
138	0xbcb7a5d7	-0.022417946
139	0xbea5b997	-0.32368156
140	0xbd6842ca	-0.05670432
141	0xbd4b82d6	-0.04968532
142	0x3e5841c7	0.21118842
143	0x3e09ced2	0.13457802
144	0x3e322f20	0.1740079
145	0xbf36fdc2	-0.71480954
146	0xbbf6b180	-0.007528484
147	0xbbb4abc0	-0.0055136383
148	0x3c2cbae5	0.010542606
149	0x3c5d0ff2	0.013492571
150	0xbe652c9c	-0.22380298
151	0xbe9c93b6	-0.30581445
152	0x3dfebb24	0.12438038
153	0x3dda16ce	0.10648881
154	0xbed4fb88	-0.41598153
155	0x3e27d3ef	0.1638944
156	0x3d28b831	0.041191284
157	0x3e247a72	0.16062334
158	0xbe9fe9d3	-0.3123308
159	0xbea064da	-0.31326944
160	0x3e2a40c3	0.16626267
161	0x3ef90e92	0.4864393
162	0x3d5f6d94	0.05454786
163	0xbcf7a823	-0.030231541
164	0x3e3177a2	0.17330793
165	0xbf0ffecb	-0.5624816
166	0x3e1872db	0.14887564
167	0xbd3d89c1	-0.04627395
168	0xbd1d9e83	-0.038481247
169	0x3df47089	0.11935527
170	0x3e36b792	0.17843464
171	0x3e0c7b17	0.1371883
172	0x3e4bac43	0.19889931
173	0xbd4c6c84	-0.049908176
174	0xbe44a06f	-0.19201826
175	0x3df68f65	0.12039069
176	0xbcb1ae39	-0.021689521
177	0x3ded5ef8	0.115903795
178	0x3e23f254	0.1601041
179	0xbe549f30	-0.2076385
180	0x3dbe8f29	0.093046494
181	0x3d992e78	0.07479566
182	0x3e141e2d	0.14464636
183	0xbdff3525	-0.124613084
184	0x3cf0ba0b	0.029385587
185	0x3c95d9c4	0.018292315
186	0x3da99e7d	0.08282182
187	0x3cdc7a17	0.026913686
188	0x3e1d8368	0.15382159
189	0xbd75b078	-0.059982747
190	0x3e904d3d	0.28183928
191	0xbd2c230d	-0.042025615
192	0xbd1a2c2d	-0.037639786
193	0x3d8fcdee	0.070217
194	0x3d08a9fa	0.033365227
195	0xbca0bb3b	-0.019620528
196	0xbe713480	-0.23555183
197	0x3b5d59c5	0.003377543
198	0x3e8ec33f	0.27883336
199	0x3c89d760	0.016826332
200	0x3eb32add	0.3499364
201	0xbe23a362	-0.15980294
202	0x3cfbb5a7	0.030726267
203	0x3d7668e1	0.060158614
204	0xbe70715b	-0.23480742
205	0x3d0e2899	0.034706686
206	0xbe1ef32e	-0.15522453
207	0x3c8977ca	0.016780753
208	0x3f09e2dd	0.5386179
209	0xbe3a26c1	-0.18178846
210	0x3d00a93b	0.03141139
211	0x3e8e5531	0.2779937
212	0xbe138783	-0.14407162
213	0xbdf4d578	-0.119547784
214	0xbc5a88de	-0.013338296
215	0x3d37badb	0.044855934
216	0xbe13e20c	-0.14441699
217	0xbdedda26	-0.11613874
218	0x3e1acfa8	0.15118277
219	0xbda1cb17	-0.079000644
220	0xbe0926a5	-0.13393648
221	0xbe02b4cf	-0.12764286
222	0xbdb7b59c	-0.08970186
223	0x3d32572e	0.043540172
224	0xbd6b876c	-0.057502195
225	0x3ebd8b6c	0.37020433
226	0xbda284a1	-0.07935453
227	0xbdecc113	-0.115602635
228	0x3b544eb7	0.003239555
229	0x3d03473f	0.032050367
230	0xbe364080	-0.17798042
231	0xbe025578	-0.12727916
232	0xbc6b6ab3	-0.014368701
233	0x3cb893f0	0.02253148
234	0x3cb312e5	0.021859596
235	0xbdf81571	-0.121134646
236	0x3c9adefb	0.018905153
237	0xbdfb6eac	-0.12276968
238	0x3eac9e75	0.33714643
239	0xbdeca90d	-0.115556814
240	0x3cac9316	0.02106623
241	0xbddad653	-0.1068541
242	0xbe46e7c9	-0.19424357
243	0x3cc84b3b	0.024449935
244	0xbd1b9ef7	-0.037993398
245	0xbe1967d6	-0.14981017
246	0xbd4f5bc0	-0.05062461
247	0x3d17b61a	0.0370389
248	0xbe070488	-0.13185322
249	0xbd8a52ef	-0.067540996
250	0xbcf9542d	-0.030435646
251	0xbdd3f3f9	-0.103492685
252	0xbe23091d	-0.15921445
253	0xbdaf0145	-0.08545164
254	0x3f2798d1	0.65467554
255	0x3c20abea	0.0098066125

fc4.bias f4 [2]
0	0x3bf3090e	0.007416851
1	0x3cdf7e34	0.027281858
