fdia_model_ffnn_pytorch.onnx (onnx, 185103 bytes, 6 tensors)

fc1.weight f4 [200, 128]
00000000: 7c12 3a3d 7dd7 c83d bcee 8fbe 9957 0b3d
00000010: 9337 b2bc 6a35 0cbe 5d90 84bc 8b12 38bd
00000020: ebc2 39bc 7d8c 443c 001b 733d 4e68 773d
00000030: 2531 623d 0caf 26be 0160 04be 29eb 55bd
00000040: 9507 0bbc fe50 1abd 2a9d 733d b23d 27bd
00000050: cbdf bdbd 2227 31be 0d13 46be 8d67 c4bc
00000060: 1cac f73b 35bf a7bd eb72 9a3d a83c e638
00000070: c658 0fbd 83c6 67bd f3d0 8e3e 0585 32be
00000080: da22 613d a5cd 6e3d 6e44 23bd 065a 283d
00000090: 9ebd 4bbe 4d59 7bbe 6100 f63d 7e71 8b3d
000000a0: 8c2a d8bc 5455 583d dcc9 87bc 177e fabd
000000b0: 73c1 3f3d 3019 17bd bc51 1c3d 0443 f33c
000000c0: a3f7 8dbd f501 75bb ed56 5fbd 4633 f3bd
000000d0: bf58 7a3c c52b 74bd 72ad bc3c da48 cc3d
000000e0: f7e0 82bd b188 883d 5ade d5bc b5bd 8e3e
000000f0: 6261 153e 4a76 833d f61f 22bd 88df 45bd
00000100: ae74 0d3e bc76 47be e44f 4dbe cc35 2b3e
00000110: 0ad3 cd3d d754 873d 58b7 21bd 99f2 2cbd
00000120: 1acc 2cbe d78a e03c babb 723d 977c bc3c
00000130: 590f 19bd 2709 303d b666 8abd 6199 47be
00000140: 78dd 0ebe 944c b4bc 6a72 9dbd 3d33 f73c
00000150: 3d24 303c 6d7c 9a3d 6919 b6bc 2e08 5bbc
00000160: d0fe 633e 57b9 6f3d 44c1 f33d 1c08 d2bd
00000170: 7f35 0ebe be7a 193d 21a9 39bc 6b4b 00be
00000180: a6cc 46bb 3fd6 643d 3d05 ea3d 4fc0 4cbd
00000190: 6757 bd3c cf5f 82be 075a 6fbc 2bb6 983d
000001a0: e125 c4bd 6dcf 28be 9fda 07be 2c0e 463d
000001b0: 6c98 8fbe 6d2b 87be c14b 963c 6ffc a0bd
000001c0: 9803 82bd dcd9 213c 9ccb 86bd fc63 643d
000001d0: 2ada 48bd 796c b2bc 6dc1 b5bc 909e 41bd
000001e0: 69f7 c9bc 0fa5 3cbd ff07 93bd 3ec5 e13c
000001f0: f2f5 efbb 625e 243d c7ed bd3c e7ad a33d
00000200: f597 66bd b5bd 74bd 842a 24bc dbe6 b43c
00000210: 5806 753d 4564 8dbd 0460 8cbd b1aa c63c
00000220: 69e9 ad3a 9840 96bd 163a 55bd e3d7 25bd
00000230: d7f4 79bc 22a8 53bd 94b9 f5bd 53fe d5bc
00000240: 8821 3abd ed26 c6bc 3a4c a2bc e6d6 f0bc
00000250: 6cff 163d 0d00 0bbe bfe9 1bbe 7572 823d
00000260: ce6b 9e3d bc24 963b 44b7 83bd 430d cc3c
00000270: 621b 97bd 8eff 083e d2f5 ec3d a5eb 893d
00000280: 53e7 d2bc 2f39 323e 6aa7 f93d b593 b8bc
00000290: 500d 713d b023 b43d ed2c 6dbc d46e 4c3d
000002a0: 2e9c 91bc 1a36 48bd 8535 4f3c 8a63 14be
000002b0: e149 023d 5e7a 8cbc 9806 323d 538e 68bd
000002c0: 5227 2d3d c02a 78bd a8b8 19bd 1ea0 8cbd
000002d0: f378 85bd d11d 943d 607b b23d 79e4 ec3d
000002e0: a785 a8bd 0ed3 6ebc d194 403d 80ec e03c
000002f0: 5cec 473e 4f2f 4d3d 4948 363e 276b ac3c
00000300: 2c8f db3d 1ee6 e3bc 0109 5a3e bbb5 38bd
00000310: 3190 38bd e0be d53c 241e d53c f96d 11be
00000320: b250 eabc cb24 91bd 22d0 d43c d061 12bd
00000330: bd4d e1bd ae04 00bd e264 89bd d9c4 273c
00000340: f2c4 58bd e836 81bd 2508 29bd f3c3 1ebb
00000350: 7da8 a4bd 6b7a 393d ddc1 41bc abcb 3fbb
00000360: d403 0dbe 057e 9abd 2ca8 63bd 76f9 863d
00000370: 1f3c cd3d 97a9 ebbc 026e 5a3d fff2 983d
00000380: 6ac3 ee3b f6ab 083e ddc6 84bc 4406 1cbd
00000390: 1ae2 91bd 0ec6 5b3d e94a 19bc ae36 2dbd
000003a0: debf b0bd 00e6 febd 32c7 143c ef86 19bd
000003b0: 1b9b 23bc fde4 9cbd 5816 26bd a9f9 6d3d
000003c0: 106a 1a3d f07f 0bbe 1877 8ebb 0512 143d
000003d0: 7d45 2a3d dd65 813d 6fb9 693d a36f a03d
000003e0: 9d0c 58bd bc75 8abd a155 3cbd 9658 9bbd
000003f0: 8ef0 61bc 3756 033c 8d2f 87bc db6e 64bd
0.045427784 0.09806726 -0.28111827 0.034019087 -0.021755015 -0.13692251 -0.016182119 -0.04493956
-0.011337976 0.011996386 0.05935192 0.060402207 0.05522265 -0.16277713 -0.12927248 -0.05222622
-0.008485694 -0.037674896 0.059476055 -0.04083032 -0.09271201 -0.17300084 -0.19343205 -0.023975158
0.007558359 -0.08190767 0.0754145 0.00010978553 -0.03499677 -0.0565858 0.2789379 -0.17433555
0.054964878 0.058301587 -0.03986018 0.041101478 -0.19896552 -0.24545784 0.12011791 0.06808756
-0.026387475 0.05281575 -0.016575746 -0.12231081 0.046815347 -0.036889255 0.038163885 0.029695041
-0.069319986 -0.00373852 -0.05452626 -0.11875014 0.015279948 -0.059612054 0.023031924 0.09974833
-0.06390565 0.06666697 -0.026107002 0.2787911 0.1458793 0.06419046 -0.03958126 -0.04830888
0.13814041 -0.19478887 -0.20050007 0.1671974 0.10050018 0.06607979 -0.03948149 -0.042223547
-0.16874734 0.027409954 0.05926106 0.023008628 -0.037368152 0.04297748 -0.06757872 -0.19492103
-0.13951671 -0.022009172 -0.076878384 0.0301758 0.010750827 0.075432636 -0.022228913 -0.013368649
0.22265172 0.058526363 0.11902097 -0.10255453 -0.13887595 0.03747057 -0.011331827 -0.1252877
-0.0030334382 0.055868383 0.114267804 -0.049988087 0.023112966 -0.2546372 -0.014608867 0.07456621
-0.09577537 -0.16485377 -0.13266991 0.04835336 -0.28045976 -0.2640032 0.01834667 -0.07860648
-0.06348342 0.009878602 -0.06581804 0.055759415 -0.049036182 -0.02178024 -0.02218696 -0.047270358
-0.024654107 -0.04605585 -0.071792595 0.027559873 -0.00732302 0.040129073 0.02318467 0.079921536
-0.05629726 -0.05975123 -0.010019902 0.022082737 0.059820503 -0.069038905 -0.06854251 0.024251314
0.0013268414 -0.07336539 -0.05205735 -0.04048909 -0.015256128 -0.051674016 -0.11998287 -0.026122248
-0.045442134 -0.024188483 -0.019811738 -0.029399347 0.036864683 -0.13574238 -0.15225886 0.06369487
0.07735406 0.004582016 -0.064314395 0.024908667 -0.0737827 0.13378736 0.11570324 0.06734399
-0.02574507 0.17404626 0.12190135 -0.02253137 0.058850586 0.08795869 -0.014476043 0.04991038
-0.017774668 -0.04887972 0.012647037 -0.14491096 0.031808738 -0.017148193 0.04346332 -0.056776356
0.042273827 -0.060587645 -0.037529618 -0.068664774 -0.0651721 0.072322495 0.08714938 0.11567015
-0.08228617 -0.014576687 0.047016922 0.027456522 0.19523758 0.050093945 0.17801012 0.021047188
0.10720667 -0.02781969 0.21292497 -0.045095187 -0.045059387 0.026091993 0.026015349 -0.14202107
-0.028602932 -0.07087096 0.025978152 -0.035737813 -0.110011555 -0.031254463 -0.06708695 0.010239803
-0.052922197 -0.06309301 -0.041267533 -0.0024225682 -0.08039949 0.045282762 -0.011826006 -0.0029265683
-0.13770992 -0.075435676 -0.055580303 0.0659055 0.10021233 -0.02876739 0.053327568 0.07468223
0.0072864788 0.13346848 -0.016208107 -0.038091913 -0.071232036 0.053655677 -0.009356239 -0.042288475
-0.08630346 -0.12446213 0.009080695 -0.0374822 -0.0099857105 -0.076608635 -0.040548652 0.058099423
0.037698805 -0.13623023 -0.004347693 0.036149997 0.041570175 0.06318257 0.05706161 0.07833793
-0.052746404 -0.06760737 -0.0459801 -0.07585256 -0.013790263 0.008016161 -0.016502166 -0.055769783

fc1.bias f4 [200]
00000000: 9979 6c3b 6ebe 2d3d 13cd 0bbd cf40 71bd
00000010: dd40 86bd 5979 54bd a8fa bdbd 6f5d 1a3d
00000020: 6496 b6bd f63d 97bd a0f6 36bc b485 8c3d
00000030: 6b3a bbbd 561c 19bd 4fe3 6f3c aa06 ca3c
00000040: 81aa e2bc e8ce 0d3d 499f 42bd 05cc 3cbd
00000050: 0738 0b3d c19b f2bc bd36 c7bd 74ea 7a3d
00000060: e118 4f3d 4c59 c33d 65b5 d23c 24eb 9b3d
00000070: b74d 2fbd c78a c8bd da45 72bc 2081 2ebd
00000080: 6fa5 b4bd 1811 8cbc e82d 853d 4daf 8cbd
00000090: be06 273d 9091 03bd fcc2 63bb 087e 86bd
000000a0: 876e a0bd 26df 993d 06c5 dc3c feff e73c
000000b0: b089 a53d 3dab 22bd de87 b1bc 3bc3 babd
000000c0: 2333 223d a02e 6c3d 8f81 0d3d b7a8 10bc
000000d0: d4d1 99bd bb87 e5bc 99af 8ebc da24 a3bd
000000e0: a298 b3bc b406 1abd 00ae a9bc bc47 cfbc
000000f0: 9f4c b13c 8980 17bb 4e20 bbbd 839f 9dbd
00000100: 061e ed3c 4104 813d d46b 253d b1e7 a1bd
00000110: a931 b1bd 26b7 35bc a46f cbbd e9ad 2c3d
00000120: b597 4f3d a608 61bc afec babc 0ed1 983c
00000130: e70b cfbc 5339 713d 3f5f 92bd 9037 223d
00000140: a66d 833d 951e 50bd 52ef b53d d5d1 053c
00000150: ad67 433d 6307 133c 7962 0b3d 54ca 0cbd
00000160: fa1c bcbc aa46 bd3c dbd9 0b3d 7bef 903b
00000170: fecd be3c 1c66 79bd 5676 a9bc 8540 08bb
00000180: f0d8 babd a2de 3e3d 42a9 1b3d b54c 45bd
00000190: a57b 6f3c a4f5 9e3a d49e 973d 1195 22bd
000001a0: 73df c2bd f86c ba3c 1861 b9bc 1bd5 0dbd
000001b0: e65a 763d e549 1d3d d54a 7d3c e25c a3bd
000001c0: 45f5 bbbc cf2d 853d 0db1 be3c d0df 3e3c
000001d0: 652f c6bd f405 aabd db80 7c3d ad35 8e3d
000001e0: bf70 cdbc ec15 f13c a038 403d 61da 76bc
000001f0: d149 c63d 8797 f1bc 2fc7 afbd 1e43 30bd
00000200: aa3d f93c b301 aabd 476f 0a3d 0708 023d
00000210: c247 923d 5118 1dbc b520 de3b a67a e13c
00000220: fe56 63bd c5a7 963d 18f0 433b 46d4 9fbc
00000230: e799 72bd 07c0 193d 1865 a4bd cc39 373b
00000240: 5c55 91bd d045 8e3d 79e8 8d3c 1def 73bc
00000250: 4122 f33c 56ac 8bbd 72bf ccbd cd66 97bd
00000260: 2c3b 5e3d 2698 283d 9ea4 963c 20c6 8d3d
00000270: ec94 943c 6cf4 3a3d e57c 793d 4bad 68bd
00000280: 85fe 47bd 9088 0bbd 256b a3bd 7663 9fbd
00000290: cc3c 37bd 9d8f 223d e8f2 11bb f8ed 0fbc
000002a0: db6a 54bd b8fa df3b 51c9 b63d 2213 d4bd
000002b0: 8691 3c3d 13c3 7ebd e5de b23d ae4d 8dbc
000002c0: 3daf ebbc 4efb 293d ccd5 9cbd cbe0 e9bc
000002d0: aeb3 583d ede8 9abd bf23 97bc 351d a23c
000002e0: ed78 113d eeab 7bbd b244 a63d 4572 693d
000002f0: 96da 8eba ca37 903d 1ff0 9cbd 0376 81bc
00000300: 2d0f 34bd d8ab 21bc 185f 61ba 3fdc 8c3d
00000310: 8021 8d3d 980a 373d c5ab cabd 5228 e5bc
0.003608322 0.042417936 -0.03413112 -0.058899697 -0.065553404 -0.05187354 -0.092763245 0.03768676
-0.089154035 -0.07384865 -0.011167198 0.06861439 -0.09142002 -0.03738054 0.014641597 0.02466138
-0.027669193 0.03462115 -0.047515187 -0.046093006 0.03398898 -0.029615285 -0.097272374 0.06125875
0.050560836 0.095385164 0.025721261 0.07613209 -0.042798724 -0.09792095 -0.014787162 -0.042603612
-0.088206165 -0.017097995 0.065028965 -0.068693735 0.040777914 -0.03212124 -0.003475367 -0.06567007
-0.078335814 0.07513265 0.026949417 0.028320309 0.080829024 -0.039714087 -0.021671232 -0.091192685
0.03959955 0.057661653 0.034547385 -0.008829287 -0.07510725 -0.028018823 -0.017417716 -0.07966013
-0.021923367 -0.03760405 -0.020712852 -0.02530276 0.021642981 -0.0023117384 -0.09137021 -0.0769644
0.02894498 0.062996395 0.040386036 -0.0790552 -0.0865205 -0.011091029 -0.09933403 0.04215804
0.05068179 -0.013734972 -0.022817938 0.018654373 -0.02527423 0.05889256 -0.07147073 0.03960377
0.06417398 -0.050810415 0.08883537 0.008167704 0.047706295 0.008973929 0.034029458 -0.034372643
-0.022963036 0.023104984 0.03414331 0.0044230795 0.023291584 -0.060888395 -0.02068631 -0.002079041
-0.09123409 0.046599038 0.038003214 -0.048168857 0.0146168815 0.001212765 0.07403341 -0.039692942
-0.09515276 0.022757038 -0.022629306 -0.03462706 0.06014528 0.03840055 0.015459736 -0.079767
-0.022944102 0.06502878 0.023277784 0.011650041 -0.096770085 -0.08301917 0.061646324 0.069438316
-0.025078176 0.029429398 0.046929 -0.015066714 0.09682048 -0.0294912 -0.08582913 -0.043032758
0.030424912 -0.08301105 0.03379753 0.031745937 0.07142593 -0.009588317 0.0067788013 0.027524304
-0.055502884 0.07356218 0.0029897746 -0.0195104 -0.059228804 0.037536647 -0.080270946 0.0027958034
-0.07096359 0.069469094 0.017322766 -0.014888552 0.02967942 -0.0681998 -0.09997453 -0.073926546
0.05425565 0.041160725 0.018389042 0.06922555 0.018137418 0.045643255 0.060910124 -0.05680589
-0.048826713 -0.034065783 -0.079794206 -0.077826425 -0.044735715 0.03968774 -0.0022270028 -0.0087847635
-0.051859718 0.006835308 0.08925117 -0.10355212 0.04603722 -0.062197756 0.0873392 -0.017248955
-0.028770084 0.04149943 -0.07657966 -0.028549572 0.05290573 -0.07563958 -0.018449662 0.019789318
0.035515714 -0.06144326 0.08118571 0.05699374 -0.0010898884 0.07041891 -0.07662987 -0.015803343
-0.043959785 -0.009867631 -0.0008597239 0.06877946 0.06891155 0.044687837 -0.09896044 -0.027973328

fc2.weight f4 [100, 200]
00000000: 2d22 36bd b309 e3bc 40f4 68bd 8656 e9bc
00000010: a604 a93b d01b 49bd c114 62bd e2cc 23bd
00000020: 5db3 50bd eafd ac3b 7644 cebc 2b89 393c
00000030: 95df 2a3d b3b8 043d 1e77 95bd 72be c03c
00000040: 6139 71bd 41c4 32bb 40ec 79bd d28b 02bd
00000050: d0fd 5e3c a76e 92bd a457 313d a351 08bd
00000060: f84f 523d 07ab adbc 59c3 c3bc 9f9c 1e3d
00000070: 857f 74bc 4e1d 823b 5917 693d 2023 f739
00000080: 9c1a 873c 3918 f63c 2f1c 50bd 76ed 06bb
00000090: 2f97 84bd fe9b 9b3c 2230 3ebd 317f a1bd
000000a0: 1eb0 24bd 1971 debc fb57 92bd 50fe 0a3d
000000b0: 89a8 e23c 1ccb 26bd 23d9 9f3c 6d69 10bd
000000c0: 553c 23bc 4010 91bd f77a 333d 5fa7 2cbd
000000d0: beae 86bd 30b0 52bb ddeb d1bc a344 9fbd
000000e0: 7d5d 2dbd 0ab5 b7bb fa34 10bd 41a0 febc
000000f0: 6764 12bd 9ffc 3d3d 3bb8 90bd c589 65bd
00000100: 6183 44bd 2861 c0bd 45bc 77bb 0137 003d
00000110: daf1 d2bc 35f9 15bc 288f 46bc 8425 02bd
00000120: f65a 60bd ae52 553d 8c43 39bd 71d0 da3c
00000130: 23d2 79bd ee5c 0bbc 0f0c a0bd 7345 ebbc
00000140: b27e 45bd 0871 15bd e80c a53c a7f0 b0bd
00000150: 88f1 cb3c e1a2 77bd b7ba 1c3d ce2b 6d3d
00000160: 1655 073b f93b 2cbd 18e4 edbc bf23 8bbd
00000170: 668f 62bc 956d b9bc a439 1f3d f269 a73c
00000180: 1e5a 333d 6a92 59bc ca88 8dbd a89a 85bd
00000190: a289 14bc 659d bf3c 2cdb 42bd f133 fcba
000001a0: 9f0c 863d cb9e 863b c80d 463d f2a5 543d
000001b0: 8ec0 d9bc c65f dfbc 5052 69bd 7ffe 683d
000001c0: be72 75bd 422a 053d 0c74 9e3b 0943 37bd
000001d0: f22e acbd 768d 893d 395b b9bd f4d4 2a3d
000001e0: 9118 c1bb 26a3 39bd bd5d 703c 1677 623a
000001f0: c3e6 5f3d 8cc2 c0bc 8b6b 2e3d 3857 32bd
00000200: fb15 2ebd 7004 503d 3ae7 3cbd 5548 053d
00000210: 0441 93bd 666e 47bd 8208 593d ffaa 36bd
00000220: d328 91bd 946a 6b3d 860c 66bd e4fd 113d
00000230: 9ef9 f4bb b2a2 97bd 0a2a 613c 7eb6 9fbc
00000240: 59dd 6e3d 3fa1 3fbc d0ea 4cbd 1202 2c3d
00000250: 5487 c13c d37d 69bd 1b69 343b 09c9 36bd
00000260: d372 83bd ac1e 1a3d 2239 273d 6c82 85bd
00000270: ef08 1e3c a164 9fbd c986 40bd 8aef 98bd
00000280: d3db 5d3b d5db 8a3d b15f 9abd 3a8a 823c
00000290: 6d0d 91bd ef15 07bd 9250 5fbd 3609 36bc
000002a0: 44fe aebc 7b16 be3c 32a2 493d e259 733d
000002b0: b749 fbbc 0285 793d 90b1 0cbd 2ffd bc3c
000002c0: 52ba a63b 8ad5 093d bdd2 413d 3bb3 99bb
000002d0: 8a74 5d3b 23a1 333d b065 733b eac9 edbb
000002e0: 5660 f0bc d215 873c d798 6b3c 7dff ae3c
000002f0: 0657 343c e3e0 193d a2a7 f4bb 5ce5 46bd
00000300: 2a22 e33b c3b8 02bd 760b a1bd 00fb 96bc
00000310: aa89 043d 6ab6 95bd 8294 88bd 441e f5bc
00000320: 365c 8c3c 3628 f4bc 3c1e b8bd 1a25 4ebd
00000330: 79b0 603d dcb0 7ebd 0743 6d3d 1e71 b3bd
00000340: 9c33 643b 1eeb 973c 2e7b 84bd 8a89 1c3d
00000350: 601e e8bc d01f 32ba 91fd 2bbc b04f 473c
00000360: 1141 773d 32ce 4fbd c80f a1bb 9c9f c0bc
00000370: af7d 8ebd 1331 15bc 89ea 8d3d 54c5 47bd
00000380: 4f3c 603c c206 4e3d 5b9d 11bd 6464 673d
00000390: 6baa 043d 45c4 5fbd 5076 33bd a84d 99bd
000003a0: 31db 7dbc e405 dabc e443 ef3c d9a9 263c
000003b0: d9f1 97bd 27fd 04bd 9ac9 fe3b ac40 0b3d
000003c0: b24f 8e3b 47b5 41bd 7325 833c 27ac 123d
000003d0: b6f7 d8ba d25a 19bd fe88 5b3c 2384 6c3c
000003e0: a2d4 3fbd 306c e93c 44b6 fcbc c2cf 2a3d
000003f0: 1b07 cc3c 19d6 03bc 2a5c 2cb9 5e65 cebc
-0.044466186 -0.027714586 -0.05687356 -0.02848364 0.005158025 -0.04909879 -0.055195574 -0.039990313
-0.050952304 0.0052792924 -0.02517913 0.011324207 0.04171713 0.032402705 -0.072981104 0.023528311
-0.05889261 -0.002727762 -0.06101632 -0.031871624 0.013610318 -0.071500115 0.04329647 -0.03328098
0.051345795 -0.021199716 -0.02389686 0.038723584 -0.014922981 0.0039707785 0.05690703 0.0004713768
0.01649218 0.030040847 -0.050808128 -0.0020588315 -0.064741485 0.018995281 -0.04643262 -0.07885588
-0.04020702 -0.027153539 -0.07145687 0.033933938 0.027668254 -0.040721044 0.019512719 -0.03525679
-0.009963115 -0.070831776 0.04381844 -0.042151805 -0.06576298 -0.0032148473 -0.025625164 -0.07776763
-0.042325485 -0.0056062983 -0.035206772 -0.031082274 -0.035740282 0.046383496 -0.07066389 -0.05603959
-0.047976855 -0.09393531 -0.0037801426 0.031302456 -0.02575009 -0.009153654 -0.012119092 -0.03177406
-0.054774247 0.052080803 -0.045230433 0.02671072 -0.060991418 -0.008506043 -0.078148 -0.02871964
-0.04821653 -0.036484748 0.020147756 -0.08639651 0.024895445 -0.060458068 0.038264003 0.057903104
0.002065008 -0.042049382 -0.029039428 -0.067939274 -0.013828134 -0.02263526 0.03887333 0.02043626
0.043787114 -0.013279537 -0.06910856 -0.06523639 -0.009066017 0.023390481 -0.0475723 -0.0019241554
0.06545376 0.004108285 0.048352987 0.05191607 -0.026581075 -0.027267348 -0.056963265 0.05688333
-0.05992388 0.032511003 0.004835611 -0.044741664 -0.084073916 0.06716435 -0.090506025 0.041706994
-0.005892821 -0.045321606 0.014670786 0.0008638961 0.05466343 -0.023530267 0.04258303 -0.04354021
-0.04250143 0.050785482 -0.046118952 0.032539684 -0.07190135 -0.04868927 0.05298663 -0.04459667
-0.07087865 0.057474688 -0.056164287 0.03564252 -0.0074760458 -0.074040785 0.013742933 -0.019496199
0.058316562 -0.011696159 -0.050028622 0.041994162 0.0236241 -0.05700476 0.0027528468 -0.044625316
-0.06418385 0.037626907 0.04082597 -0.065190166 0.009645685 -0.07782865 -0.04700354 -0.074675635
0.003385295 0.06780211 -0.07537783 0.015935052 -0.07082639 -0.032979902 -0.054520197 -0.0111105945
-0.021361478 0.023204079 0.049226947 0.05941189 -0.030674798 0.06091786 -0.034349024 0.023069946
0.005088129 0.033650912 0.047320116 -0.0046905554 0.0033791387 0.043854844 0.0037139468 -0.007256736
-0.029342812 0.016489897 0.014379702 0.02136206 0.011007076 0.037567984 -0.0074662725 -0.048558578
0.006931563 -0.031914484 -0.07863514 -0.018430233 0.03235785 -0.07310183 -0.066689506 -0.029921658
0.017133813 -0.02980433 -0.08990142 -0.05032835 0.054855797 -0.062180385 0.05792525 -0.0876181
0.00348208 0.01854473 -0.06468807 0.038217105 -0.028334796 -0.00067949016 -0.010497467 0.012164995
0.060364787 -0.050733753 -0.0049152113 -0.023513608 -0.06957566 -0.0091059385 0.069295 -0.04877217
0.013686254 0.050299414 -0.035550456 0.056492224 0.032389086 -0.054630537 -0.043814003 -0.07485515
-0.015494154 -0.026614137 0.029207177 0.010172331 -0.07419176 -0.032467987 0.0077754976 0.033997223
0.0043429965 -0.04729202 0.016009068 0.03580871 -0.0016553316 -0.03744013 0.013399361 0.014435801
-0.04683364 0.02849397 -0.03084863 0.04170204 0.024905732 -0.00804665 -0.00016437532 -0.02519482

fc2.bias f4 [100]
00000000: e859 d73c 04e2 cabc c35d f4bb b8e8 0fbc
00000010: 15b8 82bb 9004 3e3c e4a0 bebd c46b 8f3c
00000020: ffa9 69bd 7134 64bd b932 c93d ede7 9d3c
00000030: fdc3 abbd 5eb9 dbbd 7ce2 a93d 998f 173d
00000040: 6695 d5bb 0353 85bc 19fa 75bd e874 dfbc
00000050: 1c9c d2bc b9cf adbc b358 723c c7f3 413d
00000060: 6001 92bd 4d40 17bd a5e9 05bd 72e6 343d
00000070: d6fa b03d 6e05 60bd 41c3 25bd 6435 33bd
00000080: 9ffa 92bd 15a4 91bd 3f26 1e3d 9781 26bd
00000090: 3a89 55bd 1545 8ebd d6fc 713d 0bb1 89bc
000000a0: d57f fc3c 6c8b ea3c 13b7 c5bc a62f 89bd
000000b0: 330b c43d c7e3 423d e055 11bc 51da 5cbd
000000c0: 318f debb 8b39 acbc 8e1b 82bd 2aa1 853c
000000d0: 8790 1b3d e0a4 a73c ba21 a83d ca19 2bbd
000000e0: 9b5b b4bd b4f6 a33d db1a 923d ba35 99bc
000000f0: 6a12 f43c 91de 21bc 87be fcbd e311 ccbd
00000100: 6875 543d b0dc 96bd c367 723d 456d e93c
00000110: 3a8f 36bc ee7c 693d 403c 1ebd 3142 073d
00000120: 0fbe b43d e564 c2bd bb2b c73d 9bf8 80bd
00000130: 81ff a2bd bdcd b0ba bc9c 563c 34e4 9a3c
00000140: bbc6 d7bc b2de 12bd 3c4b 9dbd 387a abbd
00000150: fec7 233d 8f3e 8fbd c2f2 123b e1d5 97bc
00000160: 84e1 813d 4179 b33c 3203 84bd 5b16 9e3c
00000170: de3e f63c 7f8f 93bc 7151 4dbc 8d12 993d
00000180: d8ec 2c3d 0fab a4bd 7d58 1abd 78b1 f63c
0.026287988 -0.024765976 -0.0074574663 -0.008783512 -0.0039892294 0.0115977675 -0.09308031 0.017507441
-0.057046887 -0.055714075 0.09824128 0.01927563 -0.08386991 -0.10728715 0.082951516 0.03700218
-0.006518054 -0.016274935 -0.060052965 -0.027277425 -0.025709204 -0.021217214 0.014791655 0.047351625
-0.071291685 -0.036926556 -0.032693524 0.044165082 0.08641593 -0.05469268 -0.04046941 -0.04375209
-0.071767084 -0.07111374 0.038610693 -0.04065093 -0.052132823 -0.0694677 0.059079014 -0.016808053
0.030822674 0.028630935 -0.024135148 -0.06698541 0.095724486 0.047580507 -0.008870572 -0.05391914
-0.006791972 -0.021023532 -0.06352912 0.0163122 0.03797963 0.02046436 0.08209558 -0.04177264
-0.08806535 0.08006039 0.071340285 -0.018702377 0.029793937 -0.009879724 -0.12341028 -0.09964349
0.05186978 -0.073663116 0.059180986 0.028494487 -0.011142546 0.057003908 -0.038631678 0.03302211
0.08825313 -0.094919 0.09725138 -0.06297418 -0.0795889 -0.0013489049 0.013098892 0.018907644
-0.02633988 -0.03585691 -0.076803654 -0.08372921 0.03998565 -0.06994354 0.0022422527 -0.018534603
0.06341842 0.021908404 -0.06445922 0.01929777 0.030059274 -0.01801276 -0.012531624 0.074742414
0.04221806 -0.08040439 -0.037682045 0.03011392

fc3.weight f4 [2, 100]
00000000: a4ac 70bd 785e 53bd 1c2c 2b3e 38e8 92bd
00000010: e30c bcbd 081e 843d 351e 16bf 854e 35bf
00000020: e6d4 433e 33c7 523e af5d 153e dc81 253e
00000030: 6e7d fdbb ec95 bdbe fa1a bbbe a53b ff3d
00000040: 5aa2 313e 2a26 353e 97b6 3f3e c125 9f3e
00000050: fc36 8c3e 3cb6 263e bef8 c23e 92eb 9b3e
00000060: 85f0 c03e 6653 75be 40c1 0f3f 01f5 acbe
00000070: f9a5 283e 715d 32bd e259 8a3e 5384 edbe
00000080: 9570 9ebe 692d 0bbf 0ea3 b03e 6286 e7be
00000090: 57c7 9ebe 6f5c 74bd 7c6b 12bd 8008 47bf
000000a0: de1f 9ebe ccf7 433e e639 973e cf12 49bc
000000b0: a6d9 1d3e da83 1fbf 2079 c03e 4a92 cfbc
000000c0: e243 243e 19e3 0c3e bb7f 753e 3a00 fe3d
000000d0: 12f0 003c 2117 50be eeb5 173e 9529 623e
000000e0: 971e df3e 6330 033e 0a5f 08bf 15be e4be
000000f0: df0d b13d cbac 013f 861b 513f f201 0f3f
00000100: 56a8 a3bc e839 863d 041e 4d3e 50c3 6e3e
00000110: f2ba d5be ded5 a03d 4b9a df3e a5ab dfbe
00000120: 6988 303e ffa0 31bf 6a20 b63d b356 56bd
00000130: 6597 ba3e 7126 843d 077f bfbe 4d64 36bd
00000140: 7ffd 393e 5fd6 5c3e 4920 4b3d e284 86bf
00000150: e439 873d 8d0e 91bf 0a74 22bd 87c9 8f3e
00000160: f209 ecbe 46b9 e73c 2192 163e 167b 3c3d
00000170: 8e24 b6bd a00c a63e ec64 6d3e 4677 acbe
00000180: d200 093f 96c8 193c b0b1 6c3d 3f83 3ebf
00000190: a57c 673d 4ed0 3d3d 35c7 38be 26a9 d63c
000001a0: 8062 f13c 5b0b febd e3e3 e13e d6fb 383f
000001b0: 0a61 48be 62b2 44be d47d b5bd f219 86be
000001c0: 9fad 383c 1a9a a03e 947d a33e 433e 4ebe
000001d0: 0422 67be 37a9 8cbe 6b4d aebd 850a eabe
000001e0: 3ac6 cfbe 13b3 64be 0700 ddbe d0f5 b9be
000001f0: 175f c5be 8d13 9e3e 0cbe 19bf d8fd b93e
00000200: f858 133c 0694 913d 3657 78be 0cfb e23e
00000210: 9cdc 5a3e a892 153f 5ce8 b0be 3812 993e
00000220: 0c98 973e ec11 cdbc 730d 973d 59f5 473f
00000230: 746d 863e 9010 14be 3c5a c6be cb60 573d
00000240: 6687 18be 8058 2c3f e25a f1be f58d 24bd
00000250: b5bd 7b3b 3381 14be d18a 86be 5cb5 c3bd
00000260: ed23 d03c 8624 4d3e 482c 34bd 8f05 15be
00000270: 8cf3 f0be e163 81bd e721 ee3e efad 063f
00000280: 5464 10be ebe5 edbe 8603 54bf 5c7e c1be
00000290: 8f04 663d 7094 8c3d d76e 67be 6e51 bebd
000002a0: 1797 043f ed05 f6bd 97fc edbe 9a2c 173f
000002b0: d255 13be e350 363f 3e0b 03be 5cfb 933d
000002c0: 492b e1be 0efe 8e3d dad7 043f 27a4 8b3c
000002d0: 1032 87be a41d 2dbe f42a 3b3d 58f5 793f
000002e0: 2fda a43d 6b79 953f 41fd bc3d 366f 83be
000002f0: fba6 e13e f9d7 4f3d 0dbc 3abe d55a 34be
00000300: 9cc4 c43b 6b02 b4be 3d93 56be 6f89 4e3e
00000310: b004 1ebf dce1 853c 9c21 7f3d 96e9 1b3f
-0.058758393 -0.051603764 0.16716045 -0.071731985 -0.091821454 0.064510405 -0.5863984 -0.70822936
0.19124183 0.20583801 0.14586519 0.16162819 -0.0077358996 -0.37028444 -0.3654402 0.12462548
0.17347088 0.1769034 0.18721996 0.3108349 0.273857 0.16280454 0.380804 0.30453163
0.37683502 -0.23957595 0.5615425 -0.33780673 0.16469564 -0.043546144 0.270217 -0.46390018
-0.30945268 -0.54366165 0.344994 -0.45219713 -0.3101146 -0.059658464 -0.035747036 -0.77747345
-0.30883688 0.19137496 0.2953636 -0.012272551 0.15415058 -0.62310565 0.3759241 -0.02533831
0.1604152 0.13758506 0.23974507 0.12402387 0.007869737 -0.20321323 0.14815494 0.22086175
0.43578026 0.12811427 -0.5327002 -0.4467627 0.08645224 0.50654286 0.8168262 0.55862343
-0.01997773 0.065540135 0.20030981 0.23316693 -0.4174419 0.07853292 0.43672404 -0.43685642
0.17239536 -0.69386286 0.08892901 -0.052328777 0.3644363 0.064526446 -0.37401602 -0.044529248
0.18163107 0.21566151 0.049591336 -1.0509303 0.06602839 -1.1332566 -0.039661445 0.2808344
-0.46101338 0.028286587 0.14704181 0.04601582 -0.08893691 0.32431507 0.2318303 -0.33684748
0.53516877 0.009386202 0.057786644 -0.74419016 0.056515355 0.046341233 -0.18044741 0.026203703
0.029465914 -0.1240451 0.44119176 0.7225927 -0.19568267 -0.19208673 -0.088618904 -0.2619167
0.011271863 0.3136757 0.31931746 -0.20140938 -0.2257157 -0.2747285 -0.0851086 -0.4571115
-0.40580922 -0.22333936 -0.43164083 -0.36320353 -0.3854911 0.3087429 -0.60055614 0.3632648
0.00899338 0.07108311 -0.24252018 0.4433216 0.21373218 0.58426905 -0.34552276 0.29896712
0.2960819 -0.02503296 0.07375612 0.78108746 0.2625538 -0.14459443 -0.38740718 0.052582543
-0.148954 0.6732254 -0.4713965 -0.040174443 0.0038412635 -0.1450241 -0.26277784 -0.09556076
0.025407756 0.20033464 -0.043987542 -0.14552902 -0.47060812 -0.063178785 0.4651024 0.5260915
-0.14100772 -0.46464476 -0.82817876 -0.37791717 0.05615669 0.0686425 -0.22600876 -0.09292875
0.51793045 -0.12012849 -0.46481773 0.5905243 -0.14388207 0.71217173 -0.12797257 0.07225677
-0.43978336 0.06982051 0.51891863 0.017046047 -0.26405382 -0.16905838 0.04569526 0.9763999
0.08049428 1.1677679 0.09227992 -0.25670785 0.44072708 0.050743077 -0.18235798 -0.17612775
0.006004883 -0.35158095 -0.20954604 0.20169614 -0.617259 0.01634305 0.06228791 0.609033

fc3.bias f4 [2]
00000000: 34db 2e3d e1d1 15bd
0.042689517 -0.03657711
