fdia_model_ffnn_pytorch_50_100_50.onnx (onnx, 67728 bytes, 8 tensors)

fc1.weight f4 [50, 128]
0.06327065 -0.0069062705 0.106875576 0.098160915 0.030947933 0.09827076 0.058577176 0.10148705
0.25122815 0.14771295 0.018067937 0.1481314 0.096979395 0.4165139 0.04029006 -0.016777825
-0.03757878 -0.039001863 -0.083868265 -0.18509243 0.050430793 0.19504406 0.18458006 -0.049214542
-0.0066272197 0.00446137 -0.07693608 0.007698663 -0.025913445 -0.04930516 0.24512744 0.16682778
0.07701513 0.124267876 0.36728293 -0.08393761 0.19441476 0.035014983 0.22306365 -0.04168146
-0.1837885 -0.06528898 -0.10109644 0.12265759 0.039240673 0.082406424 -0.112382494 -0.07381588
-0.01766038 0.018842967 0.07466646 0.07951253 -0.03728282 0.056688264 -0.009623883 -0.06869907
-0.023762584 0.09800085 -0.0032341501 0.04370187 0.07542477 0.19101372 0.02672212 0.28657705
0.045629602 0.41484633 0.27142116 0.16116768 -0.08733629 -0.21479236 0.07894062 0.111610465
0.10103439 0.054066088 0.09465151 0.022427361 -0.04967351 -0.11808303 0.045976497 0.2414419
0.094452485 -0.004526309 0.11757319 -0.044165097 -0.09444417 -0.037507396 0.0021344454 0.14634214
0.11545217 0.1877397 0.07068636 0.0051359823 0.05398462 0.115800925 0.07523407 0.052003734
0.13939925 0.079422794 -0.015795764 -0.04716808 0.12812795 0.2813079 0.06446835 0.0032370868
-0.115882985 -0.26098785 -0.29304165 0.09217903 0.16005486 0.2390412 -0.18712023 0.09089665
0.08259414 0.16402996 0.005784041 -0.05004526 -0.059518218 0.100283064 0.049333766 -0.03072626
0.018707437 -0.0376406 0.039858483 -0.010338999 0.062418 0.034142397 0.07929416 -0.060707763
0.07320728 0.04595928 -0.02593076 0.05404492 0.010432538 0.07323197 0.045076996 0.04876702
-0.00969795 -0.020705912 0.10578646 0.08476875 -0.08162278 0.13520774 0.10306732 0.005438623
-0.006251585 -0.11389199 0.021258703 -0.093781546 0.11557922 0.058118366 -0.028150931 -0.011975406
0.09566655 0.061011966 0.0015513699 0.065420404 0.027045261 0.03251411 -0.021202348 -0.027295332
0.081021644 -0.08355369 -0.007621132 0.04303747 0.044162627 -0.036337946 -0.023613859 0.117592946
0.09714094 -0.069849744 0.025975034 0.019123906 0.05236275 0.028259804 -0.002559847 0.06641255
-0.028267998 -0.0239212 0.0714668 -0.036460083 0.06163599 0.10547842 0.095639005 -0.031277966
0.019826872 -0.08431811 -0.026862849 -0.017143743 0.043223668 0.038584266 0.0124006 -0.03849547
-0.06403046 0.07124368 0.0075902906 0.030667584 -0.04489473 0.05582301 0.003989383 -0.069704436
0.14916143 0.089700155 0.05543411 -0.11247287 -0.085037336 0.00096221425 0.07823213 0.018782847
0.14472042 0.019448219 0.11127886 -0.05065114 -0.08824435 -0.0312732 0.06068753 -0.10142399
-0.08371401 -0.11365876 0.066735946 0.04654824 0.013114622 -0.049458142 0.02871192 0.023996616
0.10460536 -0.011876367 -0.02996929 0.086911656 0.040560864 0.035591066 0.016164271 0.0339943
-0.032042976 0.06775028 0.04332308 0.09098078 -0.0387508 0.035531122 -0.0023501955 0.09894827
0.090835914 -0.043724116 -0.08571308 -0.061841886 -0.02391308 -0.045790505 -0.0045648837 0.017643413
-0.07254448 -0.004637524 -0.012072878 -0.084305264 -0.024449313 -0.04133009 0.0896743 0.07390169
00000000: 0b94 813d ff4d e2bb 95e1 da3d 9708 c93d
00000010: 8586 fd3c 2e42 c93d 9fee 6f3d 71d8 cf3d
00000020: faa0 803e 1042 173e 3603 943c c2af 173e
00000030: 229d c63d 4f41 d53e 3107 253d a671 89bc
00000040: 35ec 19bd 6bc0 1fbd 20c3 abbd df88 3dbe
00000050: 8590 4e3d a1b9 473e 8e02 3d3e 3095 49bd
00000060: 2629 d9bb af30 923b aa90 9dbd 1145 fc3b
00000070: 6f48 d4bc 35f4 49bd b002 7b3e e7d4 2a3e
00000080: 1cba 9d3d 2880 fe3d 820c bc3e 7be7 abbd
00000090: aa14 473e df6b 0f3d cc6a 643e 2eba 2abd
000000a0: 0d33 3cbe 3bb6 85bd a60b cfbd e733 fb3d
000000b0: d4ba 203d b3c4 a83d cb28 e6bd c82c 97bd
000000c0: 80ac 90bc 915c 9a3c bbea 983d 77d7 a23d
000000d0: dfb5 18bd f431 683d 7ead 1dbc 19b2 8cbd
000000e0: c0a9 c2bc abb4 c83d 09f4 53bb bb00 333d
000000f0: 4d78 9a3d 1a99 433e 59e8 da3c 3aba 923e
00000100: 1be6 3a3d bd66 d43e b7f7 8a3e 2409 253e
00000110: 5edd b2bd 87f2 5bbe 9fab a13d 0794 e43d
00000120: 1eeb ce3d 6774 5d3d a7d8 c13d 96b9 b73c
00000130: 7376 4bbd 84d5 f1bd da51 3c3d 8c3c 773e
00000140: 4e70 c13d 6f51 94bb 36ca f03d 76e6 34bd
00000150: f26b c1bd 5ba1 19bd 0de2 0b3b b7da 153e
00000160: 3072 ec3d d63e 403e 03c4 903d be4b a83b
00000170: fa1e 5d3d 0929 ed3d 5214 9a3d de01 553d
00000180: adbe 0e3e 6ba8 a23d 1e66 81bc 5133 41bd
00000190: f933 033e 9707 903e fb07 843d 4e25 543b
000001a0: 0f54 edbd 33a0 85be 8e09 96be 5cc8 bc3d
000001b0: 6ce5 233e 37c7 743e 729c 3fbe 0628 ba3d
000001c0: 1e27 a93d 78f7 273e 0d88 bd3b 42fc 4cbd
000001d0: 60c9 73bd 3561 cd3d 3412 4a3d a3b5 fbbc
000001e0: 5740 993c 082d 1abd a642 233d e864 29bc
000001f0: 04aa 7f3d e6d8 0b3d fa64 a23d b4a8 78bd
00000200: b3ed 953d cc3f 3c3d bf6c d4bc 355e 5d3d
00000210: 3ced 2a3c a5fa 953d a8a2 383d edbf 473d
00000220: 27e4 1ebc 729f a9bc 92a6 d83d 3d9b ad3d
00000230: d829 a7bd e673 0a3e f614 d33d 7a36 b23b
00000240: 19da ccbb 3440 e9bd bb26 ae3c 8a10 c0bd
00000250: ccb4 ec3d 860d 6e3d c89c e6bc 7e34 44bc
00000260: d3ec c33d afe7 793d 5657 cb3a 22fb 853d
00000270: 068e dd3c 842d 053d 8cb0 adbc 769a dfbc
00000280: adee a53d 321e abbd b0ba f9bb 0f48 303d
00000290: dfe3 343d 19d7 14bd da71 c1bc 92d4 f03d
000002a0: d4f1 c63d 620d 8fbd 98c9 d43c bda9 9c3c
000002b0: 537a 563d 1b81 e73c 1bc3 27bb 4e03 883d
000002c0: 4a92 e7bc 64f6 c3bc 305d 923d 2b57 15bd
000002d0: 0576 7c3d 1205 d83d 62de c33d 531d 00bd
000002e0: f76b a23c f9ae acbd 7a0f dcbc 0971 8cbc
000002f0: 4d0b 313d 890a 1e3d e32b 4b3c 6dad 1dbd
00000300: 6722 83bd 35e8 913d f9b7 f83b 963a fb3c
00000310: 89e3 37bd aba6 643d 5fb9 823b 33c1 8ebd
00000320: c6bd 183e b7b4 b73d e10e 633d 2d58 e6bd
00000330: 0e28 aebd 1b3d 7c3a 2b38 a03d 7cde 993c
00000340: 9731 143e df51 9f3c 2ce6 e33d 9277 4fbd
00000350: 74b9 b4bd 5418 00bd 7d93 783d 62b7 cfbd
00000360: 4072 abbd edc5 e8bd dbac 883d 5ea9 3e3d
00000370: b6de 563c 9f94 4abd 4335 eb3c 8d94 c43c
00000380: 563b d63d 1895 42bc 2882 f5bc bdfe b13d
00000390: 2623 263d f0c7 113d ef6a 843c 9b3d 0b3d
000003a0: 7f3f 03bd a9c0 8a3d 8b73 313d 2254 ba3d
000003b0: 29b9 1ebd 1589 113d bd05 1abb 64a5 ca3d
000003c0: 2e08 ba3d 0f18 33bd 578a afbd eb4d 7dbd
000003d0: 5de5 c3bc d38e 3bbd 0595 95bb eb88 903c
000003e0: 3392 94bd 5ff6 97bb 52cd 45bc 3da8 acbd
000003f0: ed49 c8bc be49 29bd 29a7 b73d c559 973d

fc1.bias f4 [50]
-0.109200016 0.026473245 -0.035395026 0.025914814 -0.0023351694 -0.08730388 -0.008697075 0.090910695
-0.0065334216 0.04344248 -0.031291515 0.058881387 -0.012898966 -0.06823218 -0.042165987 -0.06954413
-0.020856917 -0.021123258 0.044722237 -0.07713452 -0.09123004 0.12714946 0.06271437 -0.02953079
-0.04490486 0.05236166 0.049844548 -0.11120359 0.024348794 0.020301977 0.019132426 0.0065065958
-0.081344284 0.07157533 0.02945294 -0.09162644 0.06803718 0.06840954 0.027750062 -0.026447717
-0.08426876 -0.015476624 0.035576753 -0.0069909045 -0.065561935 -0.07922722 -0.05134594 -0.017962437
0.0056690755 -0.072645344
00000000: 42a4 dfbd 6bde d83c 60fa 10bd 4e4b d43c
00000010: a409 19bb 60cc b2bd 2d7e 0ebc 632f ba3d
00000020: 5016 d6bb bef0 313d 882b 00bd 9c2d 713d
00000030: 2f56 53bc 50bd 8bbd 3eb6 2cbd 276d 8ebd
00000040: 20dc aabc af0a adbc aa2e 373d b4f8 9dbd
00000050: d1d6 babd 7833 023e 6470 803d 8eea f1bc
00000060: 29ee 37bd 2e79 563d cc29 4c3d b5be e3bd
00000070: 1f77 c73c 5550 a63c 9bbb 9c3c 4835 d53b
00000080: d597 a6bd 1696 923d 4b47 f13c a5a6 bbbd
00000090: 1457 8b3d 4d1a 8c3d 1954 e33c e2a8 d8bc
000000a0: 1a95 acbd aa91 7dbc eeb8 113d f513 e5bb
000000b0: 5645 86bd e141 a2bd 1f50 52bd f625 93bc
000000c0: a7c3 b93b 15c7 94bd

fc2.weight f4 [100, 50]
0.18238395 0.13800448 0.0050052395 -0.22184502 0.06433107 -0.010386884 0.39104185 -0.44140506
0.058030058 0.078797616 0.118469976 -0.11657524 0.09216282 0.047644675 -0.07247631 -0.016559754
-0.1997204 0.12794043 0.052543562 -0.33675694 0.051955216 0.24344286 0.13339755 0.040881757
0.10635913 -0.08088786 -0.052461036 -0.0025562467 0.09121703 0.07735111 0.0064035244 -0.097191736
0.065135784 0.13775058 -0.023133121 -0.08433477 0.010725484 0.020056028 0.074565336 0.15425405
-0.037482154 0.064966045 0.018018551 0.09612547 -0.10041357 -0.079063125 0.042012267 0.059466593
0.16479853 0.14998218 -0.03002345 0.042318907 0.016584594 0.019532675 0.091813974 0.15504237
0.18041769 0.1105396 0.1202871 0.012417455 0.20250656 0.0145355435 0.023703827 -0.044447657
-0.09475386 -0.014946286 0.062866494 -0.114616714 0.17455976 0.0325799 -0.11639002 0.06265884
0.24636036 -0.12767884 -0.0029043856 -0.038313642 -0.044307396 -0.1251788 0.119498216 -0.005462567
0.0022940834 0.022135278 0.003895114 0.018655248 0.13740459 -0.08789805 0.033799287 -0.27886134
-0.25436008 -0.09407466 0.0027306608 -0.001788051 0.12815242 0.0013516315 0.112437494 0.040392645
0.08435126 -0.041211806 0.17846268 0.02558032 0.011095992 -0.14105757 -0.018215466 -0.21805386
0.04053269 0.0843608 -0.19462198 -0.5792992 -0.022913786 -0.594378 -0.19505864 -0.1283043
-0.11149893 -0.06392914 -0.011659023 0.014690041 -0.29478914 0.00234223 0.28416407 -0.28482813
0.013211295 0.15701386 -0.55030304 -0.54687315 0.123355225 -0.124896705 -0.44033748 -0.1121756
0.10254183 -0.26185688 0.031337503 -0.02553012 0.12221521 -0.39407688 -0.09513827 0.011381673
-1.033042 0.018061824 0.2521559 -0.069025405 -0.13363534 0.101007305 0.124184154 0.4074765
0.3552959 0.073925294 0.06119814 -0.15960772 -0.045781367 -0.09270757 0.12780218 -0.046203922
-0.065419585 -0.10768551 0.099786565 0.11524121 0.047987677 -0.036358908 0.121662095 -0.049245056
-0.04629621 -0.07609113 0.034880176 -0.1221064 0.008464015 -0.1327899 -0.040220343 0.016635895
-0.026795248 -0.12814914 0.1288195 -0.13868801 -0.13841563 0.026981708 -0.066819586 -0.10794789
-0.00020233874 -0.09774676 -0.15783074 -0.027714167 -0.052206174 -0.1453377 -0.12497371 -0.060015526
0.08613098 0.11623677 0.08001379 -0.10657371 -0.101359986 0.07967186 0.057488184 -0.034854602
-0.021756962 0.016731355 0.02191715 -0.03945756 -0.09807756 0.11172134 -0.06940709 -0.10731793
0.024747834 0.063084 0.050762918 -0.08209491 -0.11389964 -0.10999509 0.3641975 -0.18453492
-0.052337755 0.041097093 0.3084484 0.024331402 0.04489366 0.047957048 0.13412133 -0.05129396
-0.36814326 0.018074712 -0.010068448 -0.0151867755 -0.056856323 0.06839064 0.3511045 0.16936705
-0.057565086 -0.02462565 0.14317118 0.10886298 -0.031654272 -0.26432472 0.12834866 -0.032225903
-0.2523679 -0.07318489 -0.035394907 -0.010988493 0.22578563 0.12897584 0.16161935 -0.044704907
-0.010558545 -0.13288407 -0.008740615 0.17609127 -0.011756174 -0.057966754 -0.03298644 -0.02465459
0.17129481 -0.19796048 -0.104769155 -0.06810649 -0.046183933 -0.15122905 0.09083614 -0.07397001
00000000: dcc2 3a3e 0c51 0d3e fe02 a43b 572b 63be
00000010: 02c0 833d c02d 2abc a336 c83e d8ff e1be
00000020: edb0 6d3d a560 a13d 63a0 f23d 00bf eebd
00000030: dcbf bc3d 1027 433d 766e 94bd 52a8 87bc
00000040: 8183 4cbe d102 033e eb37 573d 686b acbe
00000050: fece 543d 1649 793e 5e99 083e a173 273d
00000060: d1d2 d93d 89a8 a5bd 62e1 56bd b486 27bb
00000070: ffcf ba3d 426a 9e3d a8d4 d13b 760c c7bd
00000080: e965 853d 7d0e 0d3e ac81 bdbc b5b7 acbd
00000090: f1b9 2f3c 8a4c a43c b6b5 983d c6f4 1d3e
000000a0: e386 19bd eb0c 853d a49b 933c 6edd c43d
000000b0: a1a5 cdbd d9eb a1bd 0e15 2c3d 3e93 733d
000000c0: f2c0 283e ee94 193e bdf3 f5bc 9756 2d3d
000000d0: 6adc 873c fd02 a03c f708 bc3d 6dc3 1e3e
000000e0: 6abf 383e 9662 e23d 1559 f63d 9572 4b3c
000000f0: e15d 4f3e 7d26 6e3c 872e c23c bf0e 36bd
00000100: 500e c2bd 44e1 74bc 26c0 803d 2bbc eabd
00000110: cbbf 323e 8072 053d e45d eebd 4753 803d
00000120: e445 7c3e 3ebe 02be 8157 3ebb c4ee 1cbd
00000130: ac7b 35bd df2e 00be 7bbb f43d 55ff b2bb
00000140: 5558 163b 0b55 b53c 2b45 7f3b e4d2 983c
00000150: cab3 0c3e e503 b4bd 1f71 0a3d eac6 8ebe
00000160: 7c3b 82be 37aa c0bd e3f4 323b 095d eaba
00000170: 633a 033e 3a29 b13a a145 e63d c272 253d
00000180: 5ac0 ac3d b6cd 28bd ecbe 363e d28d d13c
00000190: f7cb 353c 6571 10be 9a38 95bc 8349 5fbe
000001a0: 9b05 263d 5bc5 ac3d fc4a 47be f44c 14bf
000001b0: b1b5 bbbc 2829 18bf 74bd 47be 3462 03be
000001c0: 8d59 e4bd 48ed 82bd 7d05 3fbc 7fae 703c
000001d0: 9aee 96be 1980 193b f47d 913e fed4 91be
000001e0: 3074 583c 3ec8 203e a9e0 0cbf e1ff 0bbf
000001f0: aaa1 fc3d d8c9 ffbd ea73 e1be 52bc e5bd
00000200: 7301 d23d 1b12 86be c15b 003d 8b24 d1bc
00000210: f84b fa3d 72c4 c9be dad7 c2bd 327a 3a3c
00000220: b83a 84bf 64f6 933c 941a 813e 315d 8dbd
00000230: b4d7 08be ebdc ce3d 4354 fe3d c3a0 d03e
00000240: 58e9 b53e 2566 973d e7aa 7a3d 3570 23be
00000250: 3e85 3bbd 77dd bdbd 93de 023e 5340 3dbd
00000260: b4fa 85bd 388a dcbd e65c cc3d 9503 ec3d
00000270: ba8e 443d 14ed 14bd fa29 f93d 2fb5 49bd
00000280: 18a1 3dbd abd5 9bbd 84de 0e3d ec12 fabd
00000290: a7ac 0a3c 13fa 07be 16be 24bd 0048 883c
000002a0: b581 dbbc 8739 03be 42e9 033e 3b04 0ebe
000002b0: d4bc 0dbe be08 dd3c b5d8 88bd c913 ddbd
000002c0: e42a 54b9 742f c8bd 629e 21be d208 e3bc
000002d0: 24d6 55bd 68d3 14be 37f2 ffbd d7d2 75bd
000002e0: 7065 b03d 8b0d ee3d 45de a33d 5143 dabd
000002f0: d395 cfbd 002b a33d bb78 6b3d b3c3 0ebd
00000300: a83b b2bc 3210 893c 988b b33c 409e 21bd
00000310: e3dc c8bd 28ce e43d 4e25 8ebd 81c9 dbbd
00000320: f8bb ca3c 2f32 813d c7ec 4f3d 6021 a8bd
00000330: 3744 e9bd 1b45 e1bd 1878 ba3e b9f6 3cbe
00000340: 1d60 56bd 6d55 283d f3ec 9d3e a652 c73c
00000350: 6ae2 373d 9c6e 443d 1a57 093e 9e19 52bd
00000360: 467d bcbe 6b11 943c 22f6 24bc f4d1 78bc
00000370: 2de2 68bd 6410 8c3d f8c3 b33e 8e6e 2d3e
00000380: 5ec9 6bbd bbbb c9bc 779b 123e 8ef3 de3d
00000390: e9a7 01bd 9255 87be d56d 033e 4fff 03bd
000003a0: 5e36 81be f6e1 95bd 40fa 10bd 1509 34bc
000003b0: 5934 673e 3e12 043e 8b7f 253e 7e1c 37bd
000003c0: bffd 2cbc c312 08be cc34 0fbc 4551 343e
000003d0: f89c 40bc 8c6e 6dbd ca1c 07bd 6cf8 c9bc
000003e0: e867 2f3e 27b6 4abe 3691 d6bd 6a7b 8bbd
000003f0: 5d2b 3dbd cadb 1abe 4c08 ba3d 977d 97bd

fc2.bias f4 [100]
-0.20508943 0.11937656 -0.2157578 -0.10036138 -0.021064548 -0.098328225 -0.21343553 -0.019186959
0.04168844 0.040254176 -0.16745272 -0.4452982 -0.44114435 -0.23952733 -0.09646196 -0.11695756
0.1244882 -0.33278126 0.17729372 0.13295183 -0.05896933 -0.18162698 -0.13105145 -0.17106822
-0.03749523 0.13492651 0.15657794 0.20718032 0.22890222 -0.23937508 -0.14717002 -0.18757612
0.04518834 -0.049933027 0.19214404 0.16648819 -0.07849094 -0.36987743 -0.06334099 -0.08248549
0.16361219 -0.23785946 -0.04954903 -0.19315025 0.23506126 -0.12561257 0.015486593 -0.09969529
-0.1247034 -0.17017461 -0.11642183 -0.12842119 -0.2584025 -0.3823231 0.15459092 -0.21575643
-0.15212059 -0.15016028 -0.030040462 -0.12761697 0.32338 -0.035512567 -0.09031325 -0.14270066
-0.07197777 -0.11722245 -0.06862595 0.19937871 -0.20254843 -0.29036295 0.22916204 0.2163721
-0.022806594 -0.11649935 -0.092080854 -0.009929058 -0.16795872 0.03446452 -0.28028372 -0.0916603
-0.4253222 -0.17594257 0.006336098 0.219041 -0.024057988 0.09947271 -0.112067014 -0.25538898
-0.23568572 -0.11518887 0.1466935 -0.1433094 -0.19655737 0.31051478 0.017639402 0.08756894
-0.058186233 -0.11249628 -0.10549118 -0.028306063
00000000: f702 52be b37b f43d 9def 5cbe 448a cdbd
00000010: 8f8f acbc 4f60 c9bd d88e 5abe f82d 9dbc
00000020: 7fc1 2a3d 90e1 243d ba78 2bbe 20fe e3be
00000030: acdd e1be a746 75be d98d c5bd 7287 efbd
00000040: abf3 fe3d 4e62 aabe 7c8c 353e 8624 083e
00000050: d389 71bd 6cfc 39be 5a32 06be 822c 2fbe
00000060: 9994 19bd 2d2a 0a3e f855 203e 1427 543e
00000070: 5865 6a3e be1e 75be bdb3 16be f413 40be
00000080: 6917 393d 9386 4cbd 68c1 443e e17b 2a3e
00000090: dcbf a0bd 9360 bdbe ecb8 81bd 27ee a8bd
000000a0: f489 273e 6e91 73be ecf3 4abd 2ec9 45be
000000b0: e6b3 703e 95a0 00be 7bbb 7d3c 0b2d ccbd
000000c0: 7f64 ffbd 4142 2ebe 926e eebd d880 03be
000000d0: 554d 84be dabf c3be 154d 1e3e 41ef 5cbe
000000e0: 80c5 1bbe 9ec3 19be 6a17 f6bc 06ae 02be
000000f0: 1092 a53e a075 11bd 27f6 b8bd 1f20 12be
00000100: 1569 93bd 5312 f0bd c38b 8cbd ef29 4c3e
00000110: db68 4fbe 74aa 94be 74a9 6a3e a690 5d3e
00000120: e5d4 babc 3697 eebd e394 bcbd 7dad 22bc
00000130: 5ffd 2bbe ab2a 0d3d 5981 8fbe 65b8 bbbd
00000140: d5c3 d9be 4a2a 34be 0b9f cf3b 494c 603e
00000150: 4215 c5bc 59b8 cb3d 6483 e5bd 58c2 82be
00000160: 9957 71be 24e8 ebbd d236 163e b3bf 12be
00000170: 5646 49be cbfb 9e3e 8280 903c 5857 b33d
00000180: b054 6ebd 7364 e6bd c30b d8bd 1ee2 e7bc

fc3.weight f4 [50, 100]
-0.11319405 -0.023076424 0.006034525 -0.09209863 0.012950461 0.060752228 -0.01824898 -0.0032441095
-0.034249507 0.056261666 0.053512774 -0.0109429825 0.07527569 0.03662477 -0.09256001 -0.08624712
0.022544896 0.07045568 -0.020609787 -0.014540576 0.05014821 -0.02826848 -0.09857936 -0.068146415
0.042240277 0.049347308 -0.077935986 -0.11643375 -0.022276698 0.036578286 -0.027677365 -0.10909155
-0.10888754 0.051017217 -0.007363904 -0.07298112 -0.022534335 -0.07522392 -0.056285355 -0.098900355
-0.104754135 -0.1410345 -0.08984644 -0.0637991 0.03611269 -0.06434544 0.01991084 -0.050675925
0.12402918 0.07352276 0.069732085 0.017614558 -0.041773513 0.0021279305 -0.012422544 -0.0994192
-0.04411695 0.0067457575 -0.032989822 -0.07550619 -0.0976406 -0.024841866 0.0071418127 -0.029604435
-0.020937009 -0.048301715 -0.021055795 0.060728434 -0.11605276 0.0069576064 0.03642623 0.10345469
-0.06080643 -0.010056492 -0.11741959 -0.12584975 0.008863784 -0.072306044 0.038105156 -0.08480364
-0.013755954 0.042509496 -0.055088453 -0.039658792 -0.10391918 -0.06267602 -0.102347486 -0.078288734
-0.07880681 0.069656074 -0.05672767 0.050902836 -0.11927692 -0.06300728 -0.088411495 0.068948135
-0.15056668 0.06717259 0.052482106 -0.10873526 0.25428075 -0.013357036 -0.32284516 0.0678355
0.11657407 0.0862781 0.21289347 -0.23136178 -0.42113215 0.06657029 0.20091876 0.5072997
0.65621966 -0.064714536 0.2282769 0.037727516 0.26576012 0.20640905 0.18436547 0.12557754
-0.10578731 -0.07349617 -0.056467235 -0.049108334 0.02332775 0.37317938 0.10672286 0.22695483
0.13076316 -0.054144017 0.059279505 0.088751405 0.10174736 0.08812691 0.15015182 0.04373853
-0.36621094 -0.08386382 0.097307205 0.5841567 0.28302422 -0.010590501 -0.115680754 0.35566473
0.06879684 -0.026396895 0.10974242 0.15433502 0.35046345 -0.09844306 0.15300918 -0.22266708
-0.6054418 -0.63428926 0.19737928 -0.07446633 -0.05595969 -0.0581766 0.08531666 -0.092661984
-0.45789513 -0.0023837984 -0.035829615 0.2536964 -0.03806143 0.006689023 0.12936027 0.2171969
0.36142164 -0.017799113 0.12281252 0.42940623 0.35265574 0.12955253 -0.056482315 -0.054411072
0.06380708 0.18909992 -0.17656231 -0.03499001 0.30981937 -0.46990737 0.0114503205 0.37233344
-0.018271761 0.12063176 -0.10238595 0.17983568 0.3829827 0.010218371 0.027976973 -0.08938921
-0.03747676 -0.3403033 -0.074111044 -0.26715004 -0.21121058 0.11004594 -0.07558095 0.22073017
0.06895681 0.031587515 -0.044624418 0.08602154 0.057852633 -0.017252894 0.018981418 -0.06010621
0.07751028 0.042998876 0.04464279 -0.17867316 -0.029868595 -0.015453985 -0.13949257 0.022702575
-0.018105812 -0.20906073 0.017872643 -0.23308371 -0.11496268 -0.050644875 -0.06919252 -0.024264062
-0.0018767067 0.05375285 0.023562279 -0.02251204 0.0761404 0.031571884 0.05222737 0.056808557
-0.08606861 0.078927934 -0.09722375 0.038614705 -0.06355198 0.064174816 -0.1132434 0.0726845
-0.002210825 0.033186402 0.0012702243 0.02180934 -0.010190099 -0.008925315 -0.07094041 0.04261071
-0.028886536 0.06776646 0.06526139 -0.06674165 -0.0464062 0.068216726 -0.056641888 -0.04189521
00000000: 48d2 e7bd c50a bdbc 44bd c53b 359e bcbd
00000010: 2c2e 543c 54d7 783d e37e 95bc 209b 54bb
00000020: 3649 0cbd a272 663d 3630 5b3d 324a 33bc
00000030: 242a 9a3d db03 163d 1a90 bdbd 54a2 b0bd
00000040: 13b0 b83c 114b 903d dbd5 a8bc 993b 6ebc
00000050: 3668 4d3d 4d93 e7bc fae3 c9bd 5990 8bbd
00000060: 2404 2d3d 6720 4a3d e79c 9fbd d174 eebd
00000070: 9f7d b6bc 1dd3 153d a4bb e2bc 646b dfbd
00000080: 6e00 dfbd 6ef7 503d e74c f1bb 2077 95bd
00000090: ed99 b8bc 000f 9abd 798b 66bd 458c cabd
000000a0: 5689 d6bd 596b 10be 6901 b8bd 1aa9 82bd
000000b0: e6ea 133d 8bc7 83bd 0f1c a33c 8f91 4fbd
000000c0: 0303 fe3d 1a93 963d b2cf 8e3d 684c 903c
000000d0: b41a 2bbd c074 0b3b ed87 4bbc 4b9c cbbd
000000e0: fab3 34bd 840b dd3b 5620 07bd fda2 9abd
000000f0: cbf7 c7bd 2b81 cbbc de05 ea3b 0085 f2bc
00000100: 1784 abbc 05d8 45bd 347d acbc 61be 783d
00000110: 12ad edbd a2fc e33b ac33 153d 0de0 d33d
00000120: 2a10 79bd fcc3 24bc af79 f0bd c2de 00be
00000130: 6839 113c 3115 94bd 2714 1c3d 88ad adbd
00000140: a760 61bc 701e 2e3d 6ea4 61bd 4271 22bd
00000150: 94d3 d4bd 495c 80bd 8f9b d1bd d855 a0bd
00000160: 7765 a1bd d8a7 8e3d 465b 68bd 7e7f 503d
00000170: 7547 f4bd f609 81bd 1611 b5bd ae34 8d3d
00000180: 272e 1abe c891 893d 7af7 563d 98b0 debd
00000190: 1631 823e 78d7 5abc f64b a5be 57ed 8a3d
000001a0: 63be ee3d 93b2 b03d bf00 5a3e 1aea 6cbe
000001b0: a29e d7be 0156 883d a6bd 4d3e 65de 013f
000001c0: 03fe 273f 0e89 84bd 6bc1 693e 2b88 1a3d
000001d0: b611 883e e55c 533e 4dca 3c3e 6697 003e
000001e0: 04a7 d8bd 2985 96bd 304a 67bd d225 49bd
000001f0: d619 bf3c 5e11 bf3e 8491 da3d d966 683e
00000200: c7e6 053e 1ec6 5dbd 11cf 723d 4cc3 b53d
00000210: eb60 d03d e27b b43d 66c1 193e 2c27 333d
00000220: 0080 bbbe cbc0 abbd 0049 c73d 4b8b 153f
00000230: 8de8 903e c883 2dbc 08ea ecbd b019 b63e
00000240: 5ce5 8c3d 4d3e d8bc a2c0 e03d 000a 1e3e
00000250: f26f b33e 849c c9bd 70ae 1c3e d702 64be
00000260: 3cfe 1abf c860 22bf cb1d 4a3e ce81 98bd
00000270: fd35 65bd 964a 6ebd 80ba ae3d 91c5 bdbd
00000280: 3b71 eabe 8039 1cbb 13c2 12bd 7fe4 813e
00000290: 4de6 1bbd 982f db3b 0577 043e dd68 5e3e
000002a0: 420c b93e 72cf 91bc 2185 fb3d 22db db3e
000002b0: 4b8f b43e 6ba9 043e 005a 67bd 25de 5ebd
000002c0: 49ad 823d 69a3 413e c0cc 34be af51 0fbd
000002d0: a5a0 9e3e b397 f0be 209a 3b3c 7da2 be3e
000002e0: a9ae 95bc c90d f73d baaf d1bd d826 383e
000002f0: 4f16 c43e f46a 273c f72f e53c b111 b7bd
00000300: 3b81 19bd 3c3c aebe 88c7 97bd e4c7 88be
00000310: 9647 58be c45f e13d 2fca 9abd 1707 623e
00000320: 3a39 8d3d e961 013d 18c8 36bd 102c b03d
00000330: e2f6 6c3d f155 8dbc eb7e 9b3c ee31 76bd
00000340: b6bd 9e3d 971f 303d 5cdb 363d 19f6 36be
00000350: fcae f4bc b632 7dbc 24d7 0ebe c0fa b93c
00000360: a452 94bc 0414 56be a669 923c 7fad 6ebe
00000370: 8e71 ebbd 0071 4fbd cfb4 8dbd 6dc5 c6bc
00000380: d4fb f5ba f32b 5c3d ae05 c13c 2b6b b8bc
00000390: 7fef 9b3d 8551 013d 5eec 553d 17b0 683d
000003a0: bd44 b0bd f8a4 a13d 3f1d c7bd 742a 1e3d
000003b0: 8a27 82bd 166e 833d 28ec e7bd 9cdb 943d
000003c0: 7de3 10bb 77ee 073d a87d a63a 80a9 b23c
000003d0: 5ff4 26bc 7c3b 12bc 3549 91bd 9188 2e3d
000003e0: 75a3 ecbc 24c9 8a3d c3a7 853d d9af 88bd
000003f0: 6d14 3ebd 36b5 8b3d 5301 68bd 509a 2bbd

fc3.bias f4 [50]
-0.008750797 0.09616893 -0.030806525 0.11356415 0.056380633 -0.02983361 0.07191876 -0.14982569
-0.122706346 0.061313577 -0.03386494 0.2858405 0.043930992 -0.020652872 0.072327666 0.01759814
-0.07667156 0.06408883 -0.08560306 -0.11590233 -0.022733277 0.03515695 0.097004905 0.3391672
-0.002409522 -0.10272227 -0.012996686 0.034015615 0.058159478 -0.06815101 0.005269789 0.02298397
0.2708926 -0.09422401 -0.12315543 -0.023715042 -0.058750443 -0.031751327 -0.049789224 -0.037959415
-0.093235396 0.06335004 0.031867117 0.14269525 0.0044772825 0.1141638 0.038459327 0.044795226
0.08717762 -0.04571455
00000000: 815f 0fbc 37f4 c43d f75d fcbc 5294 e83d
00000010: 61ef 663d 9d65 f4bc 254a 933d e86b 19be
00000020: 774d fbbd f223 7b3d f7b5 0abd b059 923e
00000030: fcf0 333d 3630 a9bc 8720 943d f929 903c
00000040: fb05 9dbd 0141 833d a850 afbd 335e edbd
00000050: 233b babc bc00 103d 82aa c63d 53a7 ad3e
00000060: 12e9 1dbb 0e60 d2bd 0df0 54bc f553 0b3d
00000070: a238 6e3d c292 8bbd 32ae ac3b e148 bc3c
00000080: 6fb2 8a3e 85f8 c0bd ea38 fcbd 0c46 c2bc
00000090: 4ea4 70bd ae0d 02bd c9ef 4bbd 557b 1bbd
000000a0: 33f2 bebd aabd 813d 1887 023d b41e 123e
000000b0: 2bb6 923b b6ce e93d 8787 1d3d 337b 373d
000000c0: 2e8a b23d 2e3f 3bbd

fc4.weight f4 [2, 50]
-0.053145576 0.23303288 -0.0111603355 -0.6648784 0.19789834 -0.044700786 0.26201972 0.067091376
-0.097079724 0.298158 -0.06259523 -1.0280876 0.28034467 0.7018662 0.23329262 0.26499662
-1.1951764 0.321782 -0.45082635 0.06873306 0.0044233142 0.3070068 0.32919195 -1.2279292
0.26031795 -0.032452494 0.022452407 0.38904893 -0.039922483 0.2979242 0.31358263 0.12662032
-1.3711474 -0.106061675 -0.100659765 -0.025656251 0.27050346 0.23615249 0.18827261 0.20095026
-0.09527837 0.25869352 0.0035447336 0.46753803 0.23226643 0.3570642 0.31094396 0.16045418
-0.47809994 0.36196995 0.023384606 -0.23110744 0.023135059 0.6792182 -0.2313707 0.019008607
-0.3486832 0.029928869 -0.021982843 -0.29240283 0.023125967 1.2691116 -0.17116724 -0.63792795
-0.17166945 -0.13993491 1.1976881 -0.07783669 0.41086882 0.108358786 0.12013656 -0.12840538
-0.20292541 1.1374499 -0.21980366 -0.08022883 0.08619101 -0.29971477 -0.0354753 -0.34732026
-0.36841583 0.12289518 1.3809489 -0.08530567 -0.069261216 0.036788568 -0.19025867 -0.30005214
-0.32701108 -0.26618972 0.09625071 -0.11464769 0.07251761 -0.23279811 -0.23951165 -0.29145536
-0.18704394 -0.2922094 0.4246088 -0.26435307
00000000: 2daf 59bd 2ca0 6e3e d7d9 36bc 7935 2abf
00000010: dda5 4a3e 2c18 37bd 7327 863e 3467 893d
00000020: bcd1 c6bd 2aa8 983e ee31 80bd 6098 83bf
00000030: 5689 8f3e 81ad 333f 43e4 6e3e a3ad 873e
00000040: 8afb 98bf 9cc0 a43e b6d2 e6be ebc3 8c3d
00000050: 73f1 903b ff2f 9d3e d98b a83e c92c 9dbf
00000060: 6548 853e e8ec 04bd 1cee b73c 6c31 c73e
00000070: c285 23bd 8589 983e e78d a03e c2a8 013e
00000080: c281 afbf dd36 d9bd b526 cebd 0f2d d2bc
00000090: 6e7f 8a3e f5d1 713e 89ca 403e e8c5 4d3e
000000a0: 4e21 c3bd 7a73 843e c34e 683b 2561 ef3e
000000b0: 40d7 6d3e 1ed1 b63e 0c34 9f3e 1a4e 243e
000000c0: 84c9 f4be 2054 b93e 1391 bf3c 6ea7 6cbe
000000d0: bc85 bd3c 3ee1 2d3f 71ec 6cbe f0b7 9b3c
000000e0: 9b86 b2be 632d f53c 5d15 b4bc d3b5 95be
000000f0: ab72 bd3c 4072 a23f 7746 2fbe 3f4f 23bf
00000100: 1eca 2fbe 194b 0fbe d84d 993f d868 9fbd
00000110: 665d d23e 36eb dd3d 280a f63d b37c 03be
00000120: aecb 4fbe f597 913f 3614 61be 034f a4bd
00000130: ea84 b03d 3774 99be 8c4e 11bd f6d3 b1be
00000140: 00a1 bcbe 78b0 fb3d efc2 b03f bdb4 aebd
00000150: d3d8 8dbd 9caf 163d 2bd3 42be 6fa0 99be
00000160: ff6d a7be 054a 88be 181f c53d 68cc eabd
00000170: 1d84 943d a162 6ebe 8b42 75be a339 95be
00000180: 7288 3fbe 789c 95be 5366 d93e 4959 87be

fc4.bias f4 [2]
-0.25599644 0.22398065
00000000: f711 83be 2f5b 653e
