updated_fdia_model_ffnn_pytorch_200_400_200.onnx (onnx, 748137 bytes, 8 tensors)

fc1.weight f4 [200, 128]
000000 16 0b 2a bc 99 5c 39 be dd 92 52 be de 51 d4 bd
       -0.01037862 -0.1810173 -0.20563836 -0.103671774
000010 98 1c 0f be 5e 83 e4 3b b8 51 ad bd b3 d7 9b bd
       -0.13975751 0.006973668 -0.08462852 -0.07609501
000020 ce ed dd bd 22 87 0c be 9a 51 87 bc 75 15 30 bd
       -0.10836373 -0.13723424 -0.016518403 -0.042989213
000030 76 8e 11 3b 00 15 13 3d 65 5e 47 3c ce 63 93 3c
       0.0022210157 0.0359087 0.0121685015 0.017991927
000040 63 e9 58 3c a8 69 0a bd b3 ff 48 3d 2a 79 1f bd
       0.0132392375 -0.033792168 0.04907198 -0.03893391
000050 c7 3d 17 3d 1e a7 d6 bc 50 5c 3d bc 20 01 14 3b
       0.03692415 -0.026202735 -0.011557654 0.0022583678
000060 9b 11 4e 3d bc 24 72 bd 35 2e 3f bd 3a 1f f7 b9
       0.05030976 -0.059117064 -0.046674926 -0.00047134777
000070 6a b4 34 3d e8 6f f7 3c db ab 16 be 15 82 2d 3d
       0.04411737 0.030204728 -0.14713995 0.042360384
000080 89 68 d3 bd 9c ca 3c be 60 ef 21 be 3d 8b a9 3c
       -0.10322673 -0.18436664 -0.1581397 0.020696277
000090 e6 2a 35 be 99 72 5a 3d c2 16 29 be e2 74 87 3b
       -0.17692146 0.053331945 -0.16512588 0.0041338066
0000a0 f5 aa 55 bd 68 d8 88 bd ab 01 29 3d e5 0b ed bc
       -0.05216499 -0.06681901 0.041261356 -0.028936336
0000b0 4d 08 4d 3c a6 25 25 3d e7 a1 8f 3d 41 38 78 bb
       0.012514186 0.040319107 0.07013302 -0.0037875327
0000c0 41 2c 4d 3d a1 f2 76 3c a1 db dc 3d c8 d8 2e 3d
       0.050091032 0.015072496 0.107840784 0.042687207
0000d0 c4 96 14 bd f8 76 97 3d 16 34 d0 bb fc 42 75 bc
       -0.036276594 0.07395738 -0.0063538654 -0.014969584
0000e0 4a 86 a7 bd 2e 3e 0a bd 46 9b db bd 8b f4 0f be
       -0.081799105 -0.033750705 -0.107229754 -0.1405813
0000f0 d3 12 57 be 3d be 0f bd 84 a4 2b be e1 b1 ec bd
       -0.21003275 -0.035093535 -0.16761976 -0.11557365
000100 39 2b 26 3c 2a fc 7b be 19 ca 00 bd e4 5e f9 bd
       0.010142141 -0.24607912 -0.031442735 -0.12176302
000110 d9 b7 dc bc d4 5c 21 bd 85 16 cf bc 20 3f 4c 3d
       -0.026943134 -0.03939517 -0.025279293 0.04986489
000120 4a 48 fa bc f7 07 ad 3b 6d ef e1 3c 26 66 b2 3c
       -0.030552048 0.0052804905 0.027579987 0.021777224
000130 72 1f 83 3d fe d6 94 3d e4 36 83 bd ec ae 61 bd
       0.06402482 0.07267569 -0.06406954 -0.05509846
000140 df bc ac bd e1 61 6b bc 12 77 85 bd 66 00 6a bd
       -0.08434462 -0.014366598 -0.065168515 -0.057129286
000150 94 47 ce bc b3 dd b4 bd 57 c0 9c bb 6b 35 03 be
       -0.025180615 -0.08831348 -0.004783671 -0.12813346
000160 ba ec 28 be bf 3a 1b be e1 49 ad bc 0a d7 33 be
       -0.16496554 -0.15159129 -0.021153392 -0.175625
000170 36 0f a1 bd c4 d3 23 bc e7 24 1e be 8a e0 97 bd
       -0.078642294 -0.009999219 -0.15443765 -0.07415874
000180 84 a4 d0 bc 36 c3 b7 bd d2 68 fe bc 75 c4 66 3d
       -0.025469072 -0.089727804 -0.031055842 0.0563397
000190 d4 7d 78 bc d7 b3 c6 bd 94 a4 ae 3c e5 b4 52 bd
       -0.0151667185 -0.097022705 0.021318711 -0.051442046
0001a0 78 0c 45 3d 1c 7e 50 3c f2 56 00 3e 94 27 9d bd
       0.048107594 0.012725379 0.12533167 -0.076735646
0001b0 e7 b8 e8 bc 2e 06 0f be ea 0e 70 3d df ec 83 3d
       -0.02840848 -0.13967201 0.058607973 0.06441664
0001c0 60 a0 c2 3c 24 2e 6c 3d dd 70 c3 bd 93 24 8d bd
       0.023758113 0.05766119 -0.09543011 -0.068917416
0001d0 16 a7 2a 3d 12 ca a6 3c 08 1a 7e bd 53 2f 4a 3c
       0.04166325 0.020360027 -0.062036544 0.012340385
0001e0 0e 1a 05 bd 66 e4 5f bd 34 3b 57 3d 4d 64 8a bd
       -0.03249555 -0.054661177 0.052546695 -0.06757412
0001f0 78 9e a8 bc 5c e6 3b bd af dc a7 3d 31 49 5d 3c
       -0.020583376 -0.045873985 0.08196389 0.01350622
000200 50 9c 3e 3d 55 1a 84 3d cf 45 8f bd 81 3e 83 bc
       0.04653579 0.06450335 -0.06995737 -0.016021015
000210 2e a5 9e bd c3 66 e4 3c ce f2 d5 b8 40 1e 0b be
       -0.07746349 0.027881032 -0.000102018574 -0.13585758
000220 06 1f f0 bc fb 7e 2d 3d 10 46 a8 bd 1c e0 6d 3d
       -0.029311668 0.042357426 -0.08216488 0.058075055
000230 0e 7b c5 3d 15 f8 1d be 65 6b 0e bd c5 c0 61 bc
       0.096426114 -0.15426667 -0.03477039 -0.01377887
000240 fc eb 0a 3c 96 a5 65 bd 2d a1 2f be 37 bd fa bc
       0.008479115 -0.05606612 -0.17151327 -0.030607803
000250 35 c5 73 3d f6 4f 94 bd 61 c8 13 bc df 93 87 bd
       0.059514243 -0.07241814 -0.009019942 -0.06620001
000260 d4 50 62 3d b2 28 30 3b 71 2c 9e bd 25 a0 1b bc
       0.055252865 0.0026879725 -0.0772332 -0.009498631
000270 a7 19 93 3d 15 ef 39 bd d4 f3 33 be 96 38 2d 3e
       0.07182627 -0.045394022 -0.17573482 0.16916117
000280 4f 6d a7 3b 47 67 a1 bd ce 63 85 bd 23 e3 49 bd
       0.005109466 -0.07881027 -0.06513177 -0.04928888
000290 41 5c 95 bd e9 60 b4 bd 6e a0 5e bc ff 55 0e 3c
       -0.07292987 -0.08807547 -0.013588054 0.008687495
0002a0 f1 b2 28 3d a9 2b 0f bd b6 19 73 bd 53 7f b6 3c
       0.041186277 -0.034953747 -0.05935069 0.02227751
0002b0 e7 0c 82 3d 14 bf 09 bb 1f 35 6f bd 8c 56 ca bd
       0.06350117 -0.0021018432 -0.05840027 -0.09879789
0002c0 fd 00 15 bd 65 8d 7e bc a6 68 f8 bd 6d 0f 1b bd
       -0.036377896 -0.015536641 -0.12129335 -0.037856508
0002d0 57 b9 17 3b a8 4f 37 bd 9e 49 6b bd 75 41 60 3c
       0.0023151243 -0.0447537 -0.057443254 0.013687481
0002e0 1b 22 27 3d 52 29 88 3b c1 8f 24 bd 05 7a 31 be
       0.04080401 0.0041553164 -0.040176157 -0.17331703
0002f0 1e 2c 0a bd 7a e5 a7 bd 11 20 cb bd a4 4a 78 bd
       -0.03373348 -0.08198066 -0.099182256 -0.060618058
000300 35 26 94 bd f3 49 bb bc 22 ed 9a bd a7 c8 53 3d
       -0.0723385 -0.02286241 -0.07564761 0.05170503
000310 04 45 d4 bd 0f b2 15 bd a4 ae 06 3c 03 8e 7d 3d
       -0.10364726 -0.036546763 0.0082203485 0.06190301
000320 5e d3 3d bd 80 a9 08 bd c0 b7 88 bd 9f 6c 64 3c
       -0.046344154 -0.033364773 -0.066756725 0.013941913
000330 c3 63 00 3c cb ca 8f 3b 5e 10 0e bd 23 8a df bc
       0.007836285 0.0043881885 -0.034683578 -0.027287548
000340 c0 c6 29 be 74 07 80 bd 18 1f 7f 3d c9 6d aa 3d
       -0.16579723 -0.062514216 0.062285513 0.08321721
000350 c3 74 a2 3b c5 bb bf bd 92 fc 3a bd ab 65 85 bd
       0.0049577667 -0.09361986 -0.045651026 -0.06513532
000360 5b 2d e9 bd 5b 6c 45 be 79 6a e8 bd a1 b7 1a be
       -0.11385604 -0.19279616 -0.11348433 -0.15109111
000370 ce 74 cd 3c 62 12 a1 bd b4 6b dc bd 80 22 8e bd
       0.02508011 -0.07864834 -0.1076273 -0.06940174
000380 bd 51 3d 3c 92 65 f1 bc 2d 8d c0 bc 1a da ae bc
       0.011555132 -0.029467378 -0.023504818 -0.021344233
000390 57 0d 16 be e9 06 b5 bd 95 49 3d bd ed 1d 4b 3c
       -0.14653526 -0.08839209 -0.04621275 0.012397272
0003a0 bf 66 9c 3d 71 d4 b9 3e 50 6f 33 3e 6d d4 90 bd
       0.07636785 0.36294892 0.17522931 -0.07071767
0003b0 2e 4c d4 bd 1b a3 60 bd f5 52 aa 3d e6 27 64 bd
       -0.103660926 -0.05484305 0.08316604 -0.055702113
0003c0 e4 c7 41 bd 2c 24 d9 b9 95 de 80 3d 41 03 8b bd
       -0.04730977 -0.00041416415 0.06292454 -0.0678773
0003d0 ee 93 6a 3d 9d 8a ab 3b c4 bc 8a 3c 18 6f 52 3d
       0.057269983 0.00523503 0.016935714 0.05137548
0003e0 d8 cf 1c bb 61 93 5d b9 ff 88 81 bd 1d 09 9e 3d
       -0.0023927595 -0.00021131105 -0.06324958 0.07716582
0003f0 42 4f 81 3d 46 d7 1b bc 47 97 9a 3c bc 03 4c bc
       0.06313945 -0.009511774 0.018870963 -0.012452062

fc1.bias f4 [200]
000000 8b e1 07 3d 3e dc 2b bd c0 d2 91 3d 05 9e 2a 3d
       0.03317408 -0.041958086 0.071202755 0.041654605
000010 bb 9c 6b bc 53 7c da bc bc 11 fd bc f0 d6 53 3d
       -0.014380629 -0.02667061 -0.030892245 0.051718652
000020 63 25 ba bd 08 41 a4 3b fe 6a 45 3d d4 d2 84 bd
       -0.09089162 0.005012635 0.04819774 -0.06485525
000030 66 da 89 bd 2b 48 93 bd b8 66 17 bd d3 4f 8c 3d
       -0.06731109 -0.07191499 -0.036963195 0.06851163
000040 f2 20 82 3d 10 84 4b bd 04 5d aa 3c aa 5f 96 bd
       0.0635394 -0.04968649 0.020796306 -0.07342465
000050 c2 99 9b bd eb 0d cd 3c 35 3a c5 bd 21 06 d4 3b
       -0.07597686 0.02503105 -0.09630243 0.006470457
000060 a4 45 33 3c 54 44 78 3d a3 1d 59 bd 33 6b d3 bd
       0.010941897 0.060612038 -0.05300678 -0.10323181
000070 71 e8 99 3d 0a 82 d6 bd 47 6e 86 3d 75 d5 25 3d
       0.07515038 -0.10474022 0.065640025 0.04048677
000080 cf 92 71 bd c7 8f 00 3d 7d 0d f5 3c 83 71 60 bc
       -0.0589779 0.031387117 0.029913658 -0.013698938
000090 ac 2f c3 3c 35 e4 2a 3d aa 6a 8f bd 2e 6b 24 bb
       0.023826443 0.04172154 -0.070027664 -0.0025088298
0000a0 5d 21 cb bc ce 4b 7d 3d fc ea 8e bd 94 48 f8 3c
       -0.024796182 0.06183987 -0.069784135 0.030308045
0000b0 9b 89 1f 3d c5 57 c6 bc c3 80 08 3d 69 3a 3a 3a
       0.03894959 -0.024211774 0.03332592 0.00071040407
0000c0 64 ab be bd 70 d1 cf bd d9 e5 90 bd 20 87 d0 3c
       -0.09310034 -0.10147369 -0.0707509 0.025455058
0000d0 29 14 b1 3b e3 e7 7d 3a 9a 55 e8 3c be ab ef bb
       0.0054040146 0.0009685738 0.02836113 -0.0073141744
0000e0 05 8e 91 bd d4 86 a6 bd 6c 2f 36 3a 4a f7 86 3c
       -0.07107166 -0.08131185 0.00069498154 0.016475338
0000f0 75 e1 1f bd 63 49 8c bd 41 37 9e 3d 47 4f ce bb
       -0.039033372 -0.06849935 0.077253826 -0.0062960717
000100 d9 13 90 3c 45 04 76 bd c9 65 2f bd 0b f5 31 3c
       0.01758759 -0.060062665 -0.04282168 0.010861645
000110 5c 9d a7 bd 5d 9c c6 3b 2a 2f 81 bb f5 7c cd 3c
       -0.08184311 0.0060611204 -0.00394239 0.025083998
000120 fc 60 99 bc 79 e9 e1 bb f4 aa 28 3d a8 3c cf bc
       -0.018723004 -0.006894287 0.04117866 -0.025297478
000130 53 8e e5 bd ff 31 a7 3d 29 d2 aa bd da 18 3d bd
       -0.11208787 0.08163833 -0.08340866 -0.04616628
000140 38 24 78 bd 3f 8e 33 3d 3c 73 b0 bd 91 ef 8d bd
       -0.060581416 0.04383683 -0.08615729 -0.06930459
000150 8c 03 63 bd a1 27 ec 3c 2b 20 65 3d 40 b8 c5 3c
       -0.055423304 0.02882749 0.05593888 0.024135709
000160 d5 3d bc 3c 52 a8 14 bc a7 96 71 bd e2 21 9e bd
       0.022978703 -0.009073334 -0.058981564 -0.077213064
000170 5e d4 6a 3d 2d d8 c0 3c 88 58 8f bd 35 48 d1 b9
       0.057331435 0.02354058 -0.06999308 -0.00039917385
000180 c3 96 99 3d 73 1d 4e 3c 68 2c d1 3c 2f 98 6b 3d
       0.07499459 0.012580263 0.02553387 0.05751818
000190 fd 97 8b bd ef 87 a6 3c 37 53 17 bd f8 e0 33 bc
       -0.06816099 0.02032849 -0.036944594 -0.01097893
0001a0 be f7 3a b9 56 77 5e 3d 32 85 d0 bc 64 6c 24 3d
       -0.00017830633 0.054313026 -0.025454137 0.04014243
0001b0 e5 b0 3d bd 0d f0 45 bd 9e 30 fe 3c a5 6c 3e ba
       -0.046311278 -0.048324633 0.031029042 -0.0007264114
0001c0 79 11 ef 3c ae 43 c8 bd 1e d4 e1 3c 7a 16 b2 3c
       0.029183136 -0.09778534 0.027566966 0.021739233
0001d0 26 02 b2 bd bf 34 89 bd c1 b6 55 bd 3a 1c cb bd
       -0.08691816 -0.06699514 -0.05217624 -0.09917493
0001e0 d5 b1 92 bd 25 a5 21 3d e8 22 d1 bd 12 39 b7 bc
       -0.07162825 0.039464135 -0.10211736 -0.02236608
0001f0 cf 8e 6c 3d 82 fb b0 3b e9 42 e9 bd 3f 9b 3d 3b
       0.05775338 0.005401076 -0.11389715 0.0028931645
000200 9c 44 06 bc 99 78 9d bd 3f 00 51 3c dd 08 d7 bd
       -0.008195069 -0.07689018 0.012756406 -0.104997374
000210 59 0b 83 38 49 fd 1e 3d 2b e2 02 bd c8 50 0f 3b
       6.2486804e-05 0.03881577 -0.03195397 0.0021868218
000220 e4 29 f7 3c 81 be 63 bd dd 0b 47 3d 28 ac 98 3c
       0.030171342 -0.0556016 0.048595298 0.018636778
000230 7c d4 d2 3c 02 ac 15 3b 45 0d a7 bd cf 0d 9a 3d
       0.025736086 0.002283812 -0.08156828 0.07522165
000240 1e 7c 1c 3d 83 9e c9 3c ee 5d 1a 3c ad 25 1b 3d
       0.038204305 0.024611717 0.009421809 0.037877727
000250 d4 69 fb 3c 3b df 74 bd e7 3b d4 bc 17 ac 2a bc
       0.030690111 -0.0597832 -0.02590747 -0.010417006
000260 f0 69 8a 3b 63 8b 53 bd cb 77 b7 bd 6a 73 0c bd
       0.0042240545 -0.0516466 -0.089583956 -0.034289755
000270 69 93 2f 3d 1c d2 8a 3d f9 a5 12 bd 21 19 d7 bd
       0.04286519 0.067783564 -0.035802815 -0.1050284
000280 9c 44 c8 3d 59 31 80 3d 41 67 5c 3d 6c 01 f3 bc
       0.09778711 0.06259412 0.053809408 -0.029663764
000290 a1 cd 66 bd 1d 1e 35 3d 97 a6 a3 bd 29 51 d8 bc
       -0.056348447 0.04421817 -0.07990759 -0.026405888
0002a0 81 c1 2e 3d b9 10 63 bd 99 17 14 bd b1 3a 5e bd
       0.04266501 -0.05543587 -0.036155317 -0.05425519
0002b0 2b 36 02 bc f8 20 b7 3c 7a 9a f7 3c a6 1e 85 bd
       -0.007947485 0.022354588 0.030225027 -0.06499986
0002c0 04 4d f6 3c 89 b1 4e 3c 69 b3 db bc a8 40 2a 3d
       0.03006602 0.01261557 -0.026818948 0.041565567
0002d0 d8 be 9a bd 6a f2 ac bd d8 0c ac 3c b0 9e 13 bd
       -0.07555932 -0.08444674 0.021002218 -0.036040008
0002e0 24 05 39 3d a5 89 fd bc a7 9f 54 3d 6e 0e 49 3d
       0.045170918 -0.030949423 0.05191007 0.049086027
0002f0 70 b3 ec bc 3e 01 76 3d ac 35 86 bc c2 5e a0 bd
       -0.028894156 0.06005978 -0.016383015 -0.078305736
000300 38 3c 99 bc c5 9d 80 3d a1 0e 23 bc 23 09 b0 bd
       -0.018705472 0.06280092 -0.009952218 -0.08595493
000310 cf 07 88 3d e8 9f 65 3d c5 e2 8e bd 16 4a 41 bc
       0.06642114 0.0560607 -0.069768466 -0.011797449

fc2.weight f4 [400, 200]
000000 82 22 a9 3c 65 56 c7 bd 40 d6 3b be 36 51 d9 bc
       0.020646337 -0.09733275 -0.18343449 -0.026527982
000010 03 30 eb 3c f0 71 c8 3d af f7 3f 3c ac 30 21 3d
       0.028709417 0.09787357 0.011716767 0.039353058
000020 4d 3f 83 bd a2 b0 fe 3c 57 11 b1 3c 71 a8 55 bc
       -0.06408558 0.031090084 0.021614714 -0.013040648
000030 6f 7f 56 bd 2e d9 94 bd f3 89 ac bb ea 39 c1 3d
       -0.052367624 -0.07267986 -0.0052654683 0.09434874
000040 95 e3 ac be 5d b7 8d bd e4 f4 8b bd 77 db 1c be
       -0.3376738 -0.069197394 -0.068338186 -0.15318094
000050 53 df 2e 3d 12 86 d1 3c 32 a9 18 be 7d 59 21 3c
       0.042693447 0.025576625 -0.14908293 0.009847996
000060 d4 25 01 be 48 2d cd 3d 9c e0 43 3d 5e ba b4 3d
       -0.12612087 0.10018402 0.047821626 0.08824609
000070 74 a6 94 be f4 83 32 3b db fb 1a 3d 3d 76 2f be
       -0.29033244 0.0027239295 0.037837844 -0.17134948
000080 51 93 ed bc 1e 74 73 3c 0a 3b 12 3e 72 01 04 bc
       -0.02900091 0.014859227 0.14280334 -0.008056985
000090 92 60 a9 3d 22 48 07 3e 4d de 36 bb 1a 77 44 be
       0.082703725 0.1321111 -0.0027903498 -0.19186059
0000a0 0b 38 ae bc 53 86 ae 3d 63 11 75 be a8 50 dc 3c
       -0.021266958 0.08521714 -0.23932414 0.026893929
0000b0 70 13 e0 bc 8a 62 0b 3e 04 97 15 bd bc 86 76 3c
       -0.027353019 0.13611808 -0.036520973 0.015046772
0000c0 75 bc 0e bd c0 8d 64 39 0e b6 ff 3b e8 f9 74 3d
       -0.034847695 0.0002179658 0.007803685 0.05980864
0000d0 e0 f2 a9 3c cf 79 65 bd bc 80 98 3d af a0 47 bc
       0.020745695 -0.05602437 0.07446429 -0.012184306
0000e0 cc 64 ef 3d 8e 86 9d bc 7e 26 3e 3e 7c 4a 4b 3d
       0.11689147 -0.0192292 0.18569371 0.04963158
0000f0 5b 07 da 3c 7d cf 79 bd 2c a0 53 3d 23 5a 1f bd
       0.026614835 -0.060988892 0.051666424 -0.03890432
000100 71 4c 16 bd ee f1 42 bc a3 9f dd bc 03 71 39 3c
       -0.036693994 -0.011898501 -0.02705366 0.011318448
000110 0f c4 56 be cb 88 61 3e 55 5a b6 bb ee ca fa 3c
       -0.20973228 0.22024839 -0.0055649676 0.030614343
000120 e2 cc 59 bd 9b f6 02 be ae 88 11 3d 11 5a a3 3d
       -0.053173907 -0.12789385 0.03553074 0.07976163
000130 ee 8a f0 bd e3 57 21 3d aa 80 ff 3c 0f 8a 00 3d
       -0.11745249 0.039390456 0.031189281 0.031381663
000140 fd 2a 58 3d 65 58 08 be 5c bc a5 bd e9 cc a1 3d
       0.05277537 -0.1331497 -0.08092567 0.07900412
000150 63 e0 a7 3b 23 39 fc bd b8 cb 55 be 3c f7 94 bb
       0.0051231845 -0.123155855 -0.20878494 -0.004546074
000160 41 c2 91 bd e7 62 e3 bd a3 e4 2f bd bd 50 76 3e
       -0.07117129 -0.111028485 -0.042942654 0.24054237
000170 c3 18 a4 3d ed fc cf 3d 5b 54 c4 3d 0f f8 00 3e
       0.080125354 0.10155664 0.09586402 0.12594627
000180 30 03 be ba c8 3f 2f 3e 8b d6 7d 3d b9 e0 10 3c
       -0.00144968 0.17114174 0.061972182 0.008842641
000190 9e 0e 8c 3c 12 30 8b 3d 39 86 ed 3b 96 07 a8 3c
       0.017096814 0.06796278 0.0072486666 0.02051143
0001a0 46 6e 48 3d d4 2a e6 bd 6b c2 f6 bc 26 ea f8 bb
       0.04893329 -0.112386376 -0.030122003 -0.007596272
0001b0 3d d7 a3 3d fd 61 d9 3d d5 1a fe bd 02 4d 82 bd
       0.08000038 0.10614393 -0.124074616 -0.06362344
0001c0 bb 00 99 3d 87 8b 95 3d af df 17 3d 8f 58 dd bd
       0.074708425 0.07302003 0.037078556 -0.10807907
0001d0 7f eb 7c 3c 78 f6 61 3e 5c 51 05 be ad aa cd 3d
       0.015437006 0.22066677 -0.13019317 0.100423194
0001e0 cd a6 02 be 13 4c 00 3e 10 3e 80 bd 46 c8 ff bc
       -0.12758942 0.1252902 -0.062618375 -0.031223428
0001f0 d9 55 3b be 00 6a 27 bd a5 ca 17 3d c8 30 e7 bd
       -0.18294467 -0.040872574 0.03705849 -0.11288601
000200 ec 89 14 be f6 04 25 bd 8f 73 ad bb ac d1 bb 3c
       -0.14505738 -0.040287934 -0.0052933167 0.022927128
000210 17 b6 e2 bc f9 82 3f bd 2d 30 c9 3d 08 7b a0 3c
       -0.027674718 -0.046755765 0.09823642 0.019589916
000220 90 d9 fb 3e 03 33 f8 bd c2 81 ff bd 81 b1 7d bd
       0.49189425 -0.12119105 -0.12475921 -0.06193686
000230 28 b9 2b bd 42 e4 71 bd 6e 33 7f 3c 8b 96 80 bc
       -0.041924626 -0.059055574 0.015576227 -0.015696784
000240 2a c4 9a be 14 47 b3 3a d9 5b 85 3d 33 d5 c3 3b
       -0.30227786 0.0013677799 0.06511659 0.005976343
000250 6b 45 cc bc f9 b3 10 be 2f d4 b5 bd 7d b6 d8 3d
       -0.024935445 -0.14131154 -0.088783614 0.10581682
000260 17 5b 2f 3c a6 ba 42 3d 43 00 4d 3d ce 2a 7f 3d
       0.01070287 0.047541283 0.050049078 0.06229668
000270 81 ce ce bc 62 b7 05 3e 4b ab 6b bd 25 18 b4 bc
       -0.025244953 0.13058236 -0.057536405 -0.02198417
000280 01 7f ff 3d af 0b 01 bd 99 2f e2 bc 11 9e 52 bc
       0.12475396 -0.031505283 -0.027610587 -0.012855069
000290 57 77 c1 bd 89 39 5a bd 42 d7 e3 3b a3 91 df 3c
       -0.094465904 -0.053277526 0.006953151 0.027291125
0002a0 a8 ba 5f bd fe 96 df 3d de c6 51 3c 18 98 15 3e
       -0.05462137 0.10917471 0.012803761 0.146088
0002b0 60 da eb 3c 32 9a 86 3d 57 8a 6a bd 08 9d 15 3d
       0.028790653 0.06572379 -0.057260837 0.03652671
0002c0 df db 51 3d 47 fe 82 3d 4e 79 71 bc 95 52 f7 bd
       0.051235076 0.06396156 -0.014738394 -0.12076298
0002d0 68 b6 a2 3d 6d ac ac 3d 1e cd 20 bd ec 52 5c bd
       0.079449475 0.08431325 -0.039258115 -0.053790018
0002e0 1c 06 4b bd f9 7b ef 3d 95 4e 1c 3e bc 9e 3c be
       -0.049566373 0.11693568 0.15264352 -0.18419927
0002f0 82 d4 ee bd 32 fb d0 3d 35 19 40 be bb 72 ab 3d
       -0.116616264 0.10204162 -0.18759616 0.083714925
000300 68 cd 9e 3d 23 86 a6 bd 33 22 cd 3d c0 7d 6b 3c
       0.07754022 -0.08131053 0.100162886 0.014373243
000310 fe 21 ff bc 63 2a 2d 3c ea 56 ce bc 75 0c 54 3d
       -0.031144138 0.010569188 -0.025187928 0.051769692
000320 ba 94 1d bd cf 55 94 bb 2d c3 fe bc 40 f4 5f bc
       -0.038471915 -0.0045268307 -0.031098926 -0.013669074
000330 31 9c e9 bb a5 9d 2f bd aa b8 ce 3c 67 54 33 bc
       -0.007129215 -0.04287495 0.025234539 -0.010945416
000340 83 d7 b7 bd c7 d6 06 bd 6b ed 89 bd 8a 08 1a bd
       -0.089766525 -0.03291967 -0.06734737 -0.0376058
000350 af 60 c3 3c 38 98 61 3c 4b d4 f0 3c e6 72 25 bd
       0.023849813 0.013769202 0.029398104 -0.04039278
000360 e8 54 8c bd c0 24 77 3d af 57 60 3d c1 cf 52 3d
       -0.06852132 0.060337782 0.05477112 0.05146766
000370 8c 1d 83 3c 9a e8 3f bd 45 03 c5 bc 7c 65 21 3d
       0.0160053 -0.046852686 -0.02404941 0.039403424
000380 fa 35 9e 3d 8f bc 29 bd 03 08 29 bd 86 53 cd 3c
       0.07725139 -0.04143959 -0.041267406 0.025064241
000390 30 7c b6 bb 72 94 7d bd 74 4f f0 b9 76 56 4b 3d
       -0.0055690035 -0.061909147 -0.00045835564 0.049643002
0003a0 76 21 da bc ab d4 7e bd 2f 95 ee bc bb c7 b8 3b
       -0.026627284 -0.062214535 -0.02912387 0.005639044
0003b0 d7 b9 b2 3b 7d c9 2c 3d 17 17 09 3e fa e5 17 bc
       0.0054542827 0.04218434 0.13387714 -0.009271139
0003c0 55 ba 89 bd 20 94 76 bd aa 88 00 bd 1c d6 a8 3d
       -0.06724993 -0.060199857 -0.031380333 0.08243963
0003d0 dd 11 4b bc b8 6b 12 3d 27 db 0a 3b 7e d6 12 bd
       -0.012394396 0.03574726 0.0021187754 -0.035849087
0003e0 c3 85 88 bc cf 4f 9e 3d 24 a0 a1 3c 73 04 66 3d
       -0.016665345 0.07730066 0.019729681 0.056156587
0003f0 65 99 0f bd c8 c0 4f 3b 84 0e 4c 3d 8c 15 f1 3b
       -0.035058398 0.00317006 0.04981853 0.007357305

fc2.bias f4 [400]
000000 83 d2 0b bd 43 bd 6f bd 83 2d 93 3d e1 04 1d bc
       -0.034136306 -0.058530103 0.07186415 -0.009583683
000010 8d 85 9a 3d 3b c2 f0 bc 9d 0e dd 3c 65 1b 5a 3c
       0.07545004 -0.029389491 0.026984507 0.013312195
000020 c1 97 8d bd f6 84 0b bd 1c 03 4b bd 16 65 df bc
       -0.069137104 -0.03406235 -0.049563512 -0.027269881
000030 74 77 d1 bd e8 53 73 bd 24 7d 05 3e 66 8f 14 bd
       -0.10227862 -0.05940619 0.13036019 -0.036269568
000040 28 34 c7 3d 35 74 c7 bc d6 51 0e bd fe 5e 44 bc
       0.09726745 -0.024347404 -0.034746014 -0.0119855385
000050 51 fb 87 3c 89 da 2a 3c 67 be 4b 3d 5d 35 d9 bc
       0.01659933 0.010428079 0.04974213 -0.026514703
000060 db b6 20 3d 7c fc a5 3c 0d 94 b9 bc d5 09 a6 3d
       0.039236885 0.020261995 -0.022653604 0.08107344
000070 ec a9 9b bd d6 e5 b8 bd b9 c5 ea bd d5 64 3c 3a
       -0.076007694 -0.09028213 -0.11463494 0.0007186656
000080 00 d9 1e bc 86 91 ae 3c 0a 5b a1 bd 4d eb f6 bc
       -0.0096952915 0.021309625 -0.078786924 -0.030141497
000090 78 e1 ed 3d 0b 46 aa bd 34 dc be 3d 3a 10 89 3d
       0.116152704 -0.08314141 0.09319344 0.06692548
0000a0 3a 24 68 bd 1e 20 84 bd d4 44 25 3d 46 0d 49 bd
       -0.056675173 -0.06451438 0.040348843 -0.049084924
0000b0 82 e1 53 3b 7b c3 aa bd cc ef 69 3b 86 7d a9 bd
       0.0032330458 -0.08338066 0.0035695909 -0.08275895
0000c0 07 27 1d ba ff 38 9e bd 47 ff 5c bb f0 4e ac 3d
       -0.000599489 -0.07725715 -0.0033721493 0.08413494
0000d0 de d3 0e be 84 80 2c 3d a3 d3 25 bd 19 f5 8f bd
       -0.13948008 0.04211475 -0.040485036 -0.070291705
0000e0 6c 09 f3 bc 91 a7 9d 3d 7a c9 51 bb 3f 06 31 3e
       -0.029667579 0.076979764 -0.0032010959 0.17287539
0000f0 12 00 3a bd 38 c8 a4 3d 7b 65 b3 bd 23 39 87 3d
       -0.045410223 0.08046001 -0.0875959 0.06602695
000100 54 7e 71 3d a8 c1 22 3c f7 ea 81 3d 97 00 ff bc
       0.058958367 0.009933867 0.06343644 -0.031128211
000110 bf 86 07 3d 83 8a 92 bb 55 fb 58 bd 75 12 8b bb
       0.03308749 -0.0044720783 -0.052974064 -0.0042441436
000120 bd 35 51 bd 9a ac e7 3b d2 3c 61 bd 8c f2 98 bd
       -0.05107664 0.0070701363 -0.054989643 -0.07468137
000130 70 2a 43 bd c6 38 10 3c fa c5 86 bd 2f a6 48 bd
       -0.047647893 0.008802598 -0.0658073 -0.04898661
000140 ad 4a 81 3d 26 91 f0 3c eb 39 40 3d 74 47 28 3d
       0.063130714 0.029366087 0.046930235 0.041083768
000150 0a b5 e9 bd b5 06 83 bd 69 d0 0e be 84 01 c2 3d
       -0.114114836 -0.06397764 -0.1394669 0.09472945
000160 f0 88 c0 bd 7e 16 82 bd d6 b9 27 bc a1 27 7d bc
       -0.09401119 -0.06351946 -0.010237178 -0.015451343
000170 bc f6 b5 bb 03 2e 71 bd 39 39 80 bd 29 56 e2 3d
       -0.0055530947 -0.05888177 -0.06260914 0.1105159
000180 02 1d 7f bc d2 b4 1f 3d 02 54 76 3c a5 7b 15 3c
       -0.015570881 0.038990803 0.015034677 0.009123717
000190 5f 50 f3 bd ab bc 96 3d a7 0f ff bc 4d 0e 33 bc
       -0.11880564 0.07360204 -0.031135393 -0.010928703
0001a0 ef d1 bc bd f4 0d ff 3b c6 34 60 3d 4b 91 00 3e
       -0.09219729 0.0077836458 0.05473783 0.12555425
0001b0 fb 4d 62 bd fa 98 0c 3d f5 c1 9f 3b 4e 89 e6 bc
       -0.05525015 0.034325577 0.0048754164 -0.028141644
0001c0 19 a6 66 3c 9b 05 27 bd 79 c0 9c 3c 91 dd 32 bd
       0.014077687 -0.04077683 0.019134747 -0.043668333
0001d0 6e 4a 73 3c 40 ce 96 bd af 40 ee bc 82 1b 42 bd
       0.014849288 -0.07363558 -0.029083578 -0.047389515
0001e0 74 a6 3c 3d 67 21 95 3d c3 d1 5a ba d6 6d ad 3d
       0.04605718 0.072817616 -0.0008347297 0.08468215
0001f0 99 1a 97 bd f4 6f 05 be fe 1f 85 3d 42 4b 25 3c
       -0.0737812 -0.13030988 0.06500243 0.010088744
000200 cd 7a 04 bd df c5 99 bc 51 07 6a bd ad ff b8 bc
       -0.032343674 -0.01877111 -0.057135884 -0.022582853
000210 53 53 91 bd 0d 38 84 3d cf ce b8 3c f0 fe f4 3c
       -0.07095971 0.06456003 0.022559552 0.02990672
000220 15 55 f7 bc 38 41 95 bc 2a e1 3c bd 03 5a 69 bd
       -0.030191937 -0.018219575 -0.04611317 -0.056970607
000230 99 46 2d bd 70 9c 0c 3d 48 32 7a 3a 3a f6 ac bc
       -0.042303655 0.034328878 0.00095442357 -0.021113504
000240 7e 79 3e 3d fc ae 04 3e 58 30 11 3e b5 55 a1 bd
       0.046502583 0.12957376 0.14178598 -0.078776754
000250 70 4c c3 bd 75 49 ae 3d 65 4f 61 3c 2e cd 83 bd
       -0.09536064 0.085101046 0.013751839 -0.06435619
000260 53 1b 63 3c bd 5d d8 3b ac 81 51 3c c4 00 01 3e
       0.013861495 0.0066029713 0.012787264 0.12597948
000270 d0 94 e6 3c e3 b1 da 3c 58 8e d4 3c ba c4 66 bd
       0.028147131 0.026696151 0.025946781 -0.056339957
000280 e3 ac 48 bc 57 f7 14 3d 52 64 95 3d 22 cd 3c bd
       -0.012248251 0.036368694 0.07294525 -0.046094067
000290 78 69 db 3d 5f 9e 2d bd 2f 59 ee bd c1 33 50 3c
       0.10713476 -0.042387363 -0.11638104 0.012707652
0002a0 69 21 bd 3c 30 a4 61 bd 0a d9 01 bd 48 1d 5e bd
       0.02308722 -0.055088222 -0.031701125 -0.054227144
0002b0 94 34 3f bd 4c 06 24 3d 49 04 b9 3d 2a bc f5 3c
       -0.046681 0.040045068 0.090340205 0.02999695
0002c0 79 76 8d bd 8f 56 d1 ba 2c 02 80 bd 93 84 33 3d
       -0.069073625 -0.0015971231 -0.06250414 0.043827605
0002d0 78 a9 22 3d 72 ad 99 3d c2 1d b0 3d ed ff 96 3d
       0.0397124 0.07503785 0.08599426 0.07373033
0002e0 e8 09 24 bb 35 0d 80 bd 98 41 0a bc a5 6b 43 bd
       -0.0025030319 -0.06252519 -0.00843849 -0.04771008
0002f0 d0 69 1a 3d f4 c1 4e bc 31 0f c5 3b 9c 46 11 3d
       0.037698567 -0.012619484 0.006013774 0.03546773
000300 cc ce 05 bd fb a4 60 3d 10 87 b2 3d 7b 49 56 3d
       -0.03266792 0.054844838 0.087171674 0.05231617
000310 2b 8c 1f bc 2f dd 83 3d 79 9f 82 3d f2 39 5b bd
       -0.0097380085 0.06438672 0.06378073 -0.053522058
000320 62 3c c2 bc 31 0b 94 3c f3 0c d9 3a 11 99 39 3d
       -0.023710433 0.018071743 0.0016559645 0.04531199
000330 6f c9 8f bd 4a 1e e8 ba 0f 51 a7 bd 77 a8 f5 ba
       -0.07020842 -0.0017709222 -0.081697576 -0.0018742223
000340 90 d0 07 3d 93 8a 02 bc 67 f5 0c 3d a7 8d d7 3c
       0.033157885 -0.007967609 0.03441372 0.026312662
000350 08 d8 d6 3b ad 7e c0 bd 88 e5 2b bc 7b b9 b5 ba
       0.0065565147 -0.093991615 -0.010491736 -0.0013864482
000360 85 bf a1 bd e8 dc 76 3d 9b ad f6 3c a6 f1 49 bd
       -0.078978576 0.060269266 0.030112078 -0.04930272
000370 a4 b8 7a 3d f6 fa 6b bd 83 4e 86 bc 92 f4 c4 b9
       0.061211243 -0.057612382 -0.01639486 -0.00037566252
000380 97 63 84 3d 53 2e a6 bc 5f 98 df 3b 83 33 f2 3c
       0.06464308 -0.020285761 0.006823584 0.029565578
000390 08 75 04 bd 39 a6 c2 bd 60 8c 09 3d d7 9d bc bc
       -0.032338172 -0.09504361 0.033581138 -0.023024483
0003a0 d6 9c 54 ba b3 29 72 bd 17 80 15 bd 35 39 43 bd
       -0.00081105286 -0.0591218 -0.03649911 -0.04766198
0003b0 8c ba 8c bd 24 95 0b 3b 22 d6 3e 3c 70 58 87 bb
       -0.068715185 0.0021298612 0.011647733 -0.0041304156
0003c0 49 5e fc 3d 1f 18 42 bd f2 91 97 3d ab 66 28 bd
       0.12322671 -0.047386285 0.07400884 -0.041113537
0003d0 57 e2 c0 bc 98 0d ed bb 6d be db 3c 67 12 81 bd
       -0.023545427 -0.0072342865 0.0268242 -0.06302338
0003e0 71 7a b2 3d e1 62 ee 3c e9 b1 c7 3c 74 d8 c9 bd
       0.0871476 0.029099884 0.024376826 -0.09855738
0003f0 d5 2f 89 bd 2d 5f bb bd c3 18 b7 3b 10 bc c1 3d
       -0.06698576 -0.09149013 0.0055876686 0.09459698

fc3.weight f4 [200, 400]
000000 77 63 4d 3c ba 3a 4a 3d fa 7d 85 3d 5a 46 98 bc
       0.012535921 0.049372412 0.06518169 -0.018588234
000010 33 2d 0d 3c 72 4b 93 3e dd 4c c2 39 47 bb db bd
       0.008616733 0.28768498 0.0003705983 -0.1072908
000020 0f 5f e1 3c d5 2f 8d bd 28 60 13 3c ad 08 1d be
       0.027511148 -0.06893889 0.008995093 -0.15335341
000030 b5 18 e1 bd dd ac cd 3d 3c b3 93 3d 22 dc ae be
       -0.109910406 0.10042737 0.072119206 -0.34152323
000040 c3 fe 9c 3d 3b 4d 57 3d 04 44 a1 be 70 b1 23 bf
       0.076657794 0.052563887 -0.31497204 -0.63942623
000050 60 a6 6c bd 78 3a f1 bd bb 0f 09 3c b1 78 7b be
       -0.057775855 -0.1177873 0.008365567 -0.24557759
000060 d3 f7 03 3d 94 6f 3c be 01 3e 34 3d 59 fa aa 3d
       0.032218765 -0.18401939 0.044004444 0.08348531
000070 15 2d 27 bd 4b d9 72 3d d8 b4 0b bf 33 14 83 be
       -0.040814478 0.059289258 -0.5457282 -0.25601348
000080 3e 9d 74 3c 95 f2 15 bd 19 44 1f 3e 23 f6 0b bd
       0.014930068 -0.036608297 0.15553321 -0.03417028
000090 5a 18 98 3d 4f f3 b0 be 45 87 7c 3d 82 6b 74 bd
       0.0742652 -0.3456063 0.06165244 -0.05967284
0000a0 47 c9 82 3d a3 07 06 3e 7d 30 41 3c 8a f8 14 bd
       0.06386047 0.1308885 0.011791346 -0.036369838
0000b0 02 b5 39 3c 71 5d 95 bd 8e 50 9a 3d 85 ad 32 bc
       0.0113346595 -0.07293213 0.07534896 -0.010905628
0000c0 ed 6c f4 bc c5 a0 55 3d 1b 2a 7e 3c 66 28 6c bd
       -0.029837096 0.052155275 0.015512968 -0.057655714
0000d0 09 36 1d 3b 16 b5 c9 3c 57 f8 9a 3b e8 48 3e bd
       0.0023988506 0.024622481 0.0047293114 -0.046456248
0000e0 89 ef a4 be e4 bb 3b be 77 5a dc bc 69 40 fe 3d
       -0.32214 -0.18333393 -0.026898606 0.12414629
0000f0 34 d0 82 3e 47 1a a0 3c e0 53 1e bd 87 6a f7 3d
       0.2554947 0.01954378 -0.03865421 0.12080865
000100 9f 41 33 3d af 54 3b 3d 9e da 9f 3c 37 96 fc ba
       0.043763753 0.045735057 0.019513424 -0.0019270842
000110 8a a8 7e 3d 5f c4 63 bc 8c f1 74 b9 13 1f cc bc
       0.06217245 -0.013901799 -0.00023359637 -0.024917161
000120 cf a9 1f be f9 e5 a7 bd 8d 7f fe 3c 5f f1 34 3d
       -0.1559212 -0.08198161 0.03106668 0.044175502
000130 6b 71 e3 3d dc 1c 8f 3e 2c 4e a7 bd a3 78 d0 be
       0.11105617 0.27951705 -0.08169207 -0.4071704
000140 7d 44 55 3d b1 3b bb bc ec 14 f2 bc e5 4c c0 bd
       0.05206727 -0.022855612 -0.029550992 -0.093896665
000150 16 26 a0 be 46 50 6e bd 4f e9 e7 be d9 80 0e 3d
       -0.31279057 -0.058182023 -0.45295188 0.034790847
000160 ae 5c aa be 5f 49 36 be 4c b9 f2 3b 5b 23 e6 3c
       -0.33273834 -0.17801426 0.007407343 0.02809303
000170 76 a1 96 3d 80 17 86 3b e4 13 52 3d e9 2d 0c 3e
       0.07355015 0.004092157 0.0512885 0.13689388
000180 a4 60 a6 bd dc 79 72 3d ef 49 f7 3c 88 28 bc be
       -0.081239015 0.059198245 0.030186621 -0.36749673
000190 98 49 8d 3c 39 d2 95 be aa 76 9f 3d fc c7 52 be
       0.017247006 -0.2926195 0.07786305 -0.205841
0001a0 22 cc 2d be 54 c1 d9 3e 0c f8 27 be e1 a3 f1 3d
       -0.16972402 0.4253031 -0.16403216 0.117988355
0001b0 27 b2 b1 bd 97 69 5d 3e c6 15 22 be 2c 1d 3a bd
       -0.08676558 0.2162231 -0.15828618 -0.045437977
0001c0 9d bc 8c be 0d fd a7 bc 20 60 51 bd 2c 1b 02 bd
       -0.2748765 -0.020506406 -0.051117063 -0.031764194
0001d0 c6 b9 f8 3d 88 07 c0 be 3b 01 12 be ad 43 2c bd
       0.121448085 -0.37505746 -0.14258282 -0.04205673
0001e0 e4 0f a0 3d 33 57 9b bc ac 7f 1c 3b e6 d4 ac 3d
       0.07815531 -0.018962478 0.002387981 0.08439045
0001f0 a6 a5 7d 3c c9 5e 35 be 91 93 f5 bc 24 b1 a0 bc
       0.015481388 -0.17711939 -0.029977592 -0.019615717
000200 60 d4 56 3d 08 a1 05 bd cd 9f c3 3d e2 6f 60 bc
       0.05244863 -0.032624274 0.09551964 -0.01369855
000210 e0 4f 00 be 53 6a 32 3c 75 63 9b 3a bd 94 68 bc
       -0.1253047 0.0108896075 0.0011855202 -0.014195618
000220 78 7d 11 bd 5c fc a7 bd 56 db 4b 3d 17 af 42 bc
       -0.035520047 -0.082024306 0.049769722 -0.011882565
000230 59 b7 b1 bd e9 45 2a 3e f3 d5 3a 3d 37 fd 14 bc
       -0.08677549 0.16628231 0.045614194 -0.009093574
000240 de 86 9c bc b0 e3 54 bd 5a e9 90 3d 28 97 4a be
       -0.019107278 -0.051974952 0.07075758 -0.19784224
000250 26 49 8c 3d bb 05 3f 3d 5f 23 4f 3d b2 0a 4f 3d
       0.068498895 0.046636324 0.050570842 0.05054731
000260 1e 87 34 bd 6f a7 08 3d ac b8 d0 3d 2f 06 43 3a
       -0.04407417 0.033362802 0.10191473 0.0007439581
000270 0b 9b 52 bd 50 20 28 3b af 7d dc be 67 cc c5 bc
       -0.05141739 0.0025654025 -0.4306464 -0.024145318
000280 5d 07 2e 3d 56 3b 7b bd 94 71 3b 3d 74 d5 52 3d
       0.04248749 -0.061335884 0.045762613 0.051473096
000290 7f 9d 6c bc 56 01 86 3d 36 6e 52 3d 73 66 8c bc
       -0.014441847 0.065432236 0.051374637 -0.017138695
0002a0 bf 1a 94 3c 00 8c 7c be ac 15 67 be 13 af b4 3d
       0.01807916 -0.24662781 -0.22566861 0.08822455
0002b0 97 ee e2 3c dd 05 43 be 05 02 14 3b a3 3a 83 3d
       0.02770166 -0.19045205 0.0022584212 0.064076684
0002c0 d8 b8 57 3c 65 71 26 be 71 ec f0 3d 63 3b bc bd
       0.013166629 -0.16254194 0.117638476 -0.091910146
0002d0 5e a0 7b 3e c0 24 ac 3d a3 57 c5 39 e3 26 a3 3d
       0.24572894 0.08405447 0.00037640063 0.079664014
0002e0 d6 bb 25 bd 56 49 c8 be 36 46 a8 3e 3f bd 2f 3d
       -0.040462337 -0.3911845 0.32866067 0.04290509
0002f0 78 db c1 be 94 24 51 be c1 c1 00 3e e0 8e 7a 3d
       -0.37862754 -0.2042411 0.12573911 0.061171412
000300 3e 24 ae bb ce fd 6e bd 47 76 49 be f5 e0 5c bd
       -0.005314379 -0.058347516 -0.19674025 -0.053925473
000310 14 0d ce 3c 44 7a e1 3c 7a 2f c8 3d 05 d4 a5 be
       0.02515272 0.027524121 0.097746804 -0.3238832
000320 62 da fa 3d f4 49 46 3e c3 39 d2 3d 60 54 cf bd
       0.122486845 0.19364148 0.102649234 -0.10123515
000330 09 28 70 be 35 c0 24 be a2 df a5 3d 9f 31 ca 3d
       -0.23452772 -0.16088946 0.08099295 0.09872746
000340 63 ef 91 3c 1c cd 51 3e fb c8 db bd 1a eb 12 3b
       0.017814344 0.204884 -0.10731693 0.0022417963
000350 3d 27 c8 be b1 96 de ba 4f b9 81 3c e0 1d 77 bb
       -0.39092436 -0.0016982165 0.015835432 -0.0037707016
000360 43 52 21 be 6d fa 01 3e 02 b1 81 bd 40 a9 36 3d
       -0.15754037 0.12693186 -0.0633259 0.044595003
000370 15 d2 6b 3c 70 23 35 3d c1 59 a5 3c 13 9d fc 3d
       0.014393349 0.04422325 0.0201844 0.12334647
000380 98 a5 32 3c b3 39 0f bc 17 56 82 3e 70 67 0b bf
       0.010903738 -0.008741784 0.25456306 -0.5445471
000390 c7 1a be bd 71 7c dd be 64 df 61 3c d9 b9 90 3e
       -0.09282451 -0.43259004 0.013786171 0.2826679
0003a0 10 08 f3 bc 3d 20 bf bc 9b ca 91 bc 51 5c 1b 3f
       -0.02966693 -0.023330802 -0.017796805 0.6068774
0003b0 b3 a5 8e 3b 56 d4 66 3c 11 2f 0c be 90 c3 b8 be
       0.004353249 0.014088711 -0.1368983 -0.36086702
0003c0 4d a0 49 bd 1d 00 21 3e 65 4d 6e bd d8 bc ba bd
       -0.04922514 0.157227 -0.058179278 -0.0911805
0003d0 02 46 21 3d cc dd 51 3a 2e fd 38 bd da 6a 02 be
       0.039373405 0.00080057676 -0.045163326 -0.12736073
0003e0 79 d9 bf 3d 2a 6f ba 3d 46 98 3a 3e ef ae f2 3d
       0.093676515 0.09103234 0.1822215 0.11849772
0003f0 8e 91 24 bb 05 39 00 be 2d 2c 28 3e 27 93 2f ba
       -0.0025111171 -0.12521751 0.16423102 -0.00066976476

fc3.bias f4 [200]
000000 5a 6f 92 3d 70 d1 78 3d 73 36 81 bd 24 e7 9a 3b
       0.07150145 0.06074661 -0.063092135 0.004727261
000010 94 f2 29 3d 8c df 11 3d e7 0a f3 bb 90 62 42 bd
       0.041491106 0.03561358 -0.007417071 -0.047457278
000020 4f 8a 80 bc 79 d8 22 bc 3f e2 75 3d 63 c3 02 3d
       -0.01569095 -0.009939306 0.06003022 0.031924617
000030 d0 d5 18 3c 4f 37 68 3d e1 0e b7 3c 99 2f da 3b
       0.009328321 0.05669337 0.022345962 0.006658506
000040 bf e1 06 3d d3 7b 93 bc 7a bd 35 3d 7f 6d 67 bd
       0.032930132 -0.01800338 0.044370152 -0.056500908
000050 9b bb 6f 3c 65 68 3a 3d 59 3c 22 3d 70 35 bb 3d
       0.014632131 0.045509715 0.039608333 0.09141052
000060 9a 16 e2 3c 53 49 30 bd 3c 82 0e bd ae 21 9b bd
       0.027598668 -0.043038677 -0.03479217 -0.07574783
000070 de c3 52 3d 5d da 4c bc 7a 00 11 bc 22 1d 52 bd
       0.051456325 -0.012503234 -0.008850211 -0.051297314
000080 ab d6 30 3d 89 42 56 3d cf f9 46 bc 50 58 95 bd
       0.043173473 0.052309547 -0.01214452 -0.07292235
000090 bb a5 8b bd 07 f4 85 bc cd 80 c2 3c 46 74 19 3d
       -0.0681872 -0.016351713 0.023743058 0.037464403
0000a0 2a 28 7e 3d 5d 20 9e 3c 4e de 8a bc 32 45 ac bb
       0.062050022 0.019302541 -0.016951706 -0.005257272
0000b0 3c 40 51 bd c8 68 3f 3d b7 fd 4d 3d ed 04 fc 3c
       -0.05108665 0.046730787 0.05029079 0.030764068
0000c0 16 82 4c 3c d4 07 af 3c ca f2 08 3d ad 80 26 3a
       0.012482187 0.021366037 0.033434667 0.00063515716
0000d0 9c d0 95 3d b5 e9 95 3c 07 37 ad bc 67 f6 42 3d
       0.0731518 0.018299917 -0.021144403 0.04759827
0000e0 c0 e2 13 3d a0 38 17 3b a1 2c a8 3c 1f 95 63 bd
       0.036104918 0.0023074523 0.020529093 -0.055562135
0000f0 8a da fa 3c b7 45 30 bd 38 20 d1 3b 3d 53 db 3b
       0.030621786 -0.043035235 0.0063820146 0.0066932724
000100 22 ac 14 bd 5a bf 24 bc 12 d6 d9 bc 33 bd bf 3c
       -0.03629697 -0.010055387 -0.026591334 0.023405647
000110 fa fb c3 3b 0a bc 07 bd 3f 4b 37 3d 0b 86 89 bd
       0.0059809657 -0.033138312 0.044749495 -0.0671502
000120 5f 03 f7 3c 64 71 b8 3d 5b 7b 2c 3d 67 f7 a7 3c
       0.030152975 0.090060025 0.04210983 0.020503713
000130 4c 47 8b bb 8e 28 04 bd f2 4a 7f bd d2 39 a9 3d
       -0.0042504426 -0.03226524 -0.062327333 0.082629815
000140 11 60 dc 3b 76 0e 89 bb a2 92 dc bc 25 84 8f 3c
       0.006725319 -0.004182632 -0.026925389 0.017519066
000150 2a 4d 85 3d 12 62 c7 bc 46 90 01 bc 7e ce 62 bb
       0.065088585 -0.024338756 -0.007907933 -0.0034607942
000160 ac a5 7b 3d b6 cf 7f bb 5c 8b 55 3d 50 76 cd bc
       0.061437294 -0.0039033717 0.052134857 -0.02508083
000170 6d a1 89 bd 30 cf 59 bd 28 7e c1 3b 11 67 90 3d
       -0.06720243 -0.053176105 0.0059049316 0.07050908
000180 1d f7 43 3c 18 9f 96 bc 7e 89 cb bc 65 b4 05 bd
       0.011960772 -0.018386409 -0.024845835 -0.03264274
000190 f2 27 2f 3c fb 5e e3 3b 35 b2 a1 3d 2d 50 58 bd
       0.010690676 0.006938813 0.078953184 -0.052810837
0001a0 a8 f7 93 bd 84 9c f3 3c 17 3b bb 3c 07 5b 9d 3d
       -0.07224971 0.029737718 0.022855325 0.07683378
0001b0 9a 3f 1b 3d 42 65 80 3d 2f 55 5c bd 73 a9 6d bd
       0.037902452 0.062693134 -0.053792175 -0.058022927
0001c0 cb 5a 90 3c 6b a6 03 3e 52 aa 2a bc 18 23 d3 bc
       0.017621418 0.12856452 -0.010416584 -0.02577357
0001d0 10 7c 0e 3d 99 d8 0a bd 65 a4 19 bc a2 68 83 3d
       0.034786284 -0.03389797 -0.009377574 0.064164415
0001e0 2a a7 8b bc 17 3d df ba 2d e0 82 3d 61 2b 08 bd
       -0.017047483 -0.0017031756 0.063904144 -0.033244494
0001f0 2e ee 18 3d 68 ef f5 bc 38 33 e4 bc 77 11 66 3d
       0.03733652 -0.030021384 -0.027856454 0.056169
000200 61 f1 18 3d 87 46 a7 3c 2f 62 78 bc 54 9e 05 bd
       0.037339572 0.020419372 -0.015160128 -0.032621697
000210 cd f2 b4 bc c7 2a 46 3d f9 80 30 3d ee 1f 35 ba
       -0.022088433 0.04838064 0.043091748 -0.000690936
000220 ce 02 ec 3c ce 05 03 3d e2 c3 ef bc 6e d8 69 3d
       0.028809931 0.031987958 -0.029268209 0.05709117
000230 19 db 0c 3c b9 5a 1a 3d 06 69 c0 bb d1 80 3e 3d
       0.008597159 0.037684176 -0.005871895 0.046509568
000240 42 63 21 3d 36 8a 13 bc 4f 27 1b 3d 42 f3 3e bc
       0.0394013 -0.00900512 0.037879284 -0.011654677
000250 9b ff aa bb 57 b5 25 bc de 59 be bb 6e 73 b1 bc
       -0.005218459 -0.010114036 -0.005809053 -0.021661486
000260 2e 8f 07 bb bc 88 14 bd 34 7b c0 3b 3f cd 18 3d
       -0.0020684707 -0.036263213 0.005874062 0.037305113
000270 24 68 ed 3c f4 fc 7a 3d fe 40 95 3d aa 21 84 3d
       0.028980322 0.06127639 0.07287787 0.064517334
000280 90 62 54 3b a4 54 ff b8 bd 6a 3f bd 4f ea a7 3c
       0.003240738 -0.00012175113 -0.046732653 0.02049747
000290 19 ac f2 3b de bd 10 3d 5e 7f 80 3d ee c6 24 3d
       0.0074057695 0.03533732 0.06274293 0.040228777
0002a0 30 22 6e 3d ad 98 80 bd 8c 26 d2 3c 86 29 a1 3c
       0.058138072 -0.062791206 0.025653146 0.01967312
0002b0 51 ec b4 3d bb 9c b6 3c 53 80 40 3d 06 2a 29 bc
       0.08834136 0.022291532 0.04699738 -0.010324961
0002c0 45 ed 71 bc 9e 6e 0b 3d bb 8f bb 3c d8 82 a1 3c
       -0.014766042 0.03404104 0.022895684 0.019715711
0002d0 59 af 8b bc 93 5a 0d bc 02 29 76 bd e1 f9 f9 bc
       -0.017051386 -0.008627552 -0.0600977 -0.03051466
0002e0 f5 85 98 3d 59 26 c6 bc ec e6 11 3d 9d d2 5d 3d
       0.07447425 -0.024188207 0.035620615 0.054155935
0002f0 81 08 60 bd ed bb f0 bc c3 29 00 bd 4b 81 79 bc
       -0.05469561 -0.029386485 -0.031289827 -0.01522858
000300 56 96 bc 3d 25 bd 35 3c cd f6 a9 3c af ab 30 3d
       0.09208362 0.011092459 0.020747567 0.04313248
000310 a2 30 84 3d c9 ec 18 3b 36 58 84 bc 08 ce b1 bd
       0.064545885 0.0023334494 -0.016155344 -0.086818755

fc4.weight f4 [2, 200]
000000 f9 df ce be 52 2d 04 bf 83 bd ec 3e 03 7b 88 3d
       -0.40405253 -0.51631653 0.46238336 0.066640876
000010 f9 4b c5 3d 44 b7 03 bf c0 58 52 3d 47 14 6c be
       0.09633631 -0.51451516 0.05135417 -0.2305461
000020 d6 26 82 3e 50 a2 8b bc ae 33 6a be 6d c3 0d 3e
       0.25420254 -0.01704517 -0.22871277 0.1384408
000030 7b 50 12 3e 7d 6a 5d be db fd 4a bd 13 dd f7 3d
       0.14288513 -0.21622653 -0.0495585 0.121027134
000040 2d 8e b1 be c6 94 30 bd b8 b5 1b 3e e5 66 02 bd
       -0.34678784 -0.04311063 0.15206039 -0.03183641
000050 64 86 75 bf 69 dd aa be d3 72 15 3e ec 97 5f bf
       -0.9590819 -0.33372048 0.14594583 -0.8734119
000060 46 7e 1d 3e fd 45 c7 3d 1a 11 97 3d 3e 21 bd bc
       0.153802 0.09730146 0.07376309 -0.02308714
000070 87 19 16 3e c5 36 7e be 35 02 91 3d 80 ba 28 bd
       0.14658175 -0.2482558 0.07080499 -0.041193485
000080 65 60 a1 be 46 c0 36 3e 7f e6 7e bc e3 a9 20 bd
       -0.31518856 0.17846784 -0.015557884 -0.039224517
000090 b8 b1 18 3e 78 a2 8e 3c 7c f7 1a 3e 7c c4 0f 3e
       0.14911544 0.017411456 0.1513347 0.14039797
0000a0 8f e8 8c 3f 2a 42 57 3e 7d 5a 37 3e 74 91 77 3e
       1.1008471 0.21021333 0.17905612 0.2417658
0000b0 71 b1 46 bd 49 dc b1 be 7a 3c f7 3d cf 98 46 3e
       -0.048509065 -0.34738377 0.12072082 0.1939423
0000c0 86 4b a3 bc 34 82 19 bd 5b b2 0c be 28 f1 3d be
       -0.019933473 -0.037477687 -0.13739912 -0.18549025
0000d0 de 2d 30 be f3 53 7d 3d 6b 8e cf bc 80 10 f6 be
       -0.17204997 0.06184764 -0.025336465 -0.48059464
0000e0 4e 31 dd 3d 50 94 c1 3d ff 19 83 bc 08 e0 db bc
       0.1080042 0.094521165 -0.016003607 -0.026840225
0000f0 c8 c4 8d 3e 52 1c 2d 3c 6f c6 47 3e ae cc 6d 3c
       0.27689195 0.010565834 0.1950929 0.0145141315
000100 c9 71 32 3e bb 7b 36 3d e2 b1 cc bc ff 44 27 3e
       0.17426218 0.044551592 -0.024987165 0.16334914
000110 4c 3f 96 3e ee 4b f1 3d 1a 63 1f 3e 01 7d 6b bd
       0.29345167 0.117820606 0.15565148 -0.05749226
000120 57 73 53 3e fb 41 1c bf 7d fe da 3d 0b 3f e4 be
       0.20649467 -0.6103818 0.10693071 -0.44579348
000130 07 66 f7 be 02 b9 75 bb 97 c2 fb be 44 6e 10 bf
       -0.48320028 -0.0037494306 -0.49171898 -0.5641825
000140 87 da 2e be 36 04 99 3e 57 c2 ff bc 92 82 59 be
       -0.17075549 0.29886025 -0.031220598 -0.21241215
000150 39 65 df be ba 2b 41 bd 4e f6 5b bd a7 39 c7 be
       -0.43631914 -0.04716084 -0.05370169 -0.38911173
000160 c4 0c cb be 08 67 64 bc 01 47 b6 be a9 cd 8f 3e
       -0.39658177 -0.01394058 -0.35601047 0.28086594
000170 cd 6d f3 3c 6a 0e 71 bd ec b9 00 3e db 3f ca be
       0.029715443 -0.058851637 0.12570924 -0.39501843
000180 aa 46 de 3d b7 9c 5f bf b0 7c 68 3f e1 09 7e 3e
       0.10853322 -0.873485 0.9081526 0.24808456
000190 96 4a 28 3e 02 55 be 3d bb f0 de be 45 14 64 bd
       0.16434702 0.09293558 -0.43543038 -0.055683393
0001a0 b0 0d 75 3c 91 a6 da 3d 5b a7 5e 3e 77 58 e0 3d
       0.014956877 0.10676301 0.21743529 0.10954373
0001b0 64 06 03 3e ae 62 bf be 3c 81 a1 3b 83 20 40 bd
       0.12795407 -0.37379974 0.004928736 -0.046906006
0001c0 3e 70 e9 bc 8f 9a a5 be db 3c c8 3d b9 a9 4d 3e
       -0.028495904 -0.3234448 0.09777232 0.20084275
0001d0 3c b4 82 3e 4a cf 6e bd cf 31 e1 bd b2 56 bb be
       0.25528133 -0.058303155 -0.10995828 -0.3658958
0001e0 d0 47 3b 3d d9 61 01 3e a8 4c 48 3e 41 66 e4 3d
       0.045722783 0.12634982 0.19560492 0.11152316
0001f0 63 1f b8 bc b6 6d 68 bc e9 5a 90 bd 22 eb a0 be
       -0.022475904 -0.014186313 -0.0704859 -0.31429392
000200 6a 90 9b 3d 7d 4f 30 3e 61 de 40 bd 94 0a 53 bd
       0.07595904 0.17217822 -0.047087077 -0.05152376
000210 de a9 69 3c 12 6e 32 3e f1 05 b7 be 27 3a 3f 3e
       0.014261691 0.17424801 -0.3574672 0.18674527
000220 88 8b 60 bd 3f 7b 1c be 9c f2 2b 3e a6 fe 34 3e
       -0.054820567 -0.1528139 0.16791767 0.17675266
000230 b5 78 85 3e 13 2d 13 3e de 5f ce 3d 2d be c0 3d
       0.26068655 0.14372663 0.10076879 0.09411273
000240 74 78 52 3e bd fc 2d 3d 7c 06 87 3e df 44 e9 3d
       0.20553762 0.042477358 0.26372135 0.11390089
000250 9e f1 eb 3d 9c 15 fb 3c a2 98 47 bd 3b c4 1d 3e
       0.11520694 0.030649953 -0.048729546 0.15406887
000260 c3 8a 4a 3e f2 88 b0 bc 6a 4a 1a 3e 68 d3 93 be
       0.19779496 -0.021549676 0.15067449 -0.28872228
000270 5a 5f 63 3e e5 70 fd 3d 67 9d 3a 3e 14 93 9f be
       0.22204342 0.123750485 0.18224107 -0.311669
000280 1a cc 95 3d 91 de f0 be 3d e4 54 bd 16 f8 92 3e
       0.0731432 -0.47044805 -0.051975477 0.287049
000290 5d 4a 80 3d 49 f4 23 3e 8a 9f e6 be 4e 0f 5d be
       0.06264184 0.16011156 -0.45043594 -0.2158787
0002a0 f9 00 ae be eb b8 cd bc 67 bb 61 be 0f dd 11 3e
       -0.33985117 -0.02511259 -0.22044145 0.14244483
0002b0 f0 a0 5b 3e 53 f8 62 be 99 73 94 be 57 58 21 3e
       0.21448112 -0.2216504 -0.28994444 0.15756355
0002c0 56 11 b2 be 35 f2 e5 3d 30 f1 14 3e 6b 64 04 bf
       -0.3477885 0.11227838 0.1454513 -0.51715726
0002d0 7c 16 b2 3b fa 9a 18 3e 2c 9e f4 3b 8c 04 03 3e
       0.0054348093 0.14902869 0.0074651446 0.12794703
0002e0 3f 33 c6 be 59 94 41 3e 61 37 9d be fb 38 d6 bd
       -0.38710973 0.18904246 -0.30706313 -0.10460087
0002f0 53 63 8f 3e 70 51 37 3b f9 80 a7 bc 5b 08 79 be
       0.28005466 0.0027972125 -0.020447241 -0.24319594
000300 74 b6 29 bf d1 f5 75 3d 2c ca 79 3e c6 84 ab 3d
       -0.66294026 0.060048882 0.24393529 0.08374934
000310 eb e6 4a be da 7e f6 3d 73 1b 6a 3e e5 02 57 be
       -0.1981465 0.12035914 0.22862034 -0.20997198
000320 c6 e2 c6 3e a0 01 01 3f f7 55 f0 be 7d aa dd bd
       0.3884489 0.50393105 -0.46940586 -0.10823534
000330 5c e8 db bd 7f 14 f9 3e b4 61 ba 3c 04 17 87 3e
       -0.107376784 0.4864845 0.022751667 0.26384747
000340 ea 8b 7c be 72 b8 ed 3c 22 95 95 3e 18 e5 c5 bd
       -0.24662748 0.029018614 0.29215342 -0.09662837
000350 7b e7 43 be f1 0a 8a 3e ac 76 b3 bc 0a 58 24 be
       -0.19131272 0.26961473 -0.021907173 -0.16049209
000360 15 b3 e2 3e 32 8b 4e 3d bc 70 71 be ce 2d 02 3d
       0.44277254 0.050425716 -0.23578161 0.031781964
000370 8b 0f 7a 3f dd 4c c3 3e 9b 9f 86 be 32 17 58 3f
       0.97679967 0.3814458 -0.26293644 0.84410393
000380 69 95 e3 bd cb 18 08 be 53 0b 48 be a7 38 f7 bb
       -0.11112482 -0.13290708 -0.1953557 -0.0075445953
000390 7c d7 ef bd e5 81 28 3e 97 7a 0f be 48 4a 63 3d
       -0.11711022 0.16455801 -0.14011608 0.055490762
0003a0 7f ca 8e 3e a5 0e 1f be 48 df 0d bd 15 8e 24 3c
       0.27888867 -0.1553293 -0.034636766 0.010043641
0003b0 77 ac 49 be cc 29 76 3c f9 5a 3b bd a0 a1 f7 bd
       -0.19694696 0.015024614 -0.045741055 -0.120913744
0003c0 35 57 92 bf ad 7f 3c be 0e 37 4c be 4d ac 9a be
       -1.1432863 -0.1840808 -0.19942877 -0.3020958
0003d0 7c 0a a9 bb 67 64 b2 3e 82 a4 1c be 1a 1e 9e bd
       -0.0051587205 0.34842226 -0.1529713 -0.07720585
0003e0 a4 d2 05 bd f2 d7 7c bd 95 28 78 3e e5 48 ce 3d
       -0.032671586 -0.06172938 0.24234231 0.10072497
0003f0 65 e8 77 3e 2b 19 16 be d9 28 07 bc d5 e2 fe 3e
       0.24209745 -0.14658038 -0.008249485 0.49782434

fc4.bias f4 [2]
000000 95 6e 3c 3d 5a 74 53 bd
       0.046003897 -0.051624633
