updated_fdia_model_ffnn_pytorch_100_200_100_torch.pth (torch, 216819 bytes, 8 tensors)

fc1.weight f4 [100, 128]
00000000: 2c6c a9bd 058c 583d 0c1c 12bd 1d39 90bd
00000010: b33c 7c3b a28b 863d 3cf5 663d a894 10bd
00000020: 6f6b 8fbd e472 a4bb 1d66 a33d 4478 473e
00000030: 31af 6dbd 4229 f83d 13d8 303d 73f5 c43d
00000040: 2639 dd3c 4e18 fabd 7610 98bd 574b 103d
00000050: e2d9 ff3d fd1d a43d 14ec 20bd 2f9b 8abd
00000060: 07aa 8d3d 2817 bd3d 296d 763c fabe 52bd
00000070: 14b0 b43c b240 693d b3f9 d53d 56cb dc3c
00000080: 1ce8 31bd 9e78 b53d 5635 9d3d 6727 0a3b
00000090: d6ae 043c 7331 853d 1726 873d 0d2b c53d
000000a0: b2fd 0f3e e1e1 67bd 4b39 3c3d c6ad 55bd
000000b0: 3fcc e93b 5122 d13d 8f41 f9bd 4a27 c03d
000000c0: df7b c5bc 69d2 0d3e c628 bb3c d648 463d
000000d0: 0ad6 64bd e1da f53d 84be f93d 5979 8ebc
000000e0: c498 8c3d 4329 983b 10d1 3f3d 51f6 c2bc
000000f0: 48fd abbd d8ed 9a3c e33b e63c 5fee 6a3d
00000100: 6a3a 31bc 8bb1 d6bd f948 973d 0b12 a83c
00000110: 2b20 cfbc 7729 393d 1695 40bc 049d 2c3d
00000120: f5e1 0a3d 6db2 c83d f1f1 cfbc 389d 2dbe
00000130: ab36 b03d 7ebd 11bd 64a1 9d3d d6fb 9abd
00000140: 2ea3 453d f862 8abd ef6e 0b3e 6e3e b93d
00000150: e20a ec3c 05ad a23c d129 733d 32ca 0ebe
00000160: 9c00 cb3c 2981 393d 256a 33bd 1c8e 1f3d
00000170: 3d79 883d 67d1 393c 35ee 05bd 0f9b 073d
00000180: 266b 57bd 56dc 563d f0b6 303d 9d69 c43b
00000190: 2b06 083e 765f ec3d 4f33 2c3e 42ad 45bd
000001a0: 1614 9dbd 681b b93c 045a 90bd 21fa 04bd
000001b0: fbae 8dbd 997f aa3d 0e18 69bd 87a0 9f3d
000001c0: 2f75 9b3d b51e e63d 5019 4dbd 9fd1 543d
000001d0: 5f3a 4bbd 27aa 1c3d 3d83 b73c 3314 353d
000001e0: 081e 253c fb72 54bd e179 5b3d 673e 56be
000001f0: f1b2 523d 14f2 b6bb 230f a1bc 149f 82bd
00000200: 6c6e 3fba 676d a5bd 6ed5 073c 008f 573c
00000210: b045 a43c 68a5 3a3d 26e2 4d3d ae21 b53c
00000220: 77a3 c5bc d6de 40bd 0acb 07be 9c9b 96bd
00000230: 97ed 22bd 7e49 cbbc 78be 4bbd 98eb b4bd
00000240: a3a7 af3d b721 6fbd 50d2 6d3d 70c9 05bd
00000250: 37a7 b6bd 5365 6d3b fed1 1d3c f9aa 943d
00000260: d421 963c 2280 a63d bd14 893d 9031 603d
00000270: 931b c43d e66d 33bd 3f47 803c 8999 54bd
00000280: 1a72 1bbc c18e 99bc eb58 63bd edab 2dbc
00000290: d1a8 0cbd a06a b8bd 0fdc 67bd 51cd 1e3b
000002a0: 9daa 05be 917c 6a3d 22e5 ef3d 75e5 08bd
000002b0: 9e34 7abd b814 823d 06c0 75bd ff66 71bd
000002c0: d34c e1bd 17f0 c5bc 5ea9 a53d 3406 d13d
000002d0: c86b 183d d610 433d 676e c33c 1c81 40bd
000002e0: 2dbe 75bd 5cb5 b23c 6810 46bd c460 4a3c
000002f0: ae10 28bd 8067 f0bc cf0a 90bd 71d7 c53c
00000300: 932b 8abd 9c4a 703d 85db ea3c 65d6 02be
00000310: 2d0f 0fbe 5229 35bd 7e30 a93d ed70 5e3c
00000320: f8f3 4bbd 4c98 273b 4fc6 47bd ab0d 983d
00000330: e1a9 a8bd 8ab6 1d3d a664 5b3d 1483 8b3b
00000340: 0701 803d 0095 15bd f25b 88bd 984c 60bd
00000350: aeb7 2cbd 1718 3cbd 4ecb d7bc 863d 433e
00000360: 28aa 2fbd d888 71bd f398 b63c 4c6b 51bd
00000370: f50a 5b3d 807d 033c 1485 43bd d713 37bd
00000380: 4228 903d fb7d baba 6dc4 28bd 7957 a33d
00000390: 92a2 653d f337 88bc c1f6 05bc 5c98 993b
000003a0: a306 61bd fe0f a53d 12a9 01bd 5faa 6c3d
000003b0: 67aa af3d 1220 ad3b e91e 81bc 725f 2abd
000003c0: 3823 f1bc 8388 e93c e7f7 00bd 707d 9f3c
000003d0: 07ff 31bd b627 993d 27f5 0bbd 72dd f93d
000003e0: 10e0 b03d 83e3 29bd a63b 193d 5c1c 793e
000003f0: e4fc cb3d 5fa0 0f3c b43e ddbc 0618 eb3d
-0.08272585 0.052867908 -0.03567128 -0.070421435 0.0038488328 0.065696016 0.056386217 -0.03529802
-0.07002913 -0.005018579 0.07978461 0.19479471 -0.058028404 0.12117244 0.043174814 0.09617128
0.02700479 -0.12211667 -0.07425015 0.0352281 0.1249273 0.08013532 -0.03928764 -0.0676788
0.06917196 0.09232932 0.015040674 -0.05145166 0.022056617 0.056946464 0.10448017 0.026952427
-0.043434247 0.088608965 0.07676189 0.0021080615 0.008098325 0.06503572 0.06599062 0.09627352
0.14061621 -0.0566119 0.045953076 -0.052167676 0.0071349437 0.102116235 -0.121707074 0.09382494
-0.024106918 0.13849796 0.02284659 0.048409306 -0.055868186 0.120046385 0.12194541 -0.017391847
0.06865075 0.0046435907 0.046830237 -0.023799093 -0.08397919 0.01891224 0.028104728 0.057356235
-0.01081715 -0.104830824 0.07386965 0.020516416 -0.025283894 0.04520556 -0.011754295 0.04214193
0.033906896 0.09799657 -0.025383921 -0.16954505 0.08604177 -0.035581104 0.076967984 -0.07567565
0.048251323 -0.06757158 0.13616537 0.09045111 0.028813783 0.019857893 0.05936605 -0.13944319
0.024780564 0.045289192 -0.0438024 0.038953885 0.06663749 0.011341429 -0.032697875 0.03310686
-0.05259242 0.052456222 0.043143213 0.0059940354 0.13283603 0.11541645 0.16816448 -0.048260935
-0.07669847 0.022596076 -0.07048419 -0.032465104 -0.069181405 0.083251186 -0.056907706 0.0779429
0.0759071 0.11236326 -0.050072968 0.051957723 -0.049616214 0.038248207 0.022401446 0.044208717
0.010077961 -0.051867466 0.05358303 -0.20922242 0.051440183 -0.005583057 -0.019660538 -0.06377998
-0.0007302526 -0.080775075 0.008290632 0.013156652 0.02005276 0.0455679 0.0502645 0.022110786
-0.024125798 -0.047087513 -0.13261047 -0.07353899 -0.039777365 -0.024815317 -0.049742192 -0.088339984
0.08576896 -0.058381762 0.058061898 -0.03266281 -0.089186125 0.0036223724 0.009632586 0.07259173
0.018326677 0.08129908 0.06693409 0.054734766 0.09575572 -0.04380598 0.015658973 -0.051904235
-0.009487653 -0.018744828 -0.05550472 -0.010600072 -0.034340683 -0.09004712 -0.05660635 0.0024231265
-0.13053365 0.057247702 0.117136255 -0.033421952 -0.061085336 0.06351608 -0.05999758 -0.058936115
-0.11000981 -0.024162335 0.08088945 0.10206261 0.037212163 0.047623478 0.023856355 -0.04699813
-0.05999582 0.021814995 -0.04835549 0.012352172 -0.041031532 -0.029346228 -0.070333116 0.024150582
-0.067465924 0.058664903 0.028669128 -0.12777098 -0.13970633 -0.04422886 0.08261202 0.013576728
-0.049793214 0.0025572954 -0.048773106 0.07424482 -0.08235527 0.03850416 0.053562783 0.004257569
0.06250196 -0.03651905 -0.06658162 -0.054760545 -0.042167358 -0.04592141 -0.02634206 0.19066438
-0.042886883 -0.058968395 0.022289729 -0.051127717 0.053477246 0.008025527 -0.047734335 -0.044696655
0.070389286 -0.0014228219 -0.04120295 0.079756685 0.056063242 -0.016628241 -0.0081765065 0.004687352
-0.05493797 0.08059691 -0.03165538 0.057779666 0.085774235 0.005283364 -0.01576181 -0.04159493
-0.029435739 0.028507477 -0.031486418 0.019468993 -0.043456104 0.074782774 -0.034169342 0.122004405
0.086364865 -0.041476738 0.0374104 0.24327224 0.099603444 0.008766263 -0.027007438 0.114791915

fc1.bias f4 [100]
00000000: bd8b e33a 73ee d83b 5c82 b3bd 5fa8 c9bd
00000010: 67e5 16bd c78e b0bd d3c3 88bd 3a27 dbbd
00000020: 62e4 63bd e1d4 16bd 891e c7bc a19e bc3c
00000030: 1344 b7bc ece6 3d3c a190 8dbc e4c4 3ebc
00000040: 152a 623d 86f8 64bd 1894 afbd 2eb7 a5bd
00000050: 0fc2 13bd 0543 58bc 035e 88bd 7554 bdbc
00000060: 756b 043d 5321 1c3d cba1 c3bd 4f67 ebbd
00000070: a171 b8bd 099e 9a3b d1f0 bb3c 6cb7 f2bd
00000080: 8774 dbbb 27eb 58bd 67b3 8ebd 61ca bfbd
00000090: 08ea 64bc da7b 913d dfda 4e3d a6e8 2ebd
000000a0: ba6c 2f3d 3176 143d 1437 3e3d 1b76 f5bc
000000b0: 570a 833d 9e6b 323d 4bd2 b8bd d813 81bd
000000c0: fa92 b2bd 0a47 5cbd dd3d 0ebb be44 303d
000000d0: 2594 17bd 44d4 873d 35b1 f1bc 3da0 99bd
000000e0: b84f 47bd c2b9 acbd d69a 41bb 5e72 3cbc
000000f0: 5d72 863d 6217 7a3d 080e 293d 2440 7b3c
00000100: b94b ba3d 6161 053d 6fd8 ddbc 741b 053d
00000110: c4d0 a0bd d4ef 853d bda4 863d f43b c53d
00000120: 117d 163d 3d66 55bd 4d75 803d db22 863d
00000130: 9ead 313d 32ee ae3c 49e3 90bc da8d 403d
00000140: 998f 913d 119f aa3c a25c c4bc 249c a7bd
00000150: 439d 69bd 940d e53c 2e1a 92bd 0060 51bd
00000160: 065c ac3c 1049 7dbd eeb3 953d dfe3 e2bc
00000170: 7c15 7bbd 83a1 883c fecc 113d 49c1 69bd
00000180: b7d7 85bd 4555 52bd 38e8 aabd 492f 40bd
0.0017360371 0.0066202222 -0.087650985 -0.09846567 -0.03683987 -0.086209826 -0.066779755 -0.10700841
-0.055637725 -0.03682411 -0.024306552 0.023024859 -0.022371328 0.011590701 -0.017280878 -0.011643622
0.055215914 -0.055901073 -0.085731685 -0.080915794 -0.03607374 -0.013199572 -0.06658556 -0.023111561
0.03232904 0.038117718 -0.09552344 -0.11494314 -0.09006048 0.0047185463 0.022941979 -0.11851391
-0.0066972408 -0.052958634 -0.06967812 -0.093647726 -0.013971813 0.07103701 0.0505017 -0.04270234
0.0428283 0.03624553 0.046439245 -0.029963544 0.063984565 0.043559663 -0.09024485 -0.06302613
-0.0871944 -0.053778686 -0.0021704354 0.043034308 -0.037006516 0.06632283 -0.029503444 -0.07501266
-0.04866001 -0.08433868 -0.0029541752 -0.011501877 0.06564782 0.061057456 0.041273147 0.015335117
0.09096474 0.03256357 -0.027080743 0.032496884 -0.07852319 0.06539884 0.0657439 0.09630576
0.036740366 -0.052099455 0.06272373 0.06549617 0.043378465 0.021353815 -0.017686503 0.04701028
0.07107467 0.020827802 -0.023969952 -0.08184078 -0.057034742 0.027960576 -0.071339 -0.051116943
0.021039974 -0.061837256 0.073097095 -0.027696548 -0.061299786 0.016678577 0.035595886 -0.057069097
-0.06535285 -0.05135085 -0.083450735 -0.046920095

fc2.weight f4 [200, 100]
00000000: 06de 5abc 7501 24bb 6f71 da3d 3de9 893e
00000010: dd72 3cbc 5c04 6f3c 6e2c 333d 38e8 85be
00000020: 475e 093e 2af6 6a3c a335 52bf 3932 cdbd
00000030: f43d 053d 4f05 a9be 52f8 1f3e cbd3 34bf
00000040: d743 583d 61cf e43c 5776 683b 0763 98be
00000050: 8c16 eb3d 9f63 f0bd 86dd 35bd c8d6 cbbe
00000060: e5b7 b9bd 3380 d0bc 0630 47bf 843e 18be
00000070: 589d a73d 5cc3 b3bd 79a9 a93d 948f 1cbc
00000080: 4263 a23c 4cb7 b2be 4eee e1bd aab9 c8bd
00000090: d433 303e d543 473e b4f2 fcbe 29ec 46be
000000a0: af70 353d 90c6 813e af31 f7be 178a 8a3d
000000b0: a5bf 75bb f1a3 9e3e b055 d8bd ddad e7bc
000000c0: 88ac 3fbc aed8 953d 385c 50be 31b0 563e
000000d0: c1ce 183d cfe0 973e 7fd1 60bc a0b8 0f3d
000000e0: ba1a 20bf df8f 013e 004b e23d 853f 4ebd
000000f0: edc3 153d 0c2f a93e a21b e0bd 109a 1dbf
00000100: 8449 f8bd 7331 87bf 003f 1bbf d8c7 eabd
00000110: ef66 98bc 6d3c 9d3d d25d c23b 42d2 68bd
00000120: fc13 01bc fdd7 d53d f4d9 f0bd 8bae 7d3e
00000130: bf21 a53d 76a6 26bd 19b6 74be a159 223e
00000140: 4cab 9b3c bef3 77bf 7a78 12bf ad94 82bd
00000150: b2a9 cabc 7fc5 86bd 9e99 3e3e 29f4 01bd
00000160: 1573 d53d a7cc 3cbd 93fd 0c3c 3a44 5f3d
00000170: 6dee aa3d 488e 023d 2be0 bebc a605 303e
00000180: 6aab 2cbd 250c 273e d82b 86bd 233f 49be
00000190: 15e2 2fbb 7659 5cbd a686 c53d 19d7 213e
000001a0: 1077 7b3c 7165 09bd 871a 753c b750 a73d
000001b0: 7a78 2c3e e2af b1bd 2959 d2be dfdd e3bc
000001c0: 8b73 a7bc 3893 cdbe e07f c43a f07a 873e
000001d0: 383c c0bd 7fd9 373c e8c1 11be 82a1 69be
000001e0: 32e4 34be 3e54 4a3d 9a43 9a3b 0210 813d
000001f0: 81ff ddbd b0bf 05bc 5d2c fbbd 7d06 88bc
00000200: 131c 8abc e7ee 7b3d 9862 99bc 872e 11bd
00000210: 0930 70bd 95ad b6be 0dd5 cd3d da29 0b3e
00000220: eced 4dbe b1a1 d3bc 88b4 8b3c c760 43bc
00000230: c793 a0bd b66a 8c3e 9aac 9fbd 8ae5 c8bd
00000240: e26e ec3d 4ba1 c3bd 9756 c139 75cf 17bd
00000250: 48a4 0e3e 1edb 183e 2323 143e c63a 5e3d
00000260: b345 403d 88d4 45be c0a1 83bd 3ad5 0bbd
00000270: be52 92ba 000a 053e 8bfd d8be 9383 0a3d
00000280: 427c a5bc 33d9 263e 96a7 253c b0d3 05bf
00000290: 741f 063c 0f09 373e 4ca5 1a3e ada2 4e3d
000002a0: b1e3 22bc fd38 26bc d6e2 8bbc 6ff8 ad3d
000002b0: 056f 293d 7413 3ebd 9be6 593d 382a 133e
000002c0: f681 f7bc cfbc 2bbc 34c4 27be 2d37 b7bc
000002d0: 3f36 ecbe 0e7a 233c b83b d73d bdf7 c03c
000002e0: c382 0ebd 4d83 9abd c34a a83d e2a2 16bd
000002f0: a2bc a33c ba04 063d 4ef0 ad3d a906 dfbd
00000300: cd79 3dbc 5754 d8bd 8376 a83d e12f 6e3e
00000310: 61c5 98bd ed2e 713d e366 50bd b1db 91be
00000320: e064 453d 7733 a93d a7c5 92bc ebff 883d
00000330: 20d7 0cbd 8033 c33c 9296 9dbd 67bb 92bd
00000340: eaa6 653d 7305 9d3c d739 9a3d 6d31 0ebd
00000350: 2de8 29bd 6a27 bebd 8dae 1bbc 439e 77bc
00000360: e73a dd3b 37e1 4f3d 9323 083d b705 143d
00000370: 0766 8bbc f356 1e3c cd54 00bc 87ad cabd
00000380: 8a29 10bd 4d29 4abc 8b91 bc3d 2d7f 17bd
00000390: 7210 aebd 937d bb3d eafb 8abd 2bb7 8a3d
000003a0: 4dc4 8fbd aecf d2bd e2ed afbd 8c11 4ebd
000003b0: a200 94bd fde9 87bd 4ff9 833d 1392 f2bd
000003c0: a3dd 57bd 7ae6 c53d 4368 6fbd 8d28 00bc
000003d0: 3a0e b2bd 4d3a ec3c da96 41bc 00a3 593c
000003e0: f79a 2fbd 4d2b c3bb 21c5 4ebd 4a18 75bd
000003f0: a081 8c3c ec2f d1bd 6045 873d ab5c a8bd
-0.013358599 -0.0025025283 0.10666167 0.2693576 -0.011501995 0.014588442 0.043743543 -0.2615373
0.1341487 0.014340917 -0.82113093 -0.10019345 0.032529786 -0.33011863 0.1562207 -0.7063567
0.052799072 0.027930917 0.0035470927 -0.29763052 0.1147891 -0.11737751 -0.044400714 -0.39812303
-0.09068278 -0.025451755 -0.7780765 -0.14867598 0.08184308 -0.08777496 0.082842775 -0.009555716
0.01982272 -0.3490547 -0.11031781 -0.098010376 0.17207271 0.1945947 -0.49403918 -0.19426025
0.044296917 0.25346804 -0.48280093 0.0676462 -0.0037498262 0.30984452 -0.105632186 -0.028281147
-0.0116988495 0.07316719 -0.20347679 0.20965649 0.03730655 0.29663703 -0.013721823 0.03508818
-0.6254078 0.12652539 0.11049461 -0.050353546 0.036563803 0.33043706 -0.109427705 -0.61563206
-0.12123397 -1.0561966 -0.60643005 -0.114638984 -0.01860377 0.07677541 0.0059315944 -0.056841142
-0.0078783 0.10441587 -0.11760321 0.24773614 0.08063077 -0.040686093 -0.2389759 0.15854503
0.01900258 -0.96856296 -0.5721508 -0.06376014 -0.02473912 -0.06580638 0.18613288 -0.03172699
0.10422341 -0.04609361 0.008605379 0.054508425 0.08346257 0.03187397 -0.023300251 0.17189655
-0.04215566 0.16313227 -0.06551331 -0.19652991 -0.0026837636 -0.053796254 0.09644823 0.1580471
0.015348211 -0.033544008 0.014959938 0.08169692 0.16842833 -0.08676125 -0.4108365 -0.027815757
-0.020440837 -0.40151381 0.0014991723 0.2646098 -0.09386486 0.011221289 -0.14234126 -0.22815517
-0.17665175 0.049396746 0.0047077658 0.063018814 -0.10839749 -0.008163378 -0.12264321 -0.016604656
-0.01685909 0.061507132 -0.018723771 -0.035444763 -0.05863956 -0.35679308 0.10050402 0.13590184
-0.20110291 -0.025833936 0.017053857 -0.011924929 -0.07840686 0.27425164 -0.07796593 -0.09809406
0.11544587 -0.095522486 0.00036876343 -0.03706308 0.13929856 0.14927337 0.14466529 0.05425527
0.04694147 -0.19319355 -0.06427336 -0.034138896 -0.0011163575 0.12992096 -0.42380938 0.033816885
-0.020200852 0.16293792 0.010110756 -0.52276134 0.00818621 0.1787455 0.15102118 0.05044811
-0.009941981 -0.010145423 -0.017075937 0.084946506 0.041365642 -0.04640527 0.05319844 0.14371574
-0.030213337 -0.010482027 -0.1638344 -0.022365177 -0.46135136 0.009977831 0.10509437 0.02355563
-0.034792673 -0.07544575 0.08217385 -0.03677643 0.019987408 0.03271935 0.084931 -0.10889942
-0.011564684 -0.105629615 0.08225729 0.23260452 -0.07459522 0.058882643 -0.05087937 -0.28487924
0.048191905 0.08261769 -0.017916514 0.066894375 -0.034384847 0.023828268 -0.07694735 -0.071646504
0.056067385 0.019167637 0.07530563 -0.034715105 -0.041481186 -0.092848614 -0.009502065 -0.015113416
0.0067514065 0.05075189 0.03323705 0.036138263 -0.017016424 0.009664285 -0.007832718 -0.09896379
-0.035195865 -0.012338948 0.092074476 -0.03698652 -0.084992304 0.09154811 -0.0678633 0.06773218
-0.07019863 -0.10293518 -0.085902944 -0.050309703 -0.07226683 -0.066364266 0.06444036 -0.11844268
-0.052701604 0.096631005 -0.05844904 -0.007822168 -0.0869412 0.028836394 -0.011815751 0.013283491
-0.042872395 -0.0059560896 -0.050480966 -0.059837617 0.017151654 -0.102142185 0.06605029 -0.082208

fc2.bias f4 [200]
00000000: 5622 89bd 6edd a8bd 58d4 d8bd 133c c9bd
00000010: f1f8 efbd 04c8 7dbc a6f7 3ebd 1e25 d1bd
00000020: 84ba 1c3e 34a7 8dbe 0c80 e1bd e983 97bd
00000030: c75b abbd b1df dbbd 37cc ae3d 9fee 50be
00000040: b962 31be 284f 1f3e e1de 0f3d 9267 efbd
00000050: 1d14 593d 386a e93d 164e 5fbd 804d e1bd
00000060: c96a 0cbe 3c76 16be a6cb 0bbe 2905 38bc
00000070: 673a 05be fca4 bdbd 6fc1 8abd bf55 57bd
00000080: ca71 8cbd e1e4 56be a0db d4bd b2cf ff3d
00000090: 786b babc f9d2 ac3d f979 b63d d7b3 25bc
000000a0: a1bd d83d 17dc 44be 3b44 acbd 34d7 85be
000000b0: eb70 dcbd 7504 323e ee70 83be c5d3 0cbe
000000c0: ec79 943b a866 663d 8a75 b6bd 8e79 61bd
000000d0: f4b6 4fbd 2fba f9bd e61e 6bbd c950 22be
000000e0: 07b0 1e3e 1a87 483c b7e4 85be 9964 06be
000000f0: 1dc3 c3bd 9586 aa3e 195d 4abd 49e3 2bbd
00000100: 9154 fbbd 2c4f a93c 95e8 e6bc 853f 093e
00000110: 45b8 dc3d 2f62 593e 6a97 c23d 429d 823d
00000120: 506a 183d 4592 763d 53e1 1d3e bf3f b4bd
00000130: e768 9c3d 3c0a b13d 1d7f aa3d a1ba 3e3d
00000140: 9ea9 29be f0d8 963d 4581 a2bc ab75 c3bd
00000150: 35b1 4abc e657 e2bd 5844 a5be 98de 6abd
00000160: a186 36bd 1afe a3bd ad5d 02be 7969 8bbe
00000170: 9e69 e6bd 2b4a b83c dcd3 85bb 55cc 193e
00000180: d746 5bbb 68af 1cba befc 30bd 1735 1cbd
00000190: 1e84 41be 73ea e4bc 1126 2f3d 67cc b4bd
000001a0: c996 d5bd 4fbf 563d d284 3bbe a5e0 c8bd
000001b0: 2f43 6ebd 500d 88bc 885d 5abd 8a0b bd3d
000001c0: 338a 0ebe 094a edba 5872 043e e16c b53d
000001d0: 533e 333e 45e9 e7bd de93 09be b294 3dbe
000001e0: 8add b4bd 684e 06bd 6b4e c33d dafc 1cbe
000001f0: 030f 9c3c e9a6 453d 1043 fcbc 00e7 fdbc
00000200: e99a 843e 0f3e 7ebd ed5c 1abd e865 3a3d
00000210: 1bef 133d 056b f6bd ec70 d8bd fdf9 123d
00000220: 9b74 813d be31 61bd f5a8 09bd 8058 8fbe
00000230: 3f84 6a3a 6a2e a9bd 2493 34bd 4bc3 32bb
00000240: 4054 1cbe c1ab c13c 1e3f 64bd 1058 bcbd
00000250: efc4 f33d 0888 923b 945f fe3d 29b8 30bd
00000260: 20c0 43bd 950c 99bd 45e0 59bd 75cb 12be
00000270: 0dc7 d4bd 1797 e93d 754a e8bd 9b9b 423e
00000280: f7d4 98bd df62 7abd 0452 89bd 4646 46be
00000290: 1021 76bd 6a36 8cbd 20e9 9cbd a1a0 9dbd
000002a0: 520b f63d 6a3b 9cbc fdd9 00bd bff5 a7bc
000002b0: b568 0dbe 6747 d7bb b1c6 123e 7b4d be3d
000002c0: 759c 6fbe 162e f03d eff6 2e3d 24a6 df3d
000002d0: a7c8 09be cacd c7bc 51f6 963d b477 2ebe
000002e0: c67e d43d 10cc 6bbe 54cc d93d ead3 6a3c
000002f0: 54ca 84bc 39b0 953d 4dc6 0f3d 6412 85bc
00000300: 6157 153d d18d aebc a0af f43c ba76 e13c
00000310: 2c79 a03c b82b c8bd cc26 853d 9cb7 783d
-0.06696002 -0.08245359 -0.10587376 -0.098259114 -0.11717404 -0.015489582 -0.046622895 -0.10212158
0.15305525 -0.27666628 -0.11010751 -0.07398207 -0.083671145 -0.10736025 0.08535045 -0.20403527
-0.17322816 0.1555754 0.035124663 -0.11689676 0.052997697 0.11397213 -0.054517828 -0.1100111
-0.1371261 -0.1469354 -0.13651904 -0.011231699 -0.1301056 -0.09259984 -0.06775176 -0.05257201
-0.06857641 -0.20985748 -0.10393453 0.124907866 -0.022756323 0.08438677 0.08909983 -0.010113678
0.10583044 -0.19224583 -0.084114514 -0.2614075 -0.10763725 0.17384513 -0.25672096 -0.13752659
0.004531136 0.056250244 -0.089091375 -0.055047564 -0.050711587 -0.12193715 -0.057402514 -0.1585113
0.15496837 0.012239242 -0.26151058 -0.13124312 -0.09558699 0.33305803 -0.04940519 -0.041964803
-0.12271989 0.020667635 -0.028187076 0.13403137 0.10777334 0.2122886 0.09501536 0.06377651
0.037210763 0.060198087 0.15417986 -0.08801221 0.07637196 0.0864453 0.08325026 0.046564702
-0.1656861 0.07365596 -0.019837031 -0.09543928 -0.012371351 -0.110519215 -0.32278705 -0.05734119
-0.044561986 -0.080074504 -0.12731047 -0.27228907 -0.11250614 0.022496304 -0.0040840935 0.15019353
-0.0033458972 -0.00059770653 -0.043209784 -0.038136568 -0.18898055 -0.027943825 0.042760912 -0.08828049
-0.104291506 0.05242854 -0.18312386 -0.098084725 -0.05816954 -0.01660791 -0.053311855 0.092307165
-0.13919906 -0.0018103729 0.12934244 0.08858658 0.17504244 -0.113237895 -0.13435313 -0.18513754
-0.08831318 -0.032789618 0.095364414 -0.1533083 0.019050127 0.04825488 -0.030793697 -0.030993938
0.25899437 -0.062070902 -0.037686277 0.04550734 0.0361167 -0.12032131 -0.10568413 0.03588294
0.06321069 -0.05497908 -0.033608396 -0.27997208 0.0008946098 -0.08260806 -0.044085637 -0.0027277048
-0.15266514 0.023641469 -0.055724256 -0.09196484 0.119027965 0.0044717826 0.12420574 -0.04314438
-0.047790647 -0.07473103 -0.053192396 -0.14335425 -0.103895284 0.11405771 -0.113423266 0.19004671
-0.07462495 -0.061129447 -0.06705096 -0.19362745 -0.060090125 -0.06846316 -0.076616526 -0.07696653
0.12013878 -0.0190713 -0.03145789 -0.020502923 -0.13809474 -0.006569791 0.14333607 0.09292122
-0.23399527 0.1172754 0.042715963 0.10920361 -0.13455449 -0.02439012 0.073712 -0.1703785
0.103757426 -0.23027062 0.106346756 0.014332751 -0.016209759 0.073090024 0.035101224 -0.01624412
0.036460284 -0.021307858 0.0298689 0.027522434 0.01958903 -0.09773964 0.065015405 0.06072198

fc3.weight f4 [100, 200]
00000000: 6312 94be f5a3 84bd 1ae6 3fbd f389 8a3d
00000010: 549f 93bd 83d6 113e 51d1 97bc 43a0 4ebe
00000020: c44f b43d 18a5 893e 2a3c 313e 71ee cd3e
00000030: 3483 d8bd 39a6 ba3c 626f b8bb 5517 3ebe
00000040: 67cd dc3b 7c91 173d ae5e 843e a11c 073c
00000050: 52a0 b93c 751a 053e e5b7 793d c802 1e3d
00000060: 1da0 4c3d ed65 d6be ab7f dd3c 6f97 673e
00000070: 4c1b 6b3e 7f72 843e 030a 693d 9781 5a3c
00000080: 2d5c b3bd 1d99 97be 0c02 86bd fdcf da3d
00000090: 48c5 d03e c5b2 8e3d 3872 1bbd aa09 2d3e
000000a0: ad9a 553b a247 d53e 4cc3 313d ace8 c9be
000000b0: 4534 2fbe 1d26 8e3d cd0c 63bf 82f3 1c3d
000000c0: 6674 433e 00bd 2c3e a043 85bb ca29 de3e
000000d0: 41e3 03bd 8a9c 82bd 1ed7 09ba c4ea a73d
000000e0: 5798 2c3c f2af d13e 68a6 123f 6a0e 153d
000000f0: 42f2 6c3e 35eb 653d 8db6 0cbd fe2c bc3c
00000100: 645c 623d 3ff8 c6bd 79a5 e43d 974f 413e
00000110: 79d6 f9bc 7af1 783d 54e7 053e 36a4 a03b
00000120: 46d5 74bd 0b3e 31bc 4174 de3c f6c1 903d
00000130: 724b 1c3e d379 a7bb 4ef1 0dbe 425d d63b
00000140: d477 33be 7b2f 23be deb4 63be 4001 e13c
00000150: 55aa ce3d 63c3 cf3e 8309 823e bcd7 78be
00000160: a101 c13d 85a3 aabc 9f75 d03c c733 193e
00000170: fef0 cf3e 6c72 2d3e 9121 093d 4e24 f83d
00000180: e828 813c 9717 4cbe 33f0 9f3d c9fd 8e3d
00000190: 492c ab3e f7f3 173c c5b6 133d 2252 043d
000001a0: 4a68 8fbe 2359 5b3e b1df fb3d 7732 9bbc
000001b0: c320 a9bd 7f35 b53d 0f27 d93d ebc5 8dbe
000001c0: e31e 0f3f f2b3 bebd fe65 e43d 1481 5b3e
000001d0: 77cf 643e 172e 903e a7f0 303e 165f 9b3e
000001e0: b5b1 443d aa8e aebd bbfa 943d 5e22 933c
000001f0: 8399 2d3d 8f9b 5c3e f376 35bd 89be 913c
00000200: 8bc2 e03c 83df dd3c 2e66 403c d9c3 35bc
00000210: 50fb 743d 73c7 fb3c 9a1c 4e3c 57ae f1bc
00000220: db40 343e 28eb b9be 9328 403d 1a74 8ebd
00000230: 0773 86bc 5343 97bc 8e9a d9bd 23f9 4dbe
00000240: 5097 863d f533 173e 15fb 933b d231 ae3e
00000250: 55a8 18be 715e 16bd 007d 5c3e 8f68 3f3e
00000260: ced3 373c f643 8c3c 0c6d 75be 8286 483d
00000270: fcf0 833d c04c c3ba 4e4d fe3e 07a4 3f3d
00000280: 59de 05bd 4363 f4be 0312 aebd cd0c d4bc
00000290: 0e20 39bd 8eea 823e e494 1a3e bfb2 fbbd
000002a0: 1651 743d 95e0 903d 1f25 1f3e aa10 97bd
000002b0: 3307 e1bd 46fa a93c 4d2f a0bd 9daa 3f3e
000002c0: b45c 713e c582 c83d a1a7 65be ad6c 663e
000002d0: cd0c 053f a2e8 f03c 6f88 333e 651e 2a3c
000002e0: 149a 9b3c cf3a b03e 0162 2c3d 6b9e 93bc
000002f0: 3f7e 073d 2d29 6bbd 5a64 b13c cd40 103e
00000300: 9b2e 183b 7134 b13d 4de8 023e 0f90 443e
00000310: ede6 943d 12eb 8c3d 876f c73b 4b44 683e
00000320: 5a0e 9bbd 3d29 d93b f1dc 503d b184 353d
00000330: 80b4 01bc cc62 393d 9fb8 283d f9da a6bd
00000340: 4705 09bc 276e 783d f67c 67bd 022a 2bbd
00000350: 0ddc 403d 96cd f2bc 1910 26bd 7e3e 29bc
00000360: c3d7 eb3c 24b4 41bd 64c0 92bd 32cf f53c
00000370: 32a5 b2bd 36f6 c9bd 4118 ee3c 4a9c 733c
00000380: f247 a73b 80ee ce3c 8fa9 06bd f357 91bd
00000390: e5e0 adbc db1b 09bd a956 733d 01dc 52bd
000003a0: a550 debc 5900 ab3c cf39 8fbd ab9a 11bd
000003b0: c6e4 533d 5d34 a2bd 1565 3ebd f136 14bc
000003c0: ad4e c3bc 78ca 26bd dbbf ffbb 1152 1bbd
000003d0: f91d 86bd ebd3 c23c e7e7 90bd c655 41bd
000003e0: df4b 073d 95c9 3dba a483 89bd 26c0 92bd
000003f0: beaa 093c a195 d23c 1061 393c df9f 55bd
-0.28920278 -0.06476585 -0.0468503 0.06764593 -0.07208124 0.14241986 -0.018532427 -0.20178322
0.088042766 0.2688377 0.17308107 0.4022098 -0.105719 0.02278434 -0.0056285122 -0.18563588
0.006738353 0.03700398 0.25853485 0.008246572 0.022659454 0.12998374 0.06096639 0.03857687
0.049957383 -0.41874638 0.027038416 0.22616361 0.22959632 0.25868604 0.056894314 0.013336561
-0.087578155 -0.29609004 -0.06543359 0.10684202 0.40775514 0.06967691 -0.037950724 0.16898218
0.0032593415 0.41656214 0.04339914 -0.39435327 -0.17109783 0.06940863 -0.8869141 0.038318165
0.19087371 0.16868973 -0.0040668994 0.43391258 -0.032199148 -0.06377514 -0.000525819 0.08199075
0.0105343675 0.40954548 0.57285166 0.0363907 0.23139289 0.056132514 -0.03435378 0.022970673
0.05526389 -0.09715318 0.11164374 0.18878017 -0.030497776 0.060777165 0.13076526 0.004902388
-0.059773706 -0.010818015 0.027155044 0.07068245 0.15263155 -0.005110958 -0.13861582 0.006541879
-0.1752618 -0.15936081 -0.22236964 0.027466416 0.10091082 0.40578756 0.25397882 -0.24301046
0.09424139 -0.020829925 0.025446711 0.14961158 0.4061355 0.1693818 0.033479277 0.121162996
0.015766576 -0.19930874 0.07809486 0.069819994 0.33432224 0.009274474 0.036062974 0.03230489
-0.28009254 0.21420722 0.12298525 -0.018944962 -0.08258202 0.08848094 0.10603153 -0.27690062
0.55906504 -0.093116656 0.11152266 0.21435958 0.22344767 0.28160164 0.17279302 0.30345982
0.048021037 -0.08523305 0.072743855 0.017960723 0.04238273 0.21543716 -0.044302892 0.01779105
0.027436515 0.027084118 0.011743112 -0.011094057 0.059809983 0.030734753 0.012580061 -0.029502077
0.17602865 -0.36312222 0.046913695 -0.06955738 -0.016412271 -0.01846472 -0.10625182 -0.2011457
0.06571829 0.14765914 0.0045160153 0.34022385 -0.14907964 -0.03671116 0.21532059 0.1869223
0.011219932 0.01712225 -0.2396738 0.0489564 0.064424485 -0.0014900193 0.49668354 0.046787288
-0.03268275 -0.4773198 -0.08499529 -0.02588501 -0.045196585 0.25569576 0.1509586 -0.122899525
0.059647642 0.070740856 0.15541504 -0.07376225 -0.10987701 0.020749222 -0.07821522 0.18717428
0.2357052 0.09790567 -0.22427227 0.22502394 0.5197266 0.029407803 0.17532514 0.010383223
0.018994369 0.34419867 0.04208565 -0.018019876 0.033079382 -0.057412315 0.021654297 0.1408722
0.0023221138 0.086525805 0.12783928 0.19195579 0.07270608 0.068807736 0.006086293 0.22682302
-0.07571097 0.0066272304 0.050991956 0.044315998 -0.00791657 0.045260236 0.041191693 -0.081472345
-0.008363075 0.060651924 -0.056515656 -0.04178811 0.047084857 -0.029639047 -0.040542696 -0.010329841
0.028789407 -0.047290936 -0.07165602 0.030006025 -0.08722915 -0.09861414 0.0290643 0.014868805
0.005105012 0.02526021 -0.032876547 -0.07096853 -0.021225402 -0.03347383 0.059408817 -0.051479343
-0.027138064 0.02087419 -0.06993448 -0.035547893 0.051731847 -0.07920144 -0.046483118 -0.009046302
-0.023841226 -0.040720433 -0.0078048534 -0.03792006 -0.065486856 0.023782691 -0.07075482 -0.04720094
0.03303134 -0.0007239816 -0.067145616 -0.07165556 0.0084025245 0.025706114 0.011314645 -0.052154418

fc3.bias f4 [100]
00000000: d36b d63d 8f83 b23c 3115 2cbd 31bf 8bbd
00000010: 5950 543e 38ee b73d 546f 4e3d 2ae5 6fbc
00000020: d4e9 d1bb 7c99 bebd 0948 9bbd beee 9b3d
00000030: 0dc2 1cbe b7cf a23c 2bb7 d83d 6d32 a43b
00000040: aac8 3e3d 7f42 e3bc b5f7 df3d aca1 72bd
00000050: 6643 8f3d 7d82 0a3e f6b3 d73c 7b25 d53c
00000060: 5561 403c 165e 423e 25f2 d5bc fa61 6fbd
00000070: 966b e33d f3c0 233e 80e1 be3b dd4b 92bd
00000080: 8e52 adbd ddcf 1abc 03e0 87bd 4d90 833c
00000090: 06b2 483d bcd8 f9bc 5cb5 673d 5660 c83d
000000a0: 6693 b83d 9751 dcbc 48b5 8fbd 33a9 b83d
000000b0: 8a3c 713c 8030 3c3d 7778 4b3d 72eb 3bbb
000000c0: e792 483e b51a 57bd 2837 b13d ae41 183d
000000d0: 6549 23bd c256 06be 8547 723d 5c5c 40bd
000000e0: b08a 153e 1a13 a8bc 61d0 81bd 1830 5bbd
000000f0: 642c abbc 761c 033e f981 78bc 6841 e83d
00000100: 0636 563c c6e0 523d ce35 f63c 2d98 a8bd
00000110: 44c4 27bd 3b8f 193e 4c9b c23d d930 9cbd
00000120: 5506 853c 78c0 903d fee9 a0bd 2da4 e8bd
00000130: 71af d83d be42 6f3d e90d 7b3d a11e 0c3d
00000140: 5304 2cbd fa3e c7bd 65cc b43d ccd6 9b3c
00000150: 670f d43d a43f a33d 6804 023c 8351 dd3d
00000160: 0613 0b3e cb7d bdbd 6f91 4a3d 18e3 933d
00000170: 6460 f63d 33be 42bc 689b 59ba 997a 453c
00000180: 2a9c afbd 1977 4f3d 952f 0fbb dace 21bd
0.104697846 0.021791248 -0.042012397 -0.06823576 0.20733775 0.089809835 0.05039914 -0.014642039
-0.0064060483 -0.093066186 -0.07582099 0.07613896 -0.153084 0.019874437 0.105818115 0.005010894
0.046578087 -0.027741669 0.10935918 -0.059236214 0.06995277 0.1352634 0.02633093 0.026018849
0.011741956 0.18981203 -0.02611644 -0.058443047 0.11104505 0.15991573 0.0058252215 -0.07143376
-0.08463012 -0.0094489725 -0.06634524 0.016060019 0.0489979 -0.030498855 0.056569442 0.097839996
0.09012489 -0.026894374 -0.070169985 0.09016647 0.014723906 0.04594469 0.04967543 -0.0028674272
0.19587289 -0.052515704 0.08653098 0.037172012 -0.039864916 -0.13119033 0.059150238 -0.04696308
0.14603686 -0.02051692 -0.06338573 -0.053512663 -0.02089519 0.12803826 -0.015167707 0.113406
0.013074404 0.051483892 0.030054953 -0.0823215 -0.040958658 0.14996044 0.09502277 -0.076265045
0.01623837 0.070679605 -0.078571305 -0.11359439 0.10580338 0.05841326 0.061292563 0.034208898
-0.04199631 -0.09728809 0.08828048 0.019023322 0.103545 0.07971123 0.007935621 0.10806563
0.13581476 -0.09252509 0.049455103 0.07221049 0.12030104 -0.011886167 -0.00083010504 0.012053155
-0.08574708 0.05065069 -0.002184843 -0.03950391

fc4.weight f4 [2, 100]
00000000: b841 7b3e 97ee b43d 8218 b03c 9870 48bd
00000010: e98f 2cbf 4bbc 343e e9b3 103e 98d8 80bc
00000020: 0ff5 883e 8160 c03d 528a 763b 2a07 e73e
00000030: de95 5bbe ea78 7f3e 9be0 ea3e d450 473e
00000040: 9da5 f93e d498 0b3e 05f3 913f e429 bb3e
00000050: d660 a83e 88fc 26bf 2fa5 703e 51ec 44bf
00000060: 2704 123e 4dc0 64bf 3a98 363e 8279 ae3e
00000070: 2a19 793e 3eba 0cbf 3279 853e 16ec 0cbd
00000080: 80c3 77bc fd38 253e 8a6a 73bc 71f8 743e
00000090: 3a0a c83e 6e2c 843d c6aa eb3e fb1f 0f3e
000000a0: e556 d43e 3b69 8dbb ba04 8e3e af6f dbbe
000000b0: 835e 9d3e df41 ec3e b463 143f a034 cb3e
000000c0: 19e6 34bf f862 39bb e06d edbf 7e88 08bf
000000d0: c751 ffbc de42 693f 8614 e6be e6c3 8fbf
000000e0: 3734 14bf eae9 223e 4446 aa3e 3791 023d
000000f0: 6a81 19bd 2c7c 87bf 70f9 6c3e 3961 6a3e
00000100: 7775 cc3d 008d b83e 6926 17bf 2af2 463d
00000110: 078e a4bd 32d3 aabf a491 00bf ff52 60bd
00000120: 0d21 a43e 6bcd 023e 8c87 31bc 1ce5 9cbc
00000130: 56a0 ae3e a7c2 cd3e 1efa c9be 5dfb e13e
00000140: 9014 ecbc 95a9 c6bc e910 863e e1b4 743e
00000150: dcba 293e ec4f 49bf 269c 663e 2962 c2be
00000160: ec33 debe 92d2 953e 641a 2cbf 2c69 d53e
00000170: 3549 0d3f a512 623c 0f72 be3d 17cf 0dbf
00000180: a4a5 7cbd 5340 0c3e ac52 613e bc85 273e
00000190: 6ddb 92be aca7 b33d 7243 3a3d 7545 58bd
000001a0: 4416 0e3f f709 6cbe e04b 2fbe 4185 5d3d
000001b0: 1db1 a2be 4ab1 13bc 1e0a 183d c0c0 13bf
000001c0: 6cc1 2f3e 72c4 90be ed32 cdbe 72db acbe
000001d0: 6897 acbe 387f 5ebd 5e43 8ebf ab92 8dbe
000001e0: 2717 18be 84f3 3a3f 9977 a7be f6f6 1e3f
000001f0: f8d9 fbbd 2362 613f a011 3cbe 49b9 afbe
00000200: f957 84be 858b 223f 5b26 d2be 3384 08bd
00000210: cd8f 29bd 5d30 79be 79fd 3a3c 6390 91be
00000220: 092f c0be da0e ad3d db9c ebbe f00d 06be
00000230: 342a f4be 80b1 9f3d a295 65be 3d22 013f
00000240: bd98 bcbe ff8c d9be c1cd 18bf 57a1 bdbe
00000250: 99d5 503f 9ad9 0f3d cf4b ed3f cd94 f73e
00000260: 51bb 2bbc 6027 7cbf 32a9 fd3e 3c90 903f
00000270: ba25 303f 0e60 80be ca4c 72be a15a dd3c
00000280: a58d 603d 76c0 8d3f e099 69be 4670 89be
00000290: e1f0 48be 8b73 9abe 4c39 173f 16cb 523d
000002a0: 2c27 c5bc 78eb ab3f 5997 083f a5a1 153d
000002b0: f7a5 5ebe 4d81 d5bd b1f4 443d 71e0 f23c
000002c0: 88f8 d7be d3b2 b5be 97c9 0b3f 59c3 c2be
000002d0: e495 923d 641b a43d 3392 85bd f97d 60bd
000002e0: 1f73 93be 0d6b 363f 9fee 9fbe 0a4b e93e
000002f0: 284d 083f 1277 89be 1298 1b3f 3d5a dabe
00000300: 66e3 debe 4210 b1bb 60d7 a83b 33e9 fd3e
00000310: c788 783d 6c88 25be 1f88 b3bd 787f 0fbd
0.24536788 0.0883457 0.021496061 -0.048935503 -0.6740709 0.17649953 0.1413113 -0.01572828
0.26749465 0.09393407 0.0037619066 0.45122653 -0.21443889 0.24948469 0.45874485 0.19464427
0.48759165 0.13632518 1.1402289 0.36555398 0.3288638 -0.6522908 0.23500513 -0.7692309
0.14259396 -0.8935593 0.17831507 0.34077078 0.24326006 -0.54971683 0.26069027 -0.034404837
-0.015122294 0.1613502 -0.014856944 0.23922898 0.39070302 0.06453787 0.46028727 0.13977043
0.41472545 -0.004315523 0.2773798 -0.42858645 0.3073617 0.46144006 0.57964635 0.39688587
-0.706636 -0.002828775 -1.8549156 -0.5333327 -0.031166924 0.91117656 -0.44937533 -1.1231658
-0.57892174 0.15909544 0.33256733 0.03187677 -0.037476934 -1.0584769 0.23142028 0.2288865
0.09983342 0.36045074 -0.59042984 0.04857079 -0.08034902 -1.3345702 -0.5022223 -0.05476665
0.32056466 0.12773673 -0.01083554 -0.019152217 0.34106702 0.4018757 -0.39448637 0.44137087
-0.028818399 -0.024250785 0.26184776 0.23897125 0.16575187 -0.78637576 0.22520503 -0.37965515
-0.43398988 0.29262215 -0.6722777 0.41681802 0.5518983 0.0137983905 0.09299099 -0.5539412
-0.061681405 0.13696413 0.22004193 0.1635961 -0.28683034 0.08772215 0.045474477 -0.052800614
0.55502725 -0.23050676 -0.17118788 0.05408216 -0.31775752 -0.009014437 0.037119024 -0.5771599
0.17163628 -0.28274876 -0.40077916 -0.33761173 -0.33709264 -0.054320544 -1.1114309 -0.2765096
-0.14852582 0.73027825 -0.32708433 0.6209558 -0.122974336 0.8804037 -0.18366098 -0.3432105
-0.25848368 0.6349414 -0.41044888 -0.0333292 -0.041396905 -0.24334855 0.011412972 -0.2843047
-0.37535885 0.08450098 -0.4601811 -0.13091254 -0.47688448 0.07797527 -0.22420362 0.5044287
-0.3683528 -0.42490384 -0.59688956 -0.37037155 0.81575924 0.03511963 1.853876 0.48355713
-0.010481671 -0.9849758 0.49543148 1.1294017 0.68807566 -0.25073284 -0.23662105 0.027020754
0.054822583 1.107436 -0.22812605 -0.2684347 -0.19623138 -0.30166277 0.59071803 0.05146321
-0.02406653 1.3431234 0.5335594 0.03653111 -0.21742998 -0.10425053 0.04808492 0.029648038
-0.42181802 -0.35487995 0.54604477 -0.38039663 0.071574956 0.08013037 -0.06522026 -0.054807637
-0.28798768 0.71257097 -0.3123674 0.45565063 0.5324273 -0.26848656 0.60778916 -0.4264697
-0.43532866 -0.0054035494 0.005152628 0.4959198 0.060677316 -0.16165322 -0.087661974 -0.035033673

fc4.bias f4 [2]
00000000: bfad ebbc 7cb6 f83d
-0.028769372 0.12144181
