updated_fdia_model_ffnn_pytorch_50_100_50.onnx (onnx, 67728 bytes, 8 tensors)

fc1.weight f4 [50, 128]
0	0xbec7b569	-0.39005592
1	0xbd82aca5	-0.063805856
2	0xbec92e96	-0.39293355
3	0xbedb0b26	-0.42781943
4	0xbf1b033c	-0.6055181
5	0xbec1a894	-0.37823927
6	0xbeab428e	-0.33449215
7	0xbf1fcce7	-0.6242203
8	0xbe4143b8	-0.18873489
9	0xbec5052d	-0.3848051
10	0x3d159966	0.036523245
11	0x3d120e39	0.035658095
12	0x3c0ac563	0.008469912
13	0xbf76279f	-0.96154207
14	0xbdf4fbad	-0.11962066
15	0x3ddc49d0	0.10756266
16	0xbcb58a13	-0.022160565
17	0xbdca4588	-0.09876543
18	0xbe83f6f7	-0.25774357
19	0x3d9bd406	0.076088
20	0xbd8b4a5f	-0.068012945
21	0xbdc29578	-0.09501165
22	0xbdd17d27	-0.10228949
23	0xbdb82797	-0.08991926
24	0xbd567f09	-0.052367244
25	0x3c81d425	0.015848229
26	0xbc69ccc1	-0.014270009
27	0xbbeeb88c	-0.0072851833
28	0x3d2bc108	0.041932136
29	0xbe8cf8ad	-0.27533475
30	0xbeef1fd0	-0.4670396
31	0xbe7f9425	-0.24958856
32	0xbe198eba	-0.14995852
33	0xbe9a451b	-0.30130848
34	0xbe7976ba	-0.24361697
35	0xbe086e11	-0.13323237
36	0xbef292b7	-0.4737756
37	0xbfc99932	-1.5749876
38	0xbdc09d11	-0.09404958
39	0x3e82e060	0.2556181
40	0xbd2ef4a4	-0.042713776
41	0xbcd098c0	-0.025463462
42	0x3d654321	0.055972222
43	0xbd1efab0	-0.038813293
44	0xbcba88be	-0.022770282
45	0x3cf400a7	0.029785467
46	0x3cb32180	0.02186656
47	0xbd27a96a	-0.04093305
48	0xbd5eed61	-0.0544256
49	0xbe0918aa	-0.13388315
50	0x3dad5a9a	0.084645465
51	0xbd08a6eb	-0.03336231
52	0xbcf9358d	-0.030421043
53	0x3da62e6d	0.08114324
54	0x3b6ca304	0.0036107907
55	0x3de17009	0.11007697
56	0x3cde1871	0.027111264
57	0x3d7a97c3	0.061179888
58	0xbe3fba4f	-0.18723415
59	0xbec58428	-0.3857739
60	0xbeaf5385	-0.34243408
61	0xbdb7d1de	-0.08975576
62	0xbeb82072	-0.35962254
63	0xbe30081a	-0.1719059
64	0xbe99cb7e	-0.30038065
65	0xbeb66ca6	-0.35629767
66	0xbf97490f	-1.1819171
67	0xbe336fc2	-0.17523101
68	0x3e3dbd05	0.18529136
69	0x3b8a6304	0.0042232294
70	0x3d637da6	0.05553975
71	0x3d8e21e6	0.06940059
72	0xbecad271	-0.3961368
73	0x3dc7fa1f	0.09764504
74	0x3ca70deb	0.020392379
75	0x3d174c51	0.036938015
76	0xbd8e2c15	-0.06942002
77	0xbd866ef7	-0.065641336
78	0xbe4298ec	-0.19003648
79	0xbe183c9f	-0.14866875
80	0xbe9c1722	-0.304864
81	0xbd0d379b	-0.034476858
82	0x3cf4d46d	0.029886449
83	0xbd7ca303	-0.061678898
84	0x3ca05331	0.019570919
85	0x3c1c19e6	0.009527659
86	0xbd38c30b	-0.045107882
87	0xbe9250ec	-0.28577363
88	0x3eaa8c82	0.33310324
89	0x3eb55270	0.35414457
90	0xbee7fae9	-0.45308617
91	0xbf04a9ea	-0.5182177
92	0xbe5dc32e	-0.21656486
93	0xbeb20c06	-0.34774798
94	0xbf009df6	-0.5024103
95	0xbe8787af	-0.26470706
96	0xbee351c6	-0.44398326
97	0x3be78e25	0.0070665055
98	0xbd8e6824	-0.06953457
99	0x3dc009c9	0.09376866
100	0xbf7f7a9b	-0.99796456
101	0xbe18567d	-0.14876743
102	0x3cad30f0	0.0211415
103	0xbc277226	-0.010220086
104	0x3d05cda8	0.032666832
105	0x3f202df5	0.62570125
106	0x3e9b03fb	0.30276474
107	0xbe07d9ee	-0.13266727
108	0x3c917cde	0.017759737
109	0xbe723b03	-0.23655324
110	0x3d727457	0.05919298
111	0xbcf0f0e3	-0.029411739
112	0x3d298c8f	0.041393813
113	0xbc4a15fa	-0.012334341
114	0xbb4aff92	-0.0030975086
115	0xbcb8029b	-0.02246218
116	0xbd2eac79	-0.04264495
117	0x3d82a51f	0.063791506
118	0x3bae0c95	0.0053115585
119	0x3cbe1d49	0.023207324
120	0x3d5df1a7	0.054185536
121	0xbd495d6b	-0.049161356
122	0xbc47182a	-0.012151757
123	0x3d14db57	0.03634199
124	0x3dd6b3bc	0.104835
125	0x3ca4ce85	0.020118007
126	0xbcfa65b3	-0.030566072
127	0x3d204bc5	0.03913476
128	0x3d97a126	0.074037835
129	0xbd9c1593	-0.076213025
130	0xbd01be92	-0.031675883
131	0x3cc07a69	0.02349587
132	0xbcca33bd	-0.024682874
133	0xbcafb0a2	-0.02144653
134	0xbc9863df	-0.01860231
135	0xbd0e8031	-0.03479022
136	0x3d2896a4	0.041159287
137	0x3d8e7e0b	0.069576345
138	0x3d4fef38	0.050765246
139	0x3d27aa5d	0.040933955
140	0x3dd42821	0.103592165
141	0xbc1ab5c4	-0.00944275
142	0x3d9f29c3	0.07771637
143	0x3c979b81	0.018506767
144	0xbd144ade	-0.03620421
145	0x3cf5b980	0.02999568
146	0xbdd13e14	-0.102169186
147	0x3d78138c	0.060565516
148	0x3dd734bd	0.10508106
149	0xbd413134	-0.047166064
150	0x3d18037a	0.03711269
151	0x3c7fa9d7	0.015604458
152	0xbbb42227	-0.0054972353
153	0x3cbfe4de	0.023424562
154	0xbb68808b	-0.0035477008
155	0x3ddcd825	0.10783414
156	0xbcad63a0	-0.021165669
157	0x3daa9251	0.08328689
158	0xbd6115e3	-0.054952513
159	0xbd676e1c	-0.056501493
160	0xbd7a7957	-0.061150875
161	0xbd147c9c	-0.03625165
162	0x3d39d3a1	0.04536784
163	0xbd047a31	-0.032343093
164	0xbbacb420	-0.005270496
165	0x3c48f328	0.012265004
166	0x3d4802fa	0.048830964
167	0x3d9766bf	0.07392644
168	0x3d5dd5db	0.054159027
169	0xbd0bb8c4	-0.034111753
170	0xbc72d820	-0.014822036
171	0xbd0afeb1	-0.0339343
172	0x3d0f122c	0.03492944
173	0x3cde4942	0.027134541
174	0x3d3168e2	0.043312915
175	0xbda5a65b	-0.080883704
176	0xbdbf3bf1	-0.09337605
177	0xbd437211	-0.047716204
178	0x3c87164f	0.01649013
179	0x3c8cb740	0.017177224
180	0xbcd52d58	-0.026022598
181	0x3dd83469	0.105568714
182	0xbd37270e	-0.04471498
183	0xbcce23b8	-0.025163516
184	0xbc8ba360	-0.017045677
185	0xbca4e1ec	-0.02012726
186	0xbcebbf17	-0.028777642
187	0xbcdd4bd6	-0.0270137
188	0xbd8ace4f	-0.067776315
189	0x3d0548d6	0.032540165
190	0xbdbd6ca7	-0.092492394
191	0x3da76819	0.08174152
192	0x3d218c16	0.039440237
193	0xbc867d6b	-0.016417226
194	0x3d906b63	0.070517324
195	0xbd0b4059	-0.033996914
196	0x3ce19cfd	0.027540678
197	0x3d1b7ea1	0.03796256
198	0x3d77a533	0.06046028
199	0x3dc72e58	0.09725636
200	0xbd6c30c2	-0.057663687
201	0xbd3dd08f	-0.046341475
202	0xbcb5721b	-0.022149136
203	0x3d492e1d	0.049116243
204	0xbd9cdec7	-0.07659679
205	0xbce846d6	-0.02835409
206	0x3af36b14	0.001857134
207	0xbc83175d	-0.016002351
208	0x3cf27146	0.029595029
209	0x3d1834a6	0.037159584
210	0x3dcee431	0.10102118
211	0x3b959ba3	0.0045656725
212	0xbdd483ac	-0.10376677
213	0x3cf11888	0.029430643
214	0xbd6478da	-0.055779316
215	0xbda06009	-0.07830817
216	0xbb6114ed	-0.0034344748
217	0x3d39aa04	0.045328155
218	0x3d0c0110	0.0341807
219	0x3d80bb8f	0.06285774
220	0xbdb39bb2	-0.08769931
221	0xbd96b28b	-0.07358273
222	0xbdc39be3	-0.095512174
223	0xbd8e8f04	-0.06960872
224	0x3da5f8eb	0.08104118
225	0xbd070a23	-0.03296865
226	0x3db1fc07	0.086906485
227	0x3da3cb38	0.07997745
228	0x3d842a2f	0.064533584
229	0x3c5e31d5	0.013561686
230	0x3d13693f	0.035989042
231	0x3c7d2429	0.015450516
232	0xbd90505a	-0.07046576
233	0xbd17fe58	-0.037107795
234	0xbd86151c	-0.06546995
235	0x3d5fb7c1	0.0546186
236	0xbd386c69	-0.045025263
237	0x3d8de01a	0.069275096
238	0x3d18f2d9	0.037340973
239	0x3d8d9f38	0.06915134
240	0xbd27b4c9	-0.040943895
241	0x3c4b3171	0.0124019245
242	0xbdb627c7	-0.08894306
243	0x3db1cf2f	0.08682095
244	0xbd401bd1	-0.046901528
245	0xbd09d266	-0.033647917
246	0x3d8f3097	0.0699169
247	0x3c637457	0.013882718
248	0x3d6f4c97	0.05842265
249	0xbd4256ad	-0.04744594
250	0xbb7cd38d	-0.0038578243
251	0xbd73fa8f	-0.059565123
252	0x3d87d9ca	0.06633337
253	0xbc2207d9	-0.009889566
254	0xbd0fd765	-0.035117526
255	0x3d27b049	0.040939603

fc1.bias f4 [50]
0	0xbd13cd5c	-0.036084518
1	0xbd7afb55	-0.061274845
2	0x3b3909cb	0.0028234597
3	0x3d4ca4d6	0.049961887
4	0xbd91b2c8	-0.07114178
5	0x3e06833f	0.13136004
6	0x3c39b1cf	0.011333897
7	0x3cb3b62a	0.021937449
8	0x3c8cc699	0.017184542
9	0x3ca7d20d	0.020485902
10	0xbdb7b870	-0.089707255
11	0xbdf583e8	-0.1198805
12	0xbc93cd3a	-0.018042196
13	0x3dc748ae	0.097306594
14	0x3c4076d5	0.011747082
15	0xbd57829b	-0.05261479
16	0x3c984347	0.018586768
17	0xbde93c3b	-0.11388441
18	0xbd0faf83	-0.03507949
19	0x3c793d2d	0.015212339
20	0xbbd5ee64	-0.0065286625
21	0xbd1df555	-0.038564045
22	0xbd62997d	-0.05532216
23	0xbc4fdc48	-0.0126867965
24	0xbde6ca53	-0.11269059
25	0xbdc6e6c8	-0.09711987
26	0xbdeffda7	-0.11718302
27	0xbdab0686	-0.083508536
28	0xbd82decc	-0.063901514
29	0xbd1eba99	-0.038752172
30	0xbd9dfa29	-0.0771373
31	0xbd605ced	-0.05477612
32	0xbdb6ab2d	-0.08919368
33	0x3d1db76b	0.038505
34	0x3ced1095	0.028938571
35	0xbc528599	-0.012849235
36	0x3d0eaf27	0.034835007
37	0xbd18080f	-0.03711706
38	0xbc02573d	-0.00795537
39	0x3ccb1a53	0.024792826
40	0x3c5b7cbc	0.013396438
41	0x3ca40b34	0.020024873
42	0xbd7365c5	-0.059423227
43	0xbbba2e5b	-0.0056817955
44	0xbd7d6a7c	-0.06186913
45	0xbe1a42fc	-0.15064615
46	0x3cb65486	0.0222571
47	0x3bf5ef67	0.0075053456
48	0x3ce3d587	0.027811779
49	0xbd0f888c	-0.03504233

fc2.weight f4 [100, 50]
0	0x3dd1bf0e	0.10241519
1	0xbd628d33	-0.05531044
2	0x3e2ec578	0.17067516
3	0xbcd215ab	-0.025645098
4	0x3bf877ac	0.0075826254
5	0xbe3da257	-0.18518959
6	0xbebbe431	-0.36697534
7	0xbd01ba0e	-0.031671576
8	0xbcd87187	-0.026421322
9	0x3e80e3ed	0.25173894
10	0x3da03c7d	0.07824037
11	0xbe35754e	-0.1772053
12	0x3eca7343	0.39541063
13	0x3ebb503f	0.3658466
14	0x3e2d83f2	0.16944864
15	0xbafe1a1e	-0.0019386446
16	0xbd8db9c6	-0.06920199
17	0x3e7990df	0.2437167
18	0xbf6dfff1	-0.9296866
19	0x3de4005c	0.11132881
20	0x3ede5ef3	0.43431816
21	0xbefdab2c	-0.49544656
22	0x3d4776f4	0.048697427
23	0x3ddbdcfb	0.10735508
24	0x3df81150	0.12112677
25	0x3dec4eea	0.11538489
26	0x3b4ffd7c	0.0031736782
27	0xbd7ddfd3	-0.061981034
28	0x3dee6ee0	0.116422415
29	0xbd287c8e	-0.04113441
30	0x3c17cec5	0.009265606
31	0xbd5beb22	-0.053691037
32	0x3d8d570d	0.06901369
33	0xbe93c781	-0.28863147
34	0xba34a914	-0.00068916497
35	0x3de20dd2	0.11037792
36	0x3ad2f240	0.0016093925
37	0x3e661241	0.22467901
38	0x3ba2a3cf	0.004963375
39	0x3d7d7e5d	0.061888088
40	0x3d37d7db	0.04488359
41	0x3de58af5	0.112081446
42	0x3dd055a3	0.10172584
43	0xbe973489	-0.2953227
44	0x3c38836e	0.011261804
45	0x3e5d60d4	0.21618968
46	0x3e9ecf9a	0.31017762
47	0xbd7fd89c	-0.062462434
48	0xbddaa085	-0.10675148
49	0x3e8278c4	0.25482762
50	0xbded2840	-0.11579943
51	0xbe04cf62	-0.12969735
52	0x3d66905e	0.056290023
53	0x3d82760f	0.06370174
54	0xbc89d063	-0.016823
55	0xbf24dd0d	-0.64399797
56	0x3e01f94b	0.12692754
57	0x3d888517	0.0666601
58	0x3c5b926f	0.013401612
59	0x3e8d92d0	0.27651072
60	0xb98be810	-0.00026685046
61	0xbe11d894	-0.14242774
62	0xbeda7e96	-0.42674702
63	0xbedf8854	-0.43658698
64	0xbe2536ef	-0.16134237
65	0xbe04ed15	-0.12981065
66	0x3e277b9f	0.16355751
67	0x3e2bd0ed	0.16778918
68	0xbc39738a	-0.011319051
69	0x3ea30e37	0.31846783
70	0x3de28ea7	0.11062365
71	0x3e57c8c0	0.21072674
72	0x3dfefe06	0.12450795
73	0xbe80e61b	-0.25175557
74	0xbdb09628	-0.0862239
75	0x3ca1ce12	0.019751582
76	0x3a341f6e	0.00068711385
77	0x3e03cad3	0.1287034
78	0x3ddcb64f	0.1077696
79	0x3e0ce54c	0.13759345
80	0xbef056fe	-0.4694137
81	0xbcd7d841	-0.026348235
82	0xbde434c0	-0.11142874
83	0xbcceb8f4	-0.025234677
84	0x3e1ab3be	0.15107629
85	0x3e1d608e	0.15368864
86	0x3b823efc	0.0039747935
87	0xbf15bfbc	-0.5849569
88	0xbd903a43	-0.070423625
89	0xbcf36620	-0.029711783
90	0x3da5d4c0	0.080972195
91	0xbcebb2e6	-0.028771829
92	0xbdb9780f	-0.090561025
93	0x3e866be1	0.2625418
94	0x3e4e011f	0.20117615
95	0x3dd27980	0.102770805
96	0x3eaca91e	0.33722776
97	0x3e03d008	0.12872326
98	0x3d881017	0.06643694
99	0xbcfb0f98	-0.030647084
100	0xbe504200	-0.20337677
101	0x3dbed952	0.09318794
102	0x3e6cc544	0.23122126
103	0xbc8a9620	-0.016917288
104	0xbe083256	-0.13300452
105	0xbce6a70f	-0.028155832
106	0xbe38d439	-0.18049707
107	0xbc182ab2	-0.009287523
108	0xb9f168ac	-0.0004604509
109	0xbc5d8ed9	-0.013522827
110	0x3e0cb4f9	0.1374091
111	0xbe18b978	-0.149145
112	0x3db17cae	0.08666359
113	0x3c4271d3	0.011867958
114	0xbe2500ac	-0.16113538
115	0xbe082a30	-0.13297343
116	0x3c0e4ba8	0.00868503
117	0xbd1d5a2b	-0.03841607
118	0xbe3d41e7	-0.18482171
119	0xbc91947e	-0.017771002
120	0xbd0dc572	-0.034612127
121	0xbe8818c1	-0.26581386
122	0x3dbfb754	0.09361139
123	0xbd8debb3	-0.06929722
124	0xbdc8165a	-0.09769888
125	0xbe5f8d93	-0.2183135
126	0xbe4edf77	-0.20202433
127	0xbdd58188	-0.10425097
128	0xbd58b84a	-0.052910127
129	0x3c868bf0	0.01642415
130	0xbd5e2c59	-0.054241512
131	0xbe3bb0d2	-0.1832917
132	0xbd301dee	-0.042997293
133	0xbdef7061	-0.116913565
134	0xbd60d567	-0.054891016
135	0x3d8fb008	0.07015997
136	0xbe1dad7d	-0.15398212
137	0x3cfbf3a3	0.030755823
138	0x3c07bf9d	0.00828543
139	0x3e097913	0.13425092
140	0xbe014aa1	-0.12626125
141	0xbbcf3a94	-0.0063241217
142	0x3dd62851	0.104569085
143	0xbd0d0ec2	-0.034437902
144	0xbe03dd69	-0.1287743
145	0xbe264e76	-0.16240868
146	0xbe5aa11b	-0.2135052
147	0x3c9f4cbb	0.019445768
148	0x3d9ea8e1	0.07747055
149	0x3d076000	0.033050537
150	0x3dd05c04	0.101738006
151	0x3d68ec05	0.05686571
152	0x3d1b152b	0.037861984
153	0xbb941ee9	-0.0045202863
154	0x3dc54607	0.09632497
155	0x3e681ea0	0.22667933
156	0xbe2ba0e3	-0.16760592
157	0xbd8ddb58	-0.06926602
158	0x3d18d832	0.037315555
159	0xbe498cef	-0.19682668
160	0x3e5ab49e	0.21357962
161	0xbe6ff9f5	-0.23435195
162	0x3eacedcb	0.33775172
163	0x3d695ce5	0.056973357
164	0x3e11af14	0.14226943
165	0xbeae980a	-0.34100372
166	0xbcbc7a4e	-0.023007538
167	0xbdec5a4f	-0.115406625
168	0x3e562961	0.20914222
169	0x3ed4a985	0.41535583
170	0x3e018e55	0.12651952
171	0xbe0a77a4	-0.13522202
172	0x3d792438	0.060825557
173	0x3e94b2d8	0.29042697
174	0x3d807ce9	0.06273825
175	0x3c465485	0.012105112
176	0x3e00a55e	0.12563083
177	0xbe083b21	-0.13303806
178	0x3cfbfdbe	0.030760642
179	0x3e1f5baf	0.15562318
180	0x3e18b2e4	0.14911991
181	0xbe5e8111	-0.21728922
182	0xbd849b14	-0.06474891
183	0xbebae425	-0.36502185
184	0xbdc9200f	-0.09820568
185	0x3e9fa708	0.31182122
186	0xbc6b7dac	-0.014373224
187	0xbe09186c	-0.13388222
188	0x3dc4b86e	0.0960549
189	0xbcf775a6	-0.030207466
190	0x3df0956a	0.117472485
191	0xbc11cd9d	-0.00889912
192	0xbd888e2f	-0.06667744
193	0xbf8487c7	-1.0353936
194	0xbca869cc	-0.02055826
195	0x3ea76353	0.32692966
196	0x3cbf4a8e	0.02335098
197	0x3df87b44	0.12132886
198	0xbd7646f0	-0.060126245
199	0xbe08f3e9	-0.13374294
200	0xbe2cd50f	-0.1687815
201	0x3d168d62	0.036755927
202	0x3db32f06	0.087492034
203	0xbf014bdd	-0.50506383
204	0xbe03a346	-0.12855253
205	0xbf8e0d8b	-1.1097883
206	0xbed0cbda	-0.40780526
207	0xbce96db3	-0.028494691
208	0x3e8cc7f3	0.274963
209	0xbe010f12	-0.12603405
210	0x3dae2f9e	0.08505176
211	0x3d0640f7	0.0327768
212	0x3cce72e5	0.02520127
213	0x3e2a14ea	0.1660954
214	0x3dda168f	0.10648834
215	0x3d58d229	0.0529348
216	0x3d818bb4	0.063254744
217	0x3ec23189	0.37928417
218	0x3e5845f8	0.21120441
219	0x3ef4fdb6	0.47849816
220	0x3de50474	0.1118249
221	0xbe0e1903	-0.13876729
222	0xbdab50e3	-0.08365037
223	0x3e85fa37	0.2616746
224	0x3de43067	0.111420445
225	0x3de21185	0.11038498
226	0x3d982626	0.07429151
227	0x3e220630	0.15822673
228	0x3d4a6d8b	0.049420875
229	0xbd9c8c41	-0.07643939
230	0x3efd4567	0.49467012
231	0xbec8d395	-0.39223924
232	0x3d803a98	0.06261176
233	0xbe3f5526	-0.18684825
234	0x3e1a93d9	0.15095462
235	0xbcc98fa9	-0.024604635
236	0x3deb9903	0.11503794
237	0x3e7351ef	0.23761724
238	0x3d62cffa	0.055374123
239	0x3e17b938	0.14816749
240	0x3d8c8cf5	0.06862823
241	0xbddbade8	-0.10726529
242	0x3e3dfafe	0.18552777
243	0x3f062536	0.5240053
244	0x3daef571	0.08542908
245	0x3eac3c78	0.33639884
246	0x3eec13f6	0.4610898
247	0x3e0b0cc1	0.13579084
248	0x3c8343a3	0.016023463
249	0xbba6564b	-0.005076205
250	0x3db84fe8	0.08999616
251	0x3ce9f433	0.028558826
252	0xbcaaab37	-0.020833595
253	0x3e100674	0.14064962
254	0xbdc81eca	-0.097714975
255	0x3f09953b	0.5374333

fc2.bias f4 [100]
0	0xbe921855	-0.2853419
1	0x3e5d56b2	0.21615103
2	0xbe9a81e4	-0.30177224
3	0xbe9af7a6	-0.30267066
4	0xbe58feda	-0.21190968
5	0x3bffde46	0.0078084795
6	0x3b877519	0.004133832
7	0x3e4d6d9c	0.20061344
8	0xbe93feb2	-0.28905255
9	0x3dbf8e18	0.09353274
10	0xbd94e1e3	-0.07269647
11	0xbe18c9ad	-0.14920683
12	0xbf0d3b69	-0.5516878
13	0x3dde6cf2	0.108606234
14	0x3df5467d	0.11976335
15	0x3e74c1c3	0.23902039
16	0x38f7306a	0.000117868956
17	0xbe756233	-0.23963241
18	0xbe225803	-0.15853886
19	0x3d23e306	0.04001143
20	0xbf039e6a	-0.51413596
21	0xbe4b31c6	-0.19843206
22	0xbe5af1e8	-0.21381342
23	0xbe15c76a	-0.14626852
24	0xbcc320cf	-0.023819355
25	0x3e0afa6e	0.13572094
26	0xbcd22221	-0.02565104
27	0x3cd74426	0.026277613
28	0xbe016aca	-0.12638393
29	0xbd3422ad	-0.043978382
30	0xbe324db6	-0.17412457
31	0xbeb12a50	-0.34602594
32	0xbdb621b9	-0.08893151
33	0xbe2fc11d	-0.1716351
34	0xbe2ded04	-0.16984946
35	0xbee16be6	-0.44027632
36	0x3e8e2dba	0.27769262
37	0xbe01b331	-0.12666012
38	0x3e202fa1	0.15643169
39	0x3d136a79	0.035990212
40	0x3d6f4344	0.05841376
41	0x3d32059f	0.043462392
42	0xbeb9bf2b	-0.36278662
43	0x3eaf9c3f	0.34298894
44	0xbea543da	-0.3227833
45	0xbe2fbbc9	-0.17161478
46	0xbea61ba6	-0.3244297
47	0xbd8cf38f	-0.068823926
48	0x3e2453fc	0.16047662
49	0xbe855489	-0.26041058
50	0x3c9fd6df	0.019511638
51	0xbe9b4f4d	-0.3033394
52	0xbe10deb5	-0.14147456
53	0x3dba4d29	0.090967484
54	0xbe6519b8	-0.22373092
55	0xbe01e00b	-0.12683122
56	0xbe6efb3e	-0.23338029
57	0x3cb86fa2	0.022514168
58	0x3da9ff8f	0.08300697
59	0xbe22dffd	-0.15905757
60	0x3ef49558	0.4777019
61	0xbd9c99fe	-0.07646559
62	0xbeae10d6	-0.3399722
63	0x3d6f506e	0.058426313
64	0x3e411025	0.18853815
65	0xbda6f0fe	-0.08151434
66	0xbe1449e7	-0.14481317
67	0xbea64f8b	-0.3248256
68	0xbdb72e83	-0.08944418
69	0xbe6c5bfc	-0.23081964
70	0xbe1cc451	-0.15309264
71	0xbe74714d	-0.23871346
72	0xbe9d7ce0	-0.30759335
73	0xbc5e851a	-0.013581539
74	0x3d15c0de	0.036560886
75	0xbe5f83df	-0.21827649
76	0x3d2b7e8b	0.041868728
77	0x3dfe564e	0.12418805
78	0xbe0583f7	-0.13038622
79	0xbec6dc0f	-0.38839766
80	0x3ed7d296	0.42152852
81	0xbd32c0bb	-0.043640833
82	0xbe68c610	-0.22731805
83	0xbe54bb15	-0.20774491
84	0xbebd2944	-0.36945546
85	0xbcd770ee	-0.026298966
86	0x3eae44e2	0.34036928
87	0x3e902fe2	0.28161532
88	0xbdbd439f	-0.09241413
89	0x3a933bb5	0.0011233004
90	0xbd71d558	-0.05904135
91	0x3eb32359	0.34987906
92	0xbe8ff25c	-0.28114593
93	0xbdb4e687	-0.08833032
94	0xbe421c3f	-0.18956088
95	0xbdeeb12a	-0.11654885
96	0xbdfcbc07	-0.12340551
97	0x3e133bfa	0.14378348
98	0x3e51846b	0.2046067
99	0xbebfa87f	-0.3743324

fc3.weight f4 [50, 100]
0	0x3d66e8a0	0.056374192
1	0xbdd68bb8	-0.10475868
2	0x3bdb1196	0.006685446
3	0xbd0cd1d0	-0.03437978
4	0xbd809680	-0.062787056
5	0xbd9c35f4	-0.07627478
6	0x3b25c00f	0.0025291478
7	0xbc843a69	-0.016141133
8	0xbc2f244a	-0.010689804
9	0xbc0ab169	-0.008465149
10	0x3c0f9acf	0.008764937
11	0x3ce788f5	0.028263548
12	0xbba30008	-0.004974369
13	0xbdbfe3dc	-0.093696326
14	0xbda5304f	-0.08065855
15	0xbcb9a0c1	-0.022659661
16	0xbd69f023	-0.057113778
17	0xbdd78bec	-0.10524735
18	0xbd1ab56d	-0.037770677
19	0xbdf3e9be	-0.11909817
20	0x3bc31f48	0.0059546567
21	0x3d73b691	0.05950028
22	0xbd863ea4	-0.065549165
23	0xbde9c4d8	-0.11414498
24	0xbdcbeddf	-0.0995748
25	0xbd9910b9	-0.07473893
26	0x3d8e9343	0.06961682
27	0xbd588596	-0.052861772
28	0xbda6e998	-0.08150023
29	0xbdba1fc8	-0.09088093
30	0x3d477482	0.048695095
31	0x3d666aa7	0.056254055
32	0xbd4bf014	-0.049789503
33	0xbd3e3164	-0.04643382
34	0xbd099c10	-0.0335961
35	0xbd2b8737	-0.041876998
36	0x3c1a2085	0.009407167
37	0x3b112b94	0.0022151219
38	0xbdbbcc11	-0.09169782
39	0xbde7d38d	-0.11319647
40	0x3d753dfa	0.05987356
41	0xbd106603	-0.035253536
42	0xbd809a5c	-0.06279442
43	0xbdbc4731	-0.09193266
44	0x3da0ddb9	0.0785479
45	0xbd91324a	-0.0708967
46	0xbde0ea84	-0.1098223
47	0xbb8d668e	-0.004315204
48	0xbe06f882	-0.13180736
49	0xbcc73959	-0.024319338
50	0x3d12f0ca	0.035874166
51	0x3c5fd01d	0.013660458
52	0xbcde675a	-0.027148891
53	0x3d1c85e3	0.03821362
54	0x3d916284	0.070988685
55	0x3cd0780b	0.025447866
56	0xbdab9dfa	-0.08379741
57	0xbc89ddee	-0.016829457
58	0xbda7f100	-0.08200264
59	0x3c009233	0.007847357
60	0x3d1c2ecb	0.038130563
61	0x3cea1b3d	0.028577441
62	0x3d8bbecb	0.068235
63	0x3d1e9cd4	0.03872378
64	0x3cb6b24d	0.022301817
65	0xbb8ecd82	-0.0043579945
66	0xbdec2281	-0.115300186
67	0x3d80a925	0.06282262
68	0x3d4701a4	0.04858555
69	0xbdd40e4d	-0.1035429
70	0x3d9b251f	0.0757544
71	0xbd9d16f0	-0.076703906
72	0xbdac80e1	-0.08423019
73	0xbe1769f5	-0.14786513
74	0xbd3a0007	-0.045410182
75	0x3d8a2d4d	0.06746922
76	0xbd88a825	-0.06672696
77	0x3bdb9967	0.0067016366
78	0xbcbaccf6	-0.022802811
79	0xbd76da55	-0.06026681
80	0xbc88f709	-0.016719358
81	0xbda8da06	-0.0824471
82	0xbdc27a8e	-0.09496032
83	0x3c07d174	0.008289684
84	0x3ca050ed	0.019569838
85	0xbd4c8f66	-0.049941443
86	0xbcb460a2	-0.022018734
87	0xbd7d6dfe	-0.061872475
88	0xbda3f078	-0.0800485
89	0x3c750fc5	0.014957373
90	0xbdc3675b	-0.09541198
91	0x3c4fbbb8	0.012679033
92	0xbc99a49b	-0.018755248
93	0xbd2a8902	-0.041634567
94	0xbc806969	-0.015675263
95	0x3d804f73	0.06265154
96	0xbd975d7b	-0.07390877
97	0xbce5f112	-0.028069053
98	0x3d0fdaef	0.0351209
99	0x3cc7ac45	0.024374137
100	0xbcdb97de	-0.026805814
101	0xbd5e8525	-0.054326195
102	0x3d330a4a	0.043710984
103	0x3e36a1a7	0.17835103
104	0x3e947aa1	0.28999808
105	0x3db605b7	0.08887809
106	0xba60abe9	-0.00085705385
107	0xbf3d4e47	-0.73947567
108	0x3d93387f	0.0718851
109	0x3beabff6	0.007163997
110	0xbf3f3257	-0.7468619
111	0xbd32b059	-0.04362521
112	0x3e1ffe2c	0.15624303
113	0xbd6a2440	-0.057163477
114	0xbe6da3a3	-0.23206954
115	0x3f5a706a	0.8532778
116	0xbdc6542c	-0.09684023
117	0xbdefa77d	-0.11701868
118	0xbe01a584	-0.12660795
119	0x3eb7dd47	0.3591101
120	0x3eba8c19	0.3643501
121	0x3ed2d2a6	0.41176337
122	0xbdef81a2	-0.11694647
123	0x3de9b36b	0.114111744
124	0xbf485923	-0.7826101
125	0x3e3f6a87	0.1869298
126	0xbd9ff3e0	-0.07810187
127	0x3ef7dc69	0.48410347
128	0x3df404d5	0.11914984
129	0xbebc61c5	-0.36793342
130	0xbf20b37c	-0.6277387
131	0x3e086a0b	0.13321702
132	0x3b1e7d64	0.0024183625
133	0xbd9e1708	-0.077192366
134	0x3e9b7379	0.30361536
135	0x3e23a9f2	0.15982798
136	0xbce9a687	-0.02852179
137	0x3f8936b7	1.0719823
138	0x3e78d15e	0.24298617
139	0xbccfb3a0	-0.025354207
140	0x3bfc6a0a	0.0077030705
141	0x3e1cd01f	0.15313767
142	0x3f2e9679	0.68198353
143	0x3caa91f5	0.02082155
144	0x3dd5d29b	0.104405604
145	0xbec66858	-0.38751483
146	0x3e2bceb0	0.16778064
147	0x3daef4b7	0.085427694
148	0xbee23fb2	-0.4418922
149	0x3e320b75	0.17387183
150	0x3e0b6267	0.13611756
151	0x3e432472	0.19056872
152	0x3e307c49	0.17234911
153	0x3ecc2b1c	0.3987664
154	0xbd9a5a04	-0.075367
155	0xbef6f11d	-0.4823083
156	0x3dc48330	0.095953345
157	0x3e0bd70b	0.13656251
158	0xbb25031c	-0.0025178855
159	0x3e950e3e	0.29112428
160	0xbf2cc130	-0.6748228
161	0xbfb83892	-1.4392264
162	0xbe0c88f9	-0.13724126
163	0x3e3ea843	0.18618874
164	0x3db70302	0.089361206
165	0x3e627359	0.22114314
166	0x3e4700f4	0.19433957
167	0x3ccea2c7	0.025224103
168	0xbe2e098f	-0.16995834
169	0x3eb8159d	0.3595399
170	0x3ed5fea1	0.4179583
171	0xbe097e96	-0.13427195
172	0x3d17619f	0.036958333
173	0x3e8d8d3d	0.2764682
174	0x3e26e08a	0.16296592
175	0x3d979a71	0.07402504
176	0xbecee178	-0.40406394
177	0xbf05a6d9	-0.52207714
178	0x3e9bad22	0.30405527
179	0x3ddaa426	0.1067584
180	0xbe9b8931	-0.30378106
181	0x3e13c2af	0.14429735
182	0x3e3fa9f9	0.18717183
183	0xbdfb1a31	-0.12260855
184	0x3f231792	0.6370784
185	0x3c8c8833	0.017154789
186	0x3e0c427e	0.1369724
187	0xbf2ea527	-0.6822075
188	0x3e09286b	0.13394324
189	0x3d1f0f26	0.038832806
190	0xbd26ff96	-0.04077109
191	0x3c843786	0.016139757
192	0x3df5e3fe	0.12006377
193	0x3e1a5200	0.15070343
194	0xbb4f20cc	-0.0031605242
195	0xbd8dd9e9	-0.06926329
196	0x3e92bb49	0.28658512
197	0xbef20ec0	-0.47276878
198	0xbe2dc411	-0.16969325
199	0x3e2aa21e	0.16663405
200	0xbdf2c659	-0.11854238
201	0x3c15cfe3	0.009143802
202	0x3d2b97f1	0.04189295
203	0xbe4a1112	-0.19733074
204	0xbcae5eee	-0.0212855
205	0xbde7922f	-0.11307179
206	0xbd844e52	-0.06460251
207	0x3e05c9d7	0.13065277
208	0xbcc4a3fb	-0.024003973
209	0xbd346c00	-0.04404831
210	0xbb91dd86	-0.0044514565
211	0xbd79d9aa	-0.060998596
212	0xbe81e46c	-0.25369585
213	0x3e360edf	0.1777911
214	0x3e1dcc30	0.15409923
215	0xbc8d19c4	-0.0172242
216	0xbdc6c06d	-0.09704671
217	0x3e051f64	0.13000256
218	0xbe834e41	-0.2564564
219	0xbdf5ee66	-0.120083615
220	0xbc8c09fb	-0.017094603
221	0xbdb769f1	-0.089557536
222	0xbe58377a	-0.21114913
223	0x3cbf1ebd	0.023330087
224	0xbe3420b7	-0.17590605
225	0xbe626618	-0.22109258
226	0xbb7583a6	-0.0037462502
227	0xba8025c0	-0.0009776875
228	0xbe1c07e4	-0.15237385
229	0x3d4db0bf	0.050217386
230	0x3d837edf	0.06420683
231	0xbe601863	-0.21884303
232	0xbd7e4225	-0.0620748
233	0xbdeec880	-0.11659336
234	0xbe0a57d3	-0.13510065
235	0x3d3e02aa	0.04638926
236	0xbe30b677	-0.17257105
237	0xbca7dd67	-0.020491315
238	0xbdcf5777	-0.101241045
239	0x3d7965a7	0.06088796
240	0x3e2b97a3	0.16757064
241	0xbe89cf7e	-0.26916116
242	0xbdffbd8b	-0.12487324
243	0xbda36ba5	-0.07979516
244	0xbd77874c	-0.060431764
245	0xbe0c7358	-0.13715875
246	0xbe11075b	-0.14162962
247	0xbddf242f	-0.10895573
248	0xbdec1626	-0.11527662
249	0xbd60eac2	-0.054911382
250	0xbd30095e	-0.042977683
251	0x3dd5672e	0.104200706
252	0xbd9c7432	-0.0763935
253	0x3d4d08db	0.050057273
254	0xbda37fbc	-0.07983348
255	0x3e746f24	0.23870522

fc3.bias f4 [50]
0	0x3d5aea8b	0.053446334
1	0xbd2847b7	-0.041084018
2	0xbe0e5732	-0.1390045
3	0x3e2ebcd7	0.17064224
4	0x3d818fbe	0.06326245
5	0xbe85904d	-0.26086655
6	0x3dba9439	0.091103025
7	0xbca00765	-0.019534776
8	0x3ebc23c2	0.3674603
9	0xbdf3f846	-0.11912589
10	0x3e94fafd	0.2909774
11	0x3dab1552	0.08353676
12	0x3d3a923a	0.04554961
13	0x3e7297a1	0.23690654
14	0x3e6564e6	0.22401771
15	0xbe393793	-0.18087606
16	0xbd904a9f	-0.07045483
17	0xbc8139c8	-0.015774623
18	0x3df82784	0.12116912
19	0x3d773e8d	0.060362387
20	0x3ec7e531	0.39042047
21	0xbd8b7304	-0.06809047
22	0xbd40b88b	-0.047050994
23	0x3da36d7f	0.07979869
24	0xbdcd3c00	-0.1002121
25	0xbe788b40	-0.2427187
26	0x3cbaa8ac	0.022785507
27	0x3df26a74	0.118367106
28	0xbc4140a9	-0.011795201
29	0x3cb188a8	0.021671608
30	0x3e78b44b	0.24287526
31	0xbd1cb061	-0.038254146
32	0xbcefd4e4	-0.029276319
33	0x3e9b57fb	0.3034056
34	0x3df04019	0.11730976
35	0x3d5d4e8e	0.054029994
36	0xbddff4f8	-0.10935396
37	0x3d1ccee2	0.038283236
38	0x3c3b4510	0.01143004
39	0x3d1cb37b	0.038257103
40	0x3d094291	0.03351075
41	0x3ee6e698	0.45097804
42	0x3e98db2d	0.29854718
43	0xbe12eb2f	-0.14347528
44	0xbe08210d	-0.13293858
45	0x3ddea623	0.10871532
46	0xbe283959	-0.16428126
47	0x3d05c530	0.032658756
48	0xbe248019	-0.1606449
49	0xbe10bf65	-0.14135511

fc4.weight f4 [2, 50]
0	0xbd33a9b3	-0.04386301
1	0x3e7c442a	0.24635378
2	0xbdef21a3	-0.116763376
3	0x3ef38051	0.47558835
4	0x3e2c067e	0.16799352
5	0x3d696b96	0.056987368
6	0x3b9d0fe1	0.0047931527
7	0xbe97ab6f	-0.2962298
8	0xbfb51183	-1.4145969
9	0xbda195f0	-0.078899264
10	0x3e899f81	0.26879504
11	0xbf1b1346	-0.60576284
12	0xbd8e18b9	-0.06938309
13	0x3dbf4465	0.09339217
14	0x3e32f21b	0.17475168
15	0xbf16cdee	-0.58907974
16	0x3c8bbd87	0.017058147
17	0xbdfdc8fa	-0.12391849
18	0x3e746c81	0.23869516
19	0xbdf1da8a	-0.11809261
20	0x3fb22156	1.3916423
21	0xbfad7d2f	-1.3553828
22	0xbdab3373	-0.083594225
23	0x3dda629b	0.10663339
24	0x3d10d933	0.035363387
25	0x3f590aec	0.8478229
26	0x3e849a2c	0.25898874
27	0xbf53955f	-0.826498
28	0x3c5e209b	0.013557578
29	0x3dd4d5f6	0.10392372
30	0xbf805a3e	-1.002754
31	0xbd2aa89c	-0.041664705
32	0xbd069577	-0.032857385
33	0x3e78b95c	0.24289459
34	0x3dfafcce	0.1225525
35	0xbf2ce528	-0.67537165
36	0x3d82a276	0.06378643
37	0x3db97f9b	0.09057542
38	0xbdc0646c	-0.09394154
39	0x3ed06205	0.40699783
40	0x3ea0c8bd	0.3140315
41	0x3e8b2bca	0.27181846
42	0x3eb24a36	0.34822243
43	0xbcb140b0	-0.02163729
44	0x3d319593	0.043355536
45	0x3e0c82ef	0.13721822
46	0xbd315aa7	-0.043299343
47	0xbd0c13d3	-0.034198593
48	0xbef3ed79	-0.47642115
49	0x3d55e0d8	0.05221638
50	0x3d09ba64	0.03362502
51	0xbe04be68	-0.12963259
52	0x3d8fe64a	0.07026346
53	0xbeda1354	-0.4259287
54	0xbe32f382	-0.17475703
55	0x3d98a36f	0.074530475
56	0xbe446de0	-0.19182539
57	0x3e8d3bfa	0.2758482
58	0x3fca3a4e	1.5799043
59	0x3c6e8c72	0.014559852
60	0xbeb0d555	-0.3453776
61	0x3f0c91cc	0.5490997
62	0xbe03453b	-0.12819378
63	0xbd6e9967	-0.058251765
64	0xbd5f81b1	-0.054567043
65	0x3f2b5bfe	0.66937244
66	0xbd975452	-0.0738913
67	0x3da39493	0.07987323
68	0xbe0fc50a	-0.14040008
69	0xbe1562d6	-0.14588484
70	0xbf977af6	-1.18344
71	0x3faa8c64	1.3324094
72	0xbda06203	-0.07831194
73	0xbd48d4b0	-0.04903096
74	0x3dd8e0fb	0.105897866
75	0xbf46508b	-0.7746665
76	0xbd8b9364	-0.06815222
77	0x3f4a6f21	0.7907582
78	0xbe08ccaf	-0.1335933
79	0xbe5518ae	-0.20810196
80	0x3f81139f	1.0084113
81	0x3b9686fb	0.0045937276
82	0xbd7e86bb	-0.062140208
83	0xbe06ee4d	-0.13176842
84	0xbdb999ea	-0.0906256
85	0x3efb0c8d	0.49033013
86	0x3d6f815b	0.058472972
87	0xbe05024f	-0.12989162
88	0xbcb78f66	-0.022407245
89	0xbed7bf78	-0.42138267
90	0xbea239d3	-0.3168474
91	0xbef16566	-0.47147673
92	0xbeb855cd	-0.3600296
93	0xbd04daae	-0.03243511
94	0x3db09057	0.08621281
95	0x3d23a167	0.039948847
96	0x3b359f11	0.002771322
97	0xbe00cfa7	-0.12579213
98	0x3f258f26	0.6467155
99	0x3d96c2f4	0.07361403

fc4.bias f4 [2]
0	0x3e87e1a0	0.26539326
1	0xbe40f26d	-0.18842478
