examples/fdia/fdia_model_ffnn_pytorch.onnx (onnx, 185117 bytes, 6 tensors)

fc1.weight f4 [200, 128]
0	0x3de37497	0.11106222
1	0xbe8501e0	-0.25977993
2	0xbde4368a	-0.11143215
3	0x3da4bd1b	0.080438815
4	0x3db36aea	0.087606266
5	0xbe01d038	-0.12677085
6	0xbca3483a	-0.019931901
7	0x3e0d5713	0.13802747
8	0xbcc108d8	-0.023563787
9	0xbbd6c179	-0.0065538255
10	0xbd2631e0	-0.04057491
11	0xbc52ed18	-0.01287391
12	0xbd519d42	-0.051175363
13	0x3d81fbfe	0.06346892
14	0x3cba3990	0.022732526
15	0xbc8520ca	-0.016250987
16	0xb9cb9088	-0.0003882686
17	0x3d3ff0f6	0.046860658
18	0xbd862b8d	-0.065512754
19	0x3d201537	0.039082732
20	0xbd65a94f	-0.05606967
21	0xbd67ca4d	-0.056589413
22	0x3d041620	0.032247663
23	0x3c04bf68	0.008102275
24	0x3d242ca4	0.040081635
25	0xbcf66141	-0.030075671
26	0xbc0adee7	-0.008475996
27	0xbd6e0247	-0.05810764
28	0x3c6e4a2e	0.014544053
29	0x3c4f3008	0.012645729
30	0x3d245543	0.040120374
31	0x3e0f1d44	0.13976008
32	0x39cac47b	0.00038674832
33	0x3c0d01ac	0.008606356
34	0x3e36d88c	0.17856044
35	0x3d26b1ed	0.040697027
36	0x3e41f95b	0.18942778
37	0xbc0e87c4	-0.008699361
38	0x3e21407c	0.15747255
39	0x3d8383df	0.06421637
40	0x3d618343	0.05505682
41	0x3d068a6a	0.032846846
42	0xbdd0b102	-0.101900116
43	0x3c88141b	0.01661115
44	0x3db080a0	0.08618283
45	0x3d0cd236	0.03438016
46	0x3b2e3db1	0.0026587064
47	0xbc60974c	-0.013707947
48	0x3d7802d9	0.06054959
49	0xbcbf9907	-0.023388399
50	0xbddb2446	-0.10700278
51	0xbd1b79d1	-0.03795797
52	0x39381cd3	0.00017558345
53	0x3d4c004b	0.049804967
54	0x3c202618	0.009774707
55	0x3d62ea5f	0.055399295
56	0xbc321788	-0.010869868
57	0xbc2573d4	-0.010098416
58	0x3dec7e83	0.11547568
59	0x3e043da9	0.12914146
60	0x3d370b46	0.044688486
61	0x3d56de7a	0.052458264
62	0x3d6b6a32	0.057474323
63	0x3e07931c	0.13239712
64	0xbc83639f	-0.016038714
65	0x3e5e829e	0.21729514
66	0x3e2d477e	0.16921803
67	0x3d80244f	0.06256925
68	0xbdd6fac0	-0.104970455
69	0xbddd87de	-0.1081693
70	0xbc213b16	-0.009840747
71	0x3dda4523	0.10657718
72	0x3d61ca87	0.055124786
73	0xbc9db4f8	-0.019251332
74	0xbc766023	-0.015037569
75	0x3cf258e1	0.029583396
76	0xbcb4e473	-0.02208159
77	0x3d0a6cf4	0.033795312
78	0xbbb84447	-0.0056233737
79	0x3cbbc363	0.022920316
80	0xbc58e6c4	-0.013238613
81	0x3b171921	0.002305575
82	0x3d9719cd	0.07377968
83	0xbc144716	-0.009050151
84	0xbdb206b4	-0.08692685
85	0xbd4ba7b4	-0.04972048
86	0xbcb29100	-0.021797657
87	0x3e0f5d33	0.14000396
88	0xbde6d7c1	-0.112716205
89	0x3de4295e	0.11140703
90	0xbb2e1007	-0.0026559846
91	0x3d906709	0.070509024
92	0xbcdd7e67	-0.027037812
93	0x3e011c69	0.12608494
94	0x3d018681	0.031622414
95	0x3ccfde0d	0.025374437
96	0x3df7cb8e	0.12099372
97	0x3d9f0c99	0.07766075
98	0x3dcff572	0.10154237
99	0x3c897060	0.016777217
100	0xbdf588f7	-0.119890146
101	0x3e0a4ecb	0.1350662
102	0xbcfc4a7b	-0.030797234
103	0x3ccbb9be	0.024868842
104	0xbc614351	-0.01374896
105	0x3dca4aa5	0.098775186
106	0xbcbda5ac	-0.023150288
107	0x3a7ec50d	0.0009718694
108	0x3d4a3ae3	0.049372565
109	0x3df73986	0.120715186
110	0x3c626aea	0.013819436
111	0x3d9c8463	0.07642438
112	0x3d83a859	0.06428594
113	0xbe21f135	-0.1581467
114	0xbda9fad7	-0.08299797
115	0x3daefb7e	0.08544062
116	0xbccb9200	-0.024849892
117	0xbc7a4432	-0.015275048
118	0x3c16e44e	0.0092097055
119	0x3afd37c6	0.001931899
120	0x3c379ca0	0.011206776
121	0x3d78095c	0.0605558
122	0x3d9eed3b	0.07760092
123	0xbd9d75af	-0.07688462
124	0x3d236530	0.03989142
125	0x3cb4f158	0.022087738
126	0xbd0f6b4e	-0.035014443
127	0x3b82371a	0.003973854
128	0xbd011c90	-0.03152138
129	0x3e760c11	0.2402804
130	0x3dc19c0d	0.094535924
131	0x3d4a2078	0.04934737
132	0x3d8a1528	0.067423165
133	0x3d83a1a7	0.06427317
134	0x3d591a93	0.05300386
135	0x3e0c5975	0.13706
136	0x3d3784f7	0.04480454
137	0x3d4e833c	0.050418124
138	0xbc932e11	-0.017966302
139	0xbd9b5ab9	-0.07585663
140	0xbda1aedc	-0.0789468
141	0xbdc850c3	-0.09781029
142	0x3e70af3f	0.23504351
143	0x3d29c8ea	0.041451372
144	0x3cd682b8	0.026185378
145	0x3d7b1629	0.06130043
146	0xbd3015fc	-0.042989716
147	0x3da47b21	0.080312975
148	0x3cda9aeb	0.026685199
149	0x3e076f83	0.13226132
150	0x3e5e8084	0.21728712
151	0x3d87e04c	0.06634578
152	0xbd99243d	-0.07477615
153	0xbc2e77fb	-0.010648723
154	0x3e029215	0.12751038
155	0xbdb08f1f	-0.08621048
156	0xbd34d60d	-0.044149447
157	0x3ea42ded	0.3206629
158	0xbe910dd5	-0.28330866
159	0x3eb69de8	0.35667348
160	0x3d0f615d	0.035004962
161	0x3de92703	0.11384394
162	0x3e3ff040	0.18743992
163	0x3e28a0fb	0.16467659
164	0x3d7611a2	0.06007541
165	0x3e65326f	0.2238252
166	0x3d0b2aed	0.033976484
167	0xbdb1a4aa	-0.08673985
168	0xbd29ffa8	-0.04150358
169	0xbd825bdb	-0.06365176
170	0xbd6bc2a7	-0.05755868
171	0x3dc42acc	0.09578475
172	0xbd05fb98	-0.03271064
173	0xbd82c997	-0.063861065
174	0x3d353bdb	0.044246536
175	0x3b15ccff	0.0022857783
176	0xbceb9607	-0.028758062
177	0x3e0dc7cd	0.13845749
178	0x3e49de07	0.19713603
179	0x3e1bb372	0.15205172
180	0x3d952364	0.07282141
181	0xbc87c5b3	-0.016573763
182	0xbd5d2b33	-0.053996276
183	0x3d9a1346	0.07523207
184	0x3cd703b0	0.026246876
185	0xbb9ca7cb	-0.0047807447
186	0x3dfb38b2	0.12266673
187	0xbed87c3c	-0.42282283
188	0x3e3c5a37	0.18393789
189	0xbc5b7c15	-0.013396283
190	0x3e693479	0.22773923
191	0x3d236115	0.039887507
192	0x3c81ea42	0.015858773
193	0x3d7d0c46	0.061779283
194	0x3e9bd023	0.30432233
195	0xbd1cc445	-0.038273115
196	0x3d328203	0.04358102
197	0xbd95d1d9	-0.07315416
198	0xbcc509bd	-0.024052495
199	0xbb6694ab	-0.0035183828
200	0x3e839856	0.2570216
201	0x3d5b1ddf	0.053495284
202	0xbd204ce5	-0.039135832
203	0x3cfe1f36	0.031020742
204	0xbc66908f	-0.014072551
205	0xbd8bc96c	-0.068255275
206	0xbbb3a388	-0.005482141
207	0x3ed7884a	0.42096168
208	0x3e8d7f6c	0.27636278
209	0xbcbd3420	-0.023096144
210	0x3c90cfe6	0.017677259
211	0x3d841492	0.06449236
212	0xbd871919	-0.06596584
213	0xbd3490b9	-0.04408333
214	0xbd5b6155	-0.05355962
215	0x3cd6eea6	0.026236843
216	0x3d097c01	0.033565525
217	0x3d29debf	0.041472193
218	0xbcd1a520	-0.025591433
219	0x3e4e4cd4	0.20146495
220	0x3d7d38ad	0.06182163
221	0x3da8ebf4	0.082481295
222	0x3ce709f0	0.02820298
223	0x3dfb40d5	0.12268225
224	0xbd2794c6	-0.040913366
225	0x3d630dac	0.05543296
226	0xbc5ae349	-0.013359853
227	0xbb34b255	-0.0027572114
228	0xbda9960e	-0.08280574
229	0x3eb5725f	0.3543882
230	0xbda8e81e	-0.08247398
231	0x3cb42fe6	0.021995496
232	0x3ce51207	0.027962698
233	0x3e7187d7	0.23586975
234	0x3e0c3678	0.13692653
235	0x3d1b9c04	0.037990585
236	0x3eafde31	0.34349206
237	0x3eb47b52	0.35250336
238	0x3c5cb28c	0.013470303
239	0xbcae205c	-0.021255665
240	0xbce0449e	-0.02737647
241	0x3e378d0d	0.179249
242	0xbd0e9e71	-0.03481907
243	0x3d1b1484	0.037861362
244	0x3c8e3227	0.017357899
245	0x3d14e013	0.036346506
246	0x3d970e71	0.07375801
247	0x3b53a50b	0.0032294418
248	0x3b322ab6	0.0027186102
249	0xbc723a13	-0.014784354
250	0x3d1f7e67	0.038938906
251	0xbcc048b9	-0.023472177
252	0xbd7fc9fe	-0.062448494
253	0xbbf3de67	-0.007442284
254	0x3cb656b1	0.022258135
255	0xbd20e153	-0.039277386

fc1.bias f4 [200]
0	0x3d4c80e0	0.049927592
1	0xbd8ea234	-0.069645315
2	0x3c9ba29a	0.018998433
3	0x3dc945f7	0.09827798
4	0xbd045118	-0.0323039
5	0x3a9af57e	0.001182243
6	0xbc2c6857	-0.010522923
7	0xbdb43e64	-0.088009626
8	0xbc23de26	-0.010001695
9	0xbc9d9cc7	-0.019239796
10	0x3d4e3ca1	0.05035079
11	0x3d8a677a	0.06758018
12	0xbda8df6a	-0.08245738
13	0xbd8abd17	-0.06774347
14	0xbc856b83	-0.016286617
15	0x3da3e04a	0.08001764
16	0x3d1e0032	0.038574405
17	0x3c5f8fad	0.013645095
18	0xbb07372a	-0.0020632246
19	0xbda83e70	-0.08215034
20	0x3d878fed	0.066192485
21	0x3bd5d443	0.0065255477
22	0x3ce9bd65	0.028532693
23	0xbd93bc8c	-0.07213697
24	0xbd8bf4bd	-0.068337895
25	0x3b8b34b2	0.004248225
26	0x3d18d1c2	0.037309416
27	0xbd18b499	-0.037281606
28	0x3dab12ad	0.083531715
29	0xbb2e811f	-0.0026627255
30	0xbd7d2f84	-0.061812893
31	0x3d94da37	0.07268184
32	0xbc46b4eb	-0.012128095
33	0xbdbcb379	-0.09213919
34	0x3cf44a1c	0.029820494
35	0xbdacd90b	-0.08439835
36	0xbc8c4949	-0.017124789
37	0xbd69ba5c	-0.05706249
38	0xbdbbd952	-0.0917231
39	0x3d41a87c	0.04727982
40	0xbd9f052e	-0.0776466
41	0xbca89db0	-0.020583004
42	0xbb82dd63	-0.0039936765
43	0xbd9b9d51	-0.07598365
44	0xbd0e1726	-0.034690045
45	0x3d75f0a7	0.060043957
46	0x3d98208a	0.07428081
47	0xbcb1836d	-0.021669114
48	0xbdaaac98	-0.08333701
49	0xbd0021cc	-0.03128223
50	0xbd207665	-0.03917541
51	0xbcd6a822	-0.026203219
52	0x3db2062c	0.086925834
53	0x3b13b667	0.002253914
54	0xbc11f2d3	-0.008907991
55	0xbce4a2f2	-0.02790973
56	0x3d33dee4	0.043913737
57	0xbd9b30db	-0.07577678
58	0x3d830f14	0.0639936
59	0xbbfa8917	-0.007645737
60	0xbb957b41	-0.004561812
61	0xbd6a9c74	-0.05727811
62	0x3d085e5b	0.03329311
63	0xbd3ce7c4	-0.046119466
64	0xbc3e613a	-0.01161986
65	0xbdc4717b	-0.09591957
66	0x3d98c533	0.07459488
67	0x3dab74f8	0.083719194
68	0x3b0897df	0.0020842475
69	0x3d18f575	0.03734346
70	0xbd0045e4	-0.031316653
71	0xbda3cf1f	-0.079984896
72	0xbd3f5546	-0.046712182
73	0xbd4ff514	-0.050770834
74	0x3d50b5e4	0.050954714
75	0x3cec67cc	0.028858088
76	0x3d96c4f1	0.07361782
77	0xbd94feea	-0.072751835
78	0x3cca9f81	0.02473426
79	0xbdc999a2	-0.09843756
80	0x3db67ce3	0.08910539
81	0x3d92458d	0.07142172
82	0xbdc2e1ad	-0.095157005
83	0xbc26a4e8	-0.010171153
84	0x3dba3079	0.09091277
85	0x3cc13c3a	0.023588289
86	0x3b7f08b8	0.003891511
87	0x3d7a7ad0	0.06115228
88	0x3d1485b6	0.03626033
89	0x3d4306ab	0.04761378
90	0xbddf1eb4	-0.10894528
91	0x3d6dd930	0.058068454
92	0x3c5ef1ab	0.013607423
93	0x3d8e91e9	0.06961424
94	0xbd972fa5	-0.07382134
95	0x3ca82c36	0.020528894
96	0x3d64ba2d	0.055841614
97	0xbc97c809	-0.018528001
98	0xbdad5fcd	-0.08465538
99	0x3d59f4dc	0.05321203
100	0xbd68e409	-0.056858096
101	0x3d79eb4c	0.061015412
102	0x3ca2b893	0.019863402
103	0xbade8c1a	-0.0016979009
104	0xbd8fbe0f	-0.07018673
105	0xbd4fc55e	-0.050725333
106	0xbb05d9e0	-0.0020424053
107	0x3bdaddc2	0.0066792676
108	0x3d6c22e0	0.057650447
109	0xbd5ba05a	-0.05361972
110	0x3d954a23	0.07289531
111	0xbd842edc	-0.0645425
112	0x3bb240a0	0.005439833
113	0x3d7fce2b	0.062452476
114	0x3b4fffa7	0.0031738074
115	0xbcd8afae	-0.026450958
116	0x3d9177fa	0.07102962
117	0x3beccae6	0.007226336
118	0xbb10ebc0	-0.0022113174
119	0xbcf51a84	-0.02991987
120	0x3d8b6eda	0.06808253
121	0xbd3130f7	-0.043259587
122	0xbdb5782e	-0.08860813
123	0xbd595987	-0.053063896
124	0xbc8d5b35	-0.017255405
125	0xbccbc60a	-0.024874706
126	0xbce4e511	-0.027941259
127	0x3d9d0f55	0.0766894
128	0xbdbb920f	-0.09158718
129	0xbd552065	-0.052032847
130	0x3d96f78f	0.07371437
131	0x3cec2ace	0.028829005
132	0x3daee82e	0.085403785
133	0x3d9053dc	0.07047245
134	0xbd058b90	-0.0326038
135	0xba2a8255	-0.00065044063
136	0xbdc52600	-0.096263885
137	0xbd3b2f64	-0.045699492
138	0xbd9a75e4	-0.07542017
139	0xb9b50a77	-0.00034530807
140	0x3cde6898	0.027149484
141	0x3c52aea4	0.01285902
142	0xbbc8990a	-0.0061217593
143	0x3cb7e693	0.022448814
144	0x3dc66f15	0.09689156
145	0x3c2f19fa	0.010687346
146	0xbd961e42	-0.0732999
147	0x3d7e2239	0.062044356
148	0xbd911818	-0.07084674
149	0x3c4640cf	0.0121004125
150	0xbc1d5f0d	-0.009605181
151	0xbb493311	-0.0030700604
152	0xbda59508	-0.08085066
153	0x3d295881	0.04134417
154	0x3b7a2e75	0.0038174663
155	0x3d31b8f0	0.04338926
156	0x3d4fb0a0	0.050705552
157	0x3ce97407	0.028497709
158	0x3a9c1b8a	0.0011910063
159	0xbcbf900b	-0.023384115
160	0x3d565287	0.052324798
161	0x3d729504	0.059224144
162	0x3cfe40bb	0.031036725
163	0x3d0982fc	0.033572182
164	0xbd36898d	-0.044564772
165	0xbd1ccba4	-0.038280144
166	0x3d887abf	0.06664037
167	0x3d6014cc	0.054707333
168	0x3cc0d50f	0.023539094
169	0xbce53cd2	-0.027983103
170	0xbd7d804f	-0.061889943
171	0x3d43fb84	0.047847286
172	0x3d9d03dc	0.07666752
173	0xbbd55c71	-0.006511264
174	0xbd91e9c4	-0.071246654
175	0x3da0076d	0.07813916
176	0x3cd9fe34	0.026610471
177	0x3d833328	0.06406242
178	0x3d7102b3	0.058840465
179	0xbd9f8ef3	-0.07790937
180	0xbd8ab882	-0.06773473
181	0xbda241e7	-0.07922726
182	0xbd0fd6c9	-0.035116944
183	0x3da511a6	0.08060007
184	0x3daffb95	0.08592907
185	0xbd20ddb0	-0.039273918
186	0x3d8d7569	0.0690716
187	0x3b91ffc7	0.00445554
188	0x3cacca83	0.021092659
189	0xbdb8195b	-0.08989211
190	0xbd71f7c2	-0.05907417
191	0xbc08800c	-0.00833131
192	0x3d8bddaa	0.068293884
193	0x3d04555f	0.03230798
194	0x3da7404a	0.08166559
195	0xbdb77f77	-0.08959859
196	0x3b874866	0.0041285036
197	0x3d12d8c3	0.03585125
198	0xbd397e8b	-0.045286696
199	0x3d59dc92	0.053188868

fc2.weight f4 [100, 200]
0	0x3d5dd266	0.05415573
1	0x3de90d11	0.11379445
2	0x3dba5117	0.09097498
3	0x3e4a7492	0.1977103
4	0xbcdc7ae6	-0.026914071
5	0xbde5e4fa	-0.112253144
6	0x3e247502	0.1606026
7	0x3d13bf00	0.036070824
8	0x3d772547	0.060338285
9	0x3eaab4cf	0.3334107
10	0x3d708f5a	0.05873046
11	0x3ced6b7a	0.028981913
12	0xbccf4361	-0.025300683
13	0x3d1a2a6e	0.03763812
14	0xbd52a085	-0.051422615
15	0xbd863d55	-0.06554667
16	0x3d005057	0.031326618
17	0x3d88c287	0.06677728
18	0x3caa190e	0.0207639
19	0x3e017ed2	0.12646034
20	0xbcb66ec5	-0.022269616
21	0x3d7174ea	0.05894939
22	0x3e4c4f2e	0.1995208
23	0x3c9dab87	0.01924683
24	0x3da2357c	0.079203576
25	0x3cfe7270	0.031060427
26	0xbe2c14fc	-0.1680488
27	0x3d49118f	0.04908901
28	0xbbe2a671	-0.006916814
29	0xbb8c5a25	-0.004283207
30	0x3d9695a6	0.07352762
31	0x3bb0b4fc	0.005392669
32	0xba3286c5	-0.00068102434
33	0x3e008b5c	0.12553161
34	0xbd6679c0	-0.056268454
35	0xbc6b8b1e	-0.01437643
36	0xbd33f6f1	-0.043936674
37	0xbd2b8227	-0.04187217
38	0x3d1f72f4	0.038927987
39	0x3dd77406	0.105201766
40	0x3d618604	0.055059448
41	0x3d8e50cc	0.069490045
42	0xbd281189	-0.041032348
43	0xbd966946	-0.07344298
44	0xbd5130a0	-0.051071763
45	0xbd394ae1	-0.045237426
46	0xbd806b87	-0.06270509
47	0x3c9e79cf	0.019345192
48	0x3d2cfb58	0.042231888
49	0xbe45203e	-0.1925058
50	0x3cc93106	0.024559509
51	0x3bdd8ced	0.0067611844
52	0x3ce4c5bf	0.027926324
53	0xbd203e1b	-0.03912173
54	0x3d8ad933	0.06779709
55	0x3c02d92f	0.007986351
56	0xbe134a20	-0.14383745
57	0x3d972d0e	0.073816404
58	0xbdaeabb7	-0.08528846
59	0x3e1bb82f	0.15206979
60	0xbb8d582f	-0.004313491
61	0xbd547649	-0.051870618
62	0x3ce3b849	0.027797835
63	0x3d3b2b93	0.045695852
64	0x3d8f91af	0.07010209
65	0x3d694c4d	0.05695753
66	0x3da45202	0.08023454
67	0xbbd97ace	-0.006636954
68	0xbc901523	-0.017588204
69	0x3d9718ca	0.07377775
70	0xbc945c31	-0.018110367
71	0xbc259fab	-0.010108869
72	0xbd2817d3	-0.041038346
73	0xbe6aff0d	-0.22948857
74	0x3e6ac4b4	0.22926599
75	0x3df7ed15	0.12105767
76	0x3d9e6376	0.077338144
77	0xbe02b359	-0.12763728
78	0xbc9fd2c7	-0.019509686
79	0xbd01b7cb	-0.03166942
80	0xbaeeea66	-0.0018227815
81	0xbb8ba8ba	-0.004262057
82	0xbcc1d1c2	-0.02365959
83	0x3c986947	0.018604888
84	0x3c6a1a3e	0.014288483
85	0x3dddd10c	0.10830888
86	0x3e19f84e	0.15036127
87	0x3e11adfc	0.14226526
88	0x3dff89ee	0.1247748
89	0x3d6f621e	0.05844318
90	0x3e29ea26	0.16593227
91	0x3d9793a5	0.07401208
92	0x3deaac6e	0.114586696
93	0x3d97dce1	0.07415176
94	0x3ca432a6	0.020043682
95	0x3dc16894	0.09443775
96	0x3d45b1aa	0.048265137
97	0x3d5912b8	0.052996367
98	0x3d834dce	0.064113244
99	0xbe8e95ea	-0.2784875
100	0xbbcd5456	-0.006266157
101	0xbcdb3e33	-0.026763057
102	0x3dafad39	0.085779615
103	0x3d285cb2	0.041104026
104	0x3da8abd4	0.082358986
105	0x3d1e9a41	0.038721327
106	0x3ca130d2	0.0196766
107	0xbb2fd153	-0.0026827648
108	0x3d16bbdf	0.03680026
109	0x3d9e42aa	0.07727559
110	0x3df9bc22	0.121940866
111	0x3e547647	0.20748244
112	0x3d042d77	0.03226992
113	0xbc666645	-0.014062469
114	0x3da7eda9	0.08199627
115	0x3d8f805a	0.07006903
116	0xbd92f4c1	-0.07175589
117	0x3dd9b7e4	0.106307775
118	0xbc70bb5b	-0.0146931065
119	0xbd88c5cb	-0.06678351
120	0x3d22e802	0.03977204
121	0x3dbe9ff9	0.09307856
122	0x3d72d0b1	0.059281055
123	0x3d470d2c	0.048596546
124	0x3d0c1744	0.034201875
125	0x3e180e27	0.14849149
126	0xbc5c7927	-0.013456619
127	0x3c90d5cf	0.017680077
128	0xbd8ad818	-0.06779498
129	0x3d19b046	0.037521623
130	0x3d780e70	0.060560644
131	0x3c9199f1	0.0177736
132	0xbcabe6e7	-0.020984126
133	0xbd03bae9	-0.032160673
134	0xbe93f561	-0.28898147
135	0x3e249a5d	0.1607451
136	0x3bed8b3c	0.007249264
137	0xbd7e736d	-0.062121797
138	0x3d062413	0.032749247
139	0xbc8a1f67	-0.016860677
140	0x3f3d3a43	0.73917025
141	0x3da5c6fb	0.08094593
142	0x3d5d3ee1	0.054015044
143	0x3e102c90	0.14079499
144	0x3d080b78	0.033214062
145	0x3d851d96	0.06499784
146	0x3dca7793	0.09886088
147	0x3dd9df52	0.10638298
148	0x3d3f2849	0.04666928
149	0x3e30414d	0.1721241
150	0xbe2b01a4	-0.16699845
151	0xbc835f3f	-0.016036628
152	0x3c161183	0.009159449
153	0x3d4e4cd6	0.050366245
154	0xbe2f43d4	-0.17115718
155	0xbbeacb98	-0.0071653835
156	0x3c12e033	0.008964586
157	0xbd5632b3	-0.052294444
158	0x3dffdc74	0.1249322
159	0xbd8aad11	-0.06771291
160	0x3e81b027	0.25329706
161	0x3d80e8aa	0.06294377
162	0xbda59501	-0.08085061
163	0xbdf9f09b	-0.12204095
164	0x3e78f3a2	0.24311689
165	0x3ddc1b50	0.10747397
166	0xbd72feae	-0.059324913
167	0x3d4c596b	0.049889963
168	0x3d61ac78	0.05509612
169	0xbe221ad1	-0.15830542
170	0x3d9a11e2	0.07522942
171	0x3cc04d07	0.02347423
172	0x3cbdd503	0.023172861
173	0xbbc766e4	-0.0060852636
174	0x3ce432f7	0.027856333
175	0x3dbe9e05	0.093074836
176	0xbd023e5b	-0.031797748
177	0x3d8b0876	0.06788723
178	0xbd481327	-0.04884639
179	0xbb940a70	-0.004517846
180	0xbbc1d5fe	-0.0059154024
181	0x3d11bdb3	0.035581302
182	0xbe0d9d8e	-0.13829634
183	0x3d5b2a74	0.053507283
184	0x3e25f5f4	0.16207105
185	0x3d86a67c	0.06574723
186	0x3e8ceae7	0.27522966
187	0x3de45099	0.11148185
188	0x3d6c1ca3	0.057644498
189	0xbeb268f0	-0.34845686
190	0xbe5eedb2	-0.21770361
191	0xbca36d49	-0.019949572
192	0x3dd46628	0.10371047
193	0x3e195752	0.14974716
194	0x3da10798	0.078627765
195	0xbe33dc3a	-0.17564479
196	0x3c4a6bde	0.012354819
197	0x3d754f42	0.05989004
198	0x3da2ba0f	0.07945644
199	0x3d88c144	0.066774875
200	0xbc90a651	-0.01765743
201	0xbc200b8c	-0.009768378
202	0x3cc4db9a	0.024030495
203	0x3b849702	0.004046322
204	0x3d0cfb12	0.034419127
205	0xbd820ace	-0.06349717
206	0x3cf2763f	0.0295974
207	0xbd353764	-0.044242278
208	0x39c15171	0.00036872507
209	0x3d1aadf0	0.037763536
210	0x3d41f312	0.04735095
211	0xbda10a54	-0.07863298
212	0xbd22fcd4	-0.039791897
213	0x3b54f89e	0.003249682
214	0xbbfb3378	-0.0076660477
215	0x3ba86cc4	0.005139919
216	0xbd60a372	-0.054843374
217	0xbd2aa0c3	-0.04165722
218	0xbd1caa8b	-0.03824858
219	0xbd96ca45	-0.073627986
220	0x3d2579a4	0.04039921
221	0xbd0485e3	-0.032354247
222	0x3d55bfe8	0.05218497
223	0x3c6a2a5a	0.014292324
224	0xbd11faa4	-0.03563942
225	0x3c37f69a	0.011228228
226	0x3c29aeeb	0.010356645
227	0x3d192c5a	0.037395813
228	0x3d6f39dc	0.05840479
229	0xbccfaeba	-0.02535187
230	0x3d347dce	0.04406529
231	0xbc8f99c5	-0.017529378
232	0xbd82d506	-0.06388287
233	0xbd9185cb	-0.07105597
234	0x3d2ccb27	0.04218593
235	0x3d11818c	0.035523936
236	0xbd06995e	-0.032861106
237	0xbc30afe0	-0.010784119
238	0x3c0232bf	0.007946669
239	0x3d455834	0.04817982
240	0x3d6c8198	0.057740778
241	0xbd98bf92	-0.07458414
242	0xbd4d59a4	-0.050134316
243	0xbd893a77	-0.067006044
244	0xbce64295	-0.02810792
245	0xbcd2b461	-0.025720777
246	0x3c839a45	0.016064772
247	0xbd89a2e5	-0.06720523
248	0xbcaa5611	-0.020792993
249	0x3d0efa1e	0.0349065
250	0xbd8ba2fc	-0.06818196
251	0x3d0f2145	0.034943838
252	0x3d3bfdc9	0.045896325
253	0x3cc3dcd8	0.023909017
254	0xbd5d835f	-0.054080363
255	0xbcd192f8	-0.025582775

fc2.bias f4 [100]
0	0xbb81e940	-0.003964573
1	0xbd57109b	-0.05250607
2	0x3cc23deb	0.023711165
3	0xbd012f7f	-0.031539436
4	0x3d6564da	0.056004383
5	0x3d78ea47	0.0607703
6	0xbcf9c4a6	-0.030489277
7	0x3d1d3c17	0.038387384
8	0x3d853b0c	0.06505403
9	0xbc897608	-0.016779914
10	0x3cee7bdb	0.029111793
11	0xbbf7c0d7	-0.00756083
12	0xbd4df8d5	-0.050286133
13	0xbcf112d8	-0.02942793
14	0x3d636f5a	0.055526115
15	0x3da1717f	0.07882976
16	0x3d4f1277	0.05055472
17	0xbd8f4943	-0.069963954
18	0x3cf5cb8f	0.03000429
19	0xbd366c50	-0.04453689
20	0x3c9bd1d8	0.01902096
21	0x3da90e24	0.0825465
22	0xbca8013e	-0.020508405
23	0x3d37d081	0.04487658
24	0x3d89a41d	0.06720755
25	0xbd88edfb	-0.06686016
26	0xbd4c6b91	-0.04990727
27	0x3d98f84c	0.07469234
28	0x3dbd7d34	0.09252396
29	0xbd36954f	-0.044575986
30	0x3d1a882f	0.03772753
31	0x3df57e1c	0.11986944
32	0xbd800867	-0.062516026
33	0xbd2dc6e6	-0.042426012
34	0x3d8ff273	0.070286654
35	0xbdeff6e7	-0.11717015
36	0xbd8e457c	-0.06946847
37	0xbd9592eb	-0.07303413
38	0x3c6d9679	0.0145012075
39	0xbd8aa6dc	-0.06770107
40	0xbd17bb11	-0.037043635
41	0xbccc1124	-0.024910517
42	0xbc78a9d3	-0.015177208
43	0x3d07f26e	0.033190183
44	0xbd5f2868	-0.054481894
45	0xbce7d738	-0.028300866
46	0x3d68e0c6	0.056854986
47	0xbc93960a	-0.01801588
48	0x3cb06015	0.02153019
49	0x3d2726a3	0.04080833
50	0x3cc72cc2	0.024313334
51	0x3d2b77ac	0.041862175
52	0xbc8fa335	-0.017533878
53	0xbcad369b	-0.021144202
54	0x3a11f16b	0.0005567285
55	0x3d051257	0.032488193
56	0xbd526413	-0.05136497
57	0x3d8dacb3	0.069177054
58	0x3c1545cb	0.009110878
59	0xbd0e6adb	-0.034769874
60	0xbb93f98a	-0.0045158314
61	0x3d8a5c3d	0.06755874
62	0x3d3d1108	0.04615882
63	0x3d92769a	0.07151528
64	0x3dbd9eba	0.0925879
65	0x3d303bb1	0.043025676
66	0xbdc1ea89	-0.09468562
67	0x3d8c128b	0.06839474
68	0xbd435cb9	-0.04769585
69	0xbd056318	-0.032565206
70	0x3d848eef	0.06472575
71	0x3c2a2030	0.010383651
72	0xbd4c3d17	-0.049862947
73	0xbdede0c8	-0.11615139
74	0xbc65de15	-0.014029999
75	0xbd3feb58	-0.0468553
76	0x3d453a60	0.048151374
77	0xbd019684	-0.031637684
78	0xbdcd8cab	-0.10036596
79	0x3b43c0d7	0.002986958
80	0xbc784172	-0.015152322
81	0x3d05e8f9	0.032692883
82	0x3cf4b6c9	0.029872315
83	0x3d67afbf	0.05656409
84	0xbd54d457	-0.051960316
85	0x3ca553de	0.020181593
86	0xbc92e4ff	-0.01793146
87	0xbc06ae85	-0.00822032
88	0xbd248ae0	-0.040171504
89	0xbb1a20ab	-0.0023518007
90	0xbdc849d6	-0.09779708
91	0xbc3ed898	-0.01164832
92	0x3d42dffb	0.047576886
93	0xbd27737b	-0.040881615
94	0xba0ca493	-0.00053650996
95	0x3a8cc727	0.0010740504
96	0xbd88ea7f	-0.066853516
97	0xbcecc5dd	-0.028902942
98	0xbd57ecd9	-0.05271611
99	0xbd8758dd	-0.06608746

fc3.weight f4 [2, 100]
0	0x3ded643f	0.11591386
1	0xbd8d6ecf	-0.06905901
2	0x3e59ba75	0.21262534
3	0xbeae9651	-0.34099057
4	0x3e7634d0	0.24043584
5	0x3d2f20da	0.04275594
6	0x3e75f4de	0.2401919
7	0xbed894ca	-0.42301017
8	0x3e8f1c7e	0.27951425
9	0xbf650417	-0.89459366
10	0x3e415efd	0.18883891
11	0xbd85699f	-0.06514286
12	0xbd0de5df	-0.03464305
13	0x3e45e14c	0.19324225
14	0xbec334a6	-0.38126105
15	0xbee05fbc	-0.4382304
16	0x3eb8f35d	0.3612317
17	0xbc0b00bd	-0.008484063
18	0xbda1ee8d	-0.07906828
19	0x3d4347cf	0.047675904
20	0x3e50a45b	0.20375197
21	0x3dbccd96	0.092189
22	0x3e63fe2a	0.22264925
23	0xbdb4bc26	-0.08824949
24	0x3f0748e0	0.52845573
25	0xbdbaa735	-0.091139235
26	0xbeb263a6	-0.3484165
27	0x3e8f4a39	0.27986315
28	0x3eadda29	0.33955505
29	0x3f18b1e3	0.59646434
30	0x3e1e78c9	0.15475763
31	0x3e82cc6b	0.25546584
32	0x3d0a4a1d	0.033762086
33	0xbe9831fe	-0.2972564
34	0x3e65d63d	0.22445007
35	0xbeafce6d	-0.34337178
36	0x3e1e6eef	0.15472005
37	0x3e9d1a47	0.3068411
38	0x3ee73167	0.45154878
39	0xbcc6da14	-0.02427391
40	0x3bf42c4b	0.007451569
41	0x3c67863d	0.014131126
42	0xbedd0cff	-0.43173978
43	0x3e296894	0.165438
44	0x3a0275ce	0.0004976661
45	0xbeeab231	-0.45839074
46	0xbe98446e	-0.29739708
47	0x3ebee44a	0.37283546
48	0xbe9552f9	-0.29164866
49	0x3d8ebed9	0.06969995
50	0x3f2f56ea	0.68491995
51	0x3e3ea60d	0.18618031
52	0xbf3cccea	-0.73750174
53	0x3e9e3482	0.30899435
54	0x3dcc79b0	0.099841475
55	0xbe92f2a7	-0.28700754
56	0xbdb74d17	-0.089502506
57	0xbec52131	-0.38501886
58	0xbccb1b6e	-0.024793353
59	0x3eac4418	0.336457
60	0xbf464f0e	-0.7746438
61	0x3e6d39e9	0.23166622
62	0xbeb787ae	-0.35845703
63	0xbee074a5	-0.43838993
64	0x3e02dc3f	0.1277933
65	0xbceddc01	-0.02903557
66	0xbea195a6	-0.31559485
67	0xbf1cb541	-0.6121407
68	0x3e3aa9a6	0.18228778
69	0x3e41efa1	0.18939067
70	0x3e82fbba	0.25582677
71	0xbec187db	-0.37798962
72	0x3e4c2d2e	0.1993911
73	0xbf410cbc	-0.75410056
74	0xbd905072	-0.07046594
75	0x3d0c228d	0.034212638
76	0x3f0da183	0.5532457
77	0xbebd8e1c	-0.37022483
78	0xbebbebec	-0.36703432
79	0xbd3d5989	-0.046227966
80	0x3e87f2c6	0.2655241
81	0x3e31b3c0	0.17353725
82	0x3d0b3c5c	0.03399311
83	0xbedfe935	-0.4373261
84	0x3e965bd7	0.29366943
85	0x3f04f48d	0.51935655
86	0xbca86ea7	-0.020560576
87	0xbd238d5b	-0.03992973
88	0x3cca3ada	0.024686266
89	0x3d91aeac	0.07113394
90	0x3d9beb0b	0.0761319
91	0x3bf9f9e7	0.0076286676
92	0x3e3ca6d5	0.18423016
93	0x3d49b72c	0.049246952
94	0xbe57d96e	-0.21079037
95	0xbe7a8126	-0.24463329
96	0xbefda224	-0.49537766
97	0xba5654ae	-0.00081760704
98	0xbd199115	-0.037491877
99	0xbd6a55da	-0.05721078
100	0xbdbbe0f5	-0.091737665
101	0xbd6282ba	-0.05530045
102	0xbe157d83	-0.1459866
103	0x3ea522b1	0.3225303
104	0xbdb19329	-0.08670647
105	0xbdec4676	-0.11536877
106	0xbe0659c4	-0.1312018
107	0x3eaf1589	0.34196118
108	0xbdd766c6	-0.10517649
109	0x3f67abdc	0.9049661
110	0xbc3bd2c9	-0.011463829
111	0xbd8a6bf1	-0.067588694
112	0xbc200eef	-0.009769185
113	0xbe33b840	-0.17550755
114	0x3eab9a3c	0.3351611
115	0x3ef1dbc4	0.4723798
116	0xbef447ef	-0.4771113
117	0x3d4e20ed	0.05032437
118	0x3d9d4001	0.076782234
119	0xbdd92498	-0.10602683
120	0xbe6f59a3	-0.23374037
121	0xbbfc45aa	-0.0076987343
122	0xbe5dc241	-0.21656133
123	0x3cc21dd0	0.023695856
124	0xbeb5bb6e	-0.3549456
125	0x3db52cfb	0.0884647
126	0x3ebda543	0.37040147
127	0xbe836eb5	-0.256704
128	0xbe818c36	-0.25302285
129	0xbef6d0c6	-0.48206156
130	0xbe2a1c6e	-0.16612408
131	0xbe0d9f39	-0.1383027
132	0x3d0ae01d	0.033905137
133	0x3de468da	0.11152811
134	0xbe77fab5	-0.24216731
135	0x3ef02d24	0.4690944
136	0xbe615286	-0.22004136
137	0xbe9f2e56	-0.3109004
138	0xbec3b748	-0.3822577
139	0x3d34e80c	0.04416661
140	0x3d554341	0.05206609
141	0x3d54daa6	0.051966332
142	0x3f12758f	0.5721063
143	0xbd96c54f	-0.073618524
144	0x3d9449e8	0.07240659
145	0x3ebec6f3	0.3726116
146	0x3ed7e3a2	0.42165858
147	0xbe9a1e50	-0.30101252
148	0x3e902449	0.28152683
149	0xbe350a06	-0.17679605
150	0xbf2f8f0a	-0.68577635
151	0xbe669f1d	-0.22521634
152	0x3f1f1169	0.6213594
153	0xbe3673ec	-0.17817658
154	0xbdb3e64f	-0.08784162
155	0x3ebcced0	0.36876535
156	0xbc2d98ca	-0.01059551
157	0x3e612c98	0.21989667
158	0xbd29258a	-0.041295566
159	0xbe980749	-0.29693058
160	0x3f4af88d	0.7928551
161	0xbe5f5d35	-0.218129
162	0x3eb938ba	0.3617609
163	0x3ed2e49a	0.41190034
164	0xbe634205	-0.22193153
165	0x3c97b0f4	0.018516995
166	0x3ec301f3	0.38087425
167	0x3efd5ce0	0.4948492
168	0xbe2804d7	-0.16408096
169	0xbdad0380	-0.08447933
170	0xbe497716	-0.19674334
171	0x3ecf34d4	0.40469992
172	0xbe315176	-0.17316231
173	0x3f537c78	0.826118
174	0x3d04f47b	0.032459717
175	0x3ceeb2c7	0.029137982
176	0xbf086030	-0.5327177
177	0x3e7e07d6	0.24807677
178	0x3e6ebca0	0.23314142
179	0xbce196c1	-0.027537705
180	0xbdff3fb2	-0.12463321
181	0xbe3b7651	-0.18306853
182	0x3d27b828	0.04094711
183	0x3ed4dfa4	0.41576874
184	0xbe9d0f98	-0.3067596
185	0xbee90556	-0.45511883
186	0xbca07b34	-0.019589998
187	0x3d774797	0.060371008
188	0x3d892eeb	0.06698402
189	0xbe4af3c3	-0.1981955
190	0x3d7b3137	0.06132623
191	0x3d001096	0.031265818
192	0xbe7589b5	-0.23978312
193	0xbdef32df	-0.11679625
194	0x3dbfd834	0.09367409
195	0x3e145088	0.14483845
196	0x3f09d5e7	0.53842014
197	0x3a1b0e2d	0.0005914893
198	0xbd3074f9	-0.043080304
199	0x3ccf3eba	0.025298465

fc3.bias f4 [2]
0	0x3df88511	0.121347554
1	0x3ce882ca	0.028382678
