onnx_models/fdia_model_ffnn_pytorch_100_200_100.onnx (onnx, 214531 bytes, 8 tensors)

fc1.weight f4 [100, 128]
0	0xbd0103d5	-0.031497795
1	0x3bfa866c	0.007645419
2	0xbda06209	-0.07831199
3	0x3d493086	0.04911854
4	0x3d1f0f0f	0.03883272
5	0xbd660cb7	-0.05616447
6	0x3d520d72	0.051282354
7	0x3d78fd38	0.060788363
8	0x3cfc33eb	0.030786475
9	0x3d82910d	0.063753225
10	0x3d199193	0.037492346
11	0xbd3bfbea	-0.04589454
12	0x3dc09d93	0.09405055
13	0xbd61d237	-0.055132117
14	0x3dcc94f8	0.09989351
15	0x3c55c85c	0.013048258
16	0xbd347163	-0.044053447
17	0xbc3d47e7	-0.011552787
18	0xbd49e1b5	-0.049287517
19	0xbccc01d9	-0.024903225
20	0x3d720310	0.059084952
21	0x3dcd680f	0.10029613
22	0xbd400fe2	-0.046890147
23	0xbd05562e	-0.03255289
24	0x3d89454d	0.06702671
25	0xbc802c81	-0.015646221
26	0x3d335577	0.043782678
27	0xbbe7ab03	-0.0070699467
28	0xbd35913d	-0.044327963
29	0xbd91220e	-0.070865735
30	0x3ce70aff	0.028203486
31	0x3dc1468f	0.09437286
32	0xbbf6ef8c	-0.0075358804
33	0x3d46a39a	0.048495866
34	0xbd281d49	-0.041043554
35	0xbd46b169	-0.048509035
36	0x3d53eec0	0.05174136
37	0x3cc47467	0.023981286
38	0x3d85d5f2	0.065349475
39	0xbd1e6d0e	-0.03867822
40	0x3c2688b9	0.010164433
41	0x3d140802	0.03614045
42	0x3d5d313b	0.054002028
43	0x3d27f583	0.041005623
44	0xbd22ac12	-0.03971488
45	0xbd6b3287	-0.057421234
46	0x3d245c7b	0.04012726
47	0x3d814ebb	0.06313845
48	0x3d1793e1	0.037006263
49	0x3b28379e	0.0025667916
50	0x3db441af	0.08801591
51	0x3dde2448	0.10846764
52	0x3c538444	0.012909953
53	0xbcda1c59	-0.026624845
54	0xbd31ff06	-0.0434561
55	0x3d8683bc	0.06568095
56	0x3d541986	0.051782154
57	0x3d928375	0.0715398
58	0xbd36d8ec	-0.044640467
59	0x3c0a1a77	0.008429161
60	0xbd46295a	-0.04837928
61	0x3cb1e4ab	0.021715483
62	0x3d52c45f	0.051456805
63	0x3d71e3b1	0.059055034
64	0x3cea6ccc	0.028616332
65	0x3bdbea5e	0.0067112884
66	0xbd055563	-0.032552134
67	0xbbc2b9ea	-0.005942573
68	0x3d513170	0.051072538
69	0x3c4cf742	0.012510123
70	0x3cf2641b	0.02958875
71	0x3d8b160c	0.067913145
72	0x3dd37167	0.10324364
73	0x3a54ce95	0.00081179413
74	0x3d63c7c4	0.055610433
75	0x3cbce77c	0.0230596
76	0xbd1dd7bc	-0.03853582
77	0x3d3ce84f	0.046119984
78	0x3bdbc356	0.0067066355
79	0x3d598c22	0.053112157
80	0x3d3824d5	0.044957
81	0x3d5fd101	0.05464268
82	0x3c485da7	0.01222936
83	0x3d44f3af	0.048083957
84	0xbcea3308	-0.028588787
85	0xbcb7dfb8	-0.022445545
86	0xbac25ca8	-0.0014828639
87	0x3cc06089	0.023483532
88	0xbd474261	-0.04864729
89	0x3b6df71d	0.003631062
90	0xbc9376db	-0.01800101
91	0xbdbae725	-0.091261186
92	0x3c3dbc3c	0.011580523
93	0xbb4068b4	-0.0029359283
94	0xbc19d9ef	-0.009390338
95	0xbd325b0e	-0.043543868
96	0xbc6d4f32	-0.014484214
97	0xbd3be4ca	-0.045872487
98	0x3d708cfe	0.05872821
99	0x3d7c8ffd	0.061660755
100	0xbb548272	-0.0032426384
101	0xbce1e629	-0.02757557
102	0x3bb532e6	0.005529749
103	0x3c1c9969	0.00955806
104	0xbcdd7d97	-0.027037425
105	0x3d62ea8b	0.05539946
106	0x3d19c525	0.037541527
107	0xbc93ed37	-0.018057449
108	0xbd302bf2	-0.04301066
109	0x3dd1856b	0.102305256
110	0x3d53bbe6	0.051692866
111	0xbd532dce	-0.051557355
112	0x3d111065	0.035416026
113	0x3d9c323f	0.07626771
114	0xbdc7c92e	-0.09755169
115	0x3d806f9d	0.062712885
116	0x3dc7935e	0.09744905
117	0x3d7f89ca	0.062387265
118	0x3d58cebc	0.052931532
119	0x3d1a096c	0.03760664
120	0xbc80f236	-0.015740495
121	0x3db30e66	0.08742981
122	0x3d7c792d	0.061639
123	0x3dd977a8	0.10618526
124	0x3d38deb9	0.04513428
125	0x3ca0a129	0.019608097
126	0x3d60808c	0.05481009
127	0xbc19169e	-0.009343771
128	0x3dc7996a	0.09746058
129	0x3f2e91f6	0.6819147
130	0x3e04179f	0.12899636
131	0x3d2ae3f0	0.041721284
132	0xbd24feb6	-0.040281974
133	0xbe38b35e	-0.18037173
134	0x3d22c743	0.039740812
135	0xbe40262f	-0.18764566
136	0x3e5d0703	0.21584706
137	0x3d723959	0.059136722
138	0xbb56df9d	-0.0032787092
139	0xbaf233d2	-0.0018478578
140	0x38f729bc	0.000117856514
141	0xbc3ba127	-0.011451996
142	0xbd4c86d4	-0.04993327
143	0x3d37fbf6	0.044918023
144	0xbb99666f	-0.0046814005
145	0xbcaf8934	-0.021427728
146	0x3dfd684b	0.12373408
147	0x3c244ebe	0.010028539
148	0x3d90eb5b	0.070761405
149	0xbda8cc5b	-0.08242103
150	0xbdacbdd4	-0.08434644
151	0x3c513de4	0.0127711035
152	0xbcf01afa	-0.029309738
153	0xbd1a1fe3	-0.037628066
154	0xbd80cf31	-0.062895186
155	0xbb1ffdc3	-0.0024412728
156	0x3da94552	0.08265175
157	0x3f301c56	0.6879324
158	0x3f7f162c	0.99643207
159	0xbe8b96c4	-0.27263463
160	0x3e2974f3	0.16548519
161	0xbda41cdc	-0.08013317
162	0x3eff7fa8	0.4990208
163	0x3e9f95a8	0.31168866
164	0x3e579c95	0.21055825
165	0xbd95012a	-0.07275613
166	0x3e2aafad	0.16668577
167	0xb6707e0b	-3.5836154e-06
168	0x3a001454	0.00048858416
169	0x3cf24811	0.02957538
170	0xbe32c130	-0.17456508
171	0xbddecf1c	-0.10879347
172	0xbb8982ab	-0.004196485
173	0x3dcdc277	0.10046857
174	0xbc9b6589	-0.018969314
175	0xbbde1331	-0.00677719
176	0xbcafb780	-0.021449804
177	0x3d4d3fc5	0.050109643
178	0xbe2bad7d	-0.167654
179	0xbe163048	-0.14666855
180	0xbd12fd27	-0.035885956
181	0x3d42c838	0.047554225
182	0x3d9b7a6c	0.075917095
183	0x3cd8eb3e	0.02647936
184	0xbc407e14	-0.011748809
185	0x3d8eb889	0.06968791
186	0x3d198d7b	0.037488442
187	0x3f866fc6	1.050286
188	0xbea7b9a4	-0.3275882
189	0x3e720e42	0.23638251
190	0xbe0dd907	-0.1385232
191	0x3f0b1a4f	0.5433702
192	0xbe6df5a0	-0.2323823
193	0x3eaae736	0.33379525
194	0xbd5f3ffe	-0.054504387
195	0x3e68a971	0.22720887
196	0x3a34c626	0.00068959815
197	0xba8ccf5f	-0.0010742954
198	0x3cb628f1	0.02223632
199	0x3f20ef01	0.6286469
200	0xbe92f510	-0.28702593
201	0x3cdf0595	0.027224341
202	0x3ca74db4	0.020422794
203	0xbd51fa14	-0.051263884
204	0xbc55be09	-0.013045796
205	0xbaa80299	-0.0012818157
206	0xbd892a9e	-0.06697582
207	0xbe833e00	-0.2563324
208	0xbe938ff0	-0.28820753
209	0xbd3b7663	-0.0457672
210	0x3d29bbbc	0.041438803
211	0xbc9d81f3	-0.019227004
212	0x3ce674c4	0.02813185
213	0xbcbb129c	-0.022836022
214	0x3d085327	0.033282425
215	0x3e93fcd0	0.28903818
216	0x3e9761c6	0.29566783
217	0xbf1c66cf	-0.61094373
218	0x3e1e2329	0.154431
219	0xbe14e78e	-0.14541456
220	0x3e09a6fe	0.13442609
221	0x3e79ace1	0.24382354
222	0xbd45e34b	-0.048312467
223	0xbd0d8a37	-0.03455564
224	0x3e50b25e	0.20380542
225	0xbb5d8ce6	-0.0033805906
226	0xbb8a39e3	-0.0042183264
227	0x3d3c7d59	0.04601798
228	0xbbba1de8	-0.0056798346
229	0xbdf6eb2e	-0.12056576
230	0x3dd88225	0.10571698
231	0x3a84d2ca	0.0010133621
232	0xbc25d8dd	-0.010122505
233	0x3d58e007	0.052948024
234	0x3d09b67f	0.033621307
235	0x3b29c6ab	0.002590577
236	0xbe7901c5	-0.24317081
237	0xbe8157bd	-0.25262251
238	0xbcf6d1c8	-0.030129328
239	0x3d426121	0.04745591
240	0x3d9f1ea8	0.07769519
241	0xbd3bc3bb	-0.04584096
242	0xbbf0b1eb	-0.007345428
243	0x3c40677d	0.0117434235
244	0x3d3d7f62	0.04626406
245	0x3d6462fb	0.055758458
246	0xbc722adf	-0.014780729
247	0x3d1d6648	0.03842762
248	0xbb4786ea	-0.0030445405
249	0x3b2b287c	0.002611666
250	0xbcffa60f	-0.031207113
251	0xbc84eb33	-0.016225433
252	0x3d092549	0.033482824
253	0x3c3fb08a	0.011699805
254	0x3b603e9e	0.003421701
255	0x3d077ea4	0.03307976

fc1.bias f4 [100]
0	0xbd49239c	-0.049106225
1	0xbcf353fa	-0.02970313
2	0x3d4042ee	0.04693883
3	0xbda3bfd5	-0.079955734
4	0xbe009559	-0.12556972
5	0xbcf7937e	-0.030221697
6	0xbd1e9147	-0.038712766
7	0xbdb4d875	-0.088303484
8	0xbe14f6f4	-0.1454733
9	0xbde9c719	-0.11414928
10	0xbd5b0a00	-0.053476334
11	0xbd839235	-0.06424371
12	0xbdd53559	-0.10410566
13	0xbd23e363	-0.040011775
14	0x3d4fa0a6	0.050690316
15	0xbe116f2c	-0.14202565
16	0xbcc82606	-0.024432193
17	0xbd68b0a9	-0.0568091
18	0x3cf5bc60	0.02999705
19	0xbd01d28f	-0.031694945
20	0xbd57f9b8	-0.052728385
21	0xbda6d63e	-0.08146332
22	0xbd0bc81a	-0.03412638
23	0xbda2ad61	-0.07943226
24	0xbdd377e6	-0.10325603
25	0xbdcf86a2	-0.10133101
26	0xbdc7bec6	-0.09753184
27	0xbd3fd5c3	-0.04683472
28	0xbdad007f	-0.0844736
29	0xbdb600ee	-0.08886896
30	0xbd0c84f9	-0.0343065
31	0xbe4a1ef0	-0.19738364
32	0xbd88cf98	-0.0668022
33	0xbd78e90e	-0.060769133
34	0x3cc1a36d	0.023637498
35	0xbdf48f4a	-0.11941393
36	0x3d86d0c2	0.06582786
37	0xbdf930ae	-0.12167488
38	0xbd7654c4	-0.060139433
39	0xbdb5b2f4	-0.08872023
40	0x3cc3167e	0.023814436
41	0x3da73830	0.08165014
42	0xbc91cd4d	-0.01779809
43	0xbd992df1	-0.07479466
44	0x3de1a3c9	0.11017568
45	0xbd573d00	-0.05254841
46	0xbca6c8cd	-0.020359421
47	0xbc44c6b9	-0.01201027
48	0xbca9433f	-0.020661948
49	0xbd6eccb7	-0.0583007
50	0xbe09bbdd	-0.1345057
51	0x3d207da3	0.039182317
52	0xbd810d9f	-0.06301426
53	0xbd5f1951	-0.054467503
54	0xbd9ca728	-0.0764907
55	0xbd2e45b6	-0.04254695
56	0xbd73925c	-0.05946575
57	0xbcd93cf0	-0.026518315
58	0xbd7de691	-0.061987463
59	0xbd0ccc5e	-0.034374587
60	0xbe18def9	-0.14928807
61	0xbe029d2c	-0.12755269
62	0x3d72446b	0.05914728
63	0x3ce9e876	0.028553229
64	0xbd14bd24	-0.03631319
65	0x3d8a257f	0.06745433
66	0x3d880d04	0.066431075
67	0xbca3ea3f	-0.020009158
68	0xbdb60818	-0.088882625
69	0x3ce188ee	0.027531113
70	0x3c80d514	0.015726604
71	0xbd118531	-0.03552741
72	0xbd47662b	-0.04868142
73	0xbe010e8c	-0.12603205
74	0x3cd17ca2	0.025572125
75	0xbe592321	-0.21204807
76	0xbdb254f2	-0.08707608
77	0xbc31602d	-0.010826153
78	0x3d9a6bb0	0.07540071
79	0xbd280d8b	-0.04102854
80	0xbdec0841	-0.11525012
81	0xbb8755d4	-0.0041301046
82	0xbd86ba76	-0.06578533
83	0xbdb822a9	-0.08990986
84	0xbd3c9731	-0.046042625
85	0xbda71605	-0.08158497
86	0xbd6ce0a5	-0.057831425
87	0xbd5c17f0	-0.053733766
88	0xbd94a1a5	-0.07257394
89	0xbd5ca2b3	-0.0538661
90	0xbdd606d4	-0.10450521
91	0xbd7c35f9	-0.06157491
92	0x3c829875	0.015941838
93	0xbe32667a	-0.17421904
94	0xbe19ce95	-0.15020211
95	0x3d8618b2	0.06547679
96	0xbc8b09d4	-0.01697246
97	0xbd264fef	-0.040603574
98	0xbd9a89aa	-0.075457886
99	0xbe00acde	-0.12565944

fc2.weight f4 [200, 100]
0	0xbc62dd73	-0.013846743
1	0x3dc54115	0.09631554
2	0xbd2c726c	-0.04210131
3	0xbc900fe2	-0.017585699
4	0xbbda63a3	-0.0066647097
5	0xbc40eb06	-0.011774784
6	0x3e868957	0.26276657
7	0xbc35c1a7	-0.011093534
8	0xbd7656e9	-0.060141478
9	0xbd444c5c	-0.047924384
10	0x3e69b16a	0.22821584
11	0x3e94f961	0.2909651
12	0x3e1bfa04	0.15232092
13	0x3e1f7ba4	0.15574509
14	0x3dccbd5d	0.09997056
15	0x3cf7ffe3	0.030273383
16	0xbd0cdd75	-0.034390885
17	0xbdd8a9e1	-0.10579277
18	0x3d940e63	0.072293065
19	0x3df09804	0.11747745
20	0x3e1c33b4	0.15254098
21	0x3e430846	0.19046125
22	0xbd67b269	-0.05656663
23	0x3d37ccd9	0.044873092
24	0x3e6e96e3	0.23299746
25	0x3db6b386	0.0892096
26	0x3c936925	0.017994473
27	0x3e8dab11	0.27669576
28	0xbca39ea7	-0.019973112
29	0x3cd63a0a	0.026150722
30	0xbcd83737	-0.026393516
31	0xbec1b480	-0.37833023
32	0xbc602c4b	-0.013682435
33	0xbcf6a3ed	-0.030107463
34	0x3d86ae0a	0.06576164
35	0x3dc6c88a	0.097062185
36	0x3d4a2dd7	0.049360123
37	0xbea12b9f	-0.31478593
38	0xbe6fc414	-0.23414642
39	0x3bdf04f6	0.0068060113
40	0x3cf025d5	0.029314915
41	0x3e9c0329	0.3047116
42	0x3e1706cb	0.14748685
43	0xbd311b4f	-0.043238934
44	0x3d201a11	0.03908736
45	0x3ddc33db	0.10752078
46	0xbe991892	-0.29901558
47	0xbda723c2	-0.08161117
48	0xbd8e61e4	-0.06952265
49	0x3cf6613a	0.030075658
50	0x3d1e1e82	0.038603313
51	0x3e6ad57a	0.22932997
52	0xbe19b34c	-0.15009803
53	0x3e211e91	0.15734316
54	0xbd2762cc	-0.040865704
55	0xbcf949c8	-0.03043069
56	0xbc562567	-0.013070441
57	0x3cd3e1c7	0.025864495
58	0xbe3df182	-0.18549159
59	0x3dac8b88	0.08425051
60	0x3d3bb2f0	0.045824945
61	0x3d8c2bb5	0.06844274
62	0xbd05bb40	-0.03264928
63	0xbd46891d	-0.048470605
64	0x3d7bbdff	0.06146049
65	0xbd84762e	-0.064678535
66	0x3e11d45a	0.14241162
67	0x3da48b9f	0.08034443
68	0xbcb24171	-0.02175972
69	0xbdb11c87	-0.08648019
70	0x3cec94aa	0.028879482
71	0x3e780f5d	0.2422461
72	0x3d87ff3e	0.066404805
73	0xbd3eb504	-0.04655935
74	0xbd079459	-0.03310046
75	0xbe0adc60	-0.13560629
76	0xbda2e3fa	-0.07953639
77	0x3d0c1f84	0.034209743
78	0xbd36d310	-0.04463488
79	0x3da1fb73	0.07909288
80	0x3e03ed7a	0.12883559
81	0xbc224c59	-0.009905898
82	0x3d4ef8d9	0.05053029
83	0xbedd78d5	-0.4325625
84	0xbd833450	-0.06406462
85	0xbd856b2f	-0.06514584
86	0xbc9b8242	-0.01898301
87	0xbdb86535	-0.09003679
88	0xbb391587	-0.002824159
89	0x3c61261b	0.013741995
90	0x3ce4afed	0.02791592
91	0xbd73abf3	-0.059490155
92	0x3c272f9c	0.010204222
93	0xbdfeff18	-0.12450999
94	0x3da2d92e	0.0795158
95	0xbd883f5b	-0.06652709
96	0x3e3e5ad9	0.18589343
97	0xbd8008af	-0.06251656
98	0xbe68915d	-0.22711702
99	0xbde841e8	-0.113406956
100	0x3dbd2cef	0.09237086
101	0xbcb26f2f	-0.021781532
102	0xbdc43663	-0.09580686
103	0x3e0aa4e7	0.13539468
104	0x3dbc4c14	0.09194198
105	0x3d8a75e3	0.06760766
106	0x3de31508	0.11087996
107	0xbdc76aef	-0.09737193
108	0xbcb559e0	-0.022137582
109	0xbf0c8cad	-0.54902154
110	0x3c336a6e	0.010950668
111	0x3d429b73	0.04751153
112	0xbd11315d	-0.035447467
113	0x3dbb47ca	0.09144552
114	0xbd4a7f40	-0.04943776
115	0xbd6364af	-0.05551594
116	0x3c301df4	0.010749329
117	0x3dd34153	0.10315194
118	0x3d278050	0.040893853
119	0x3d9981ef	0.07495486
120	0x3dc39eb1	0.09551752
121	0xbe8a112e	-0.26966232
122	0xbd453830	-0.048149288
123	0x3da0ec0a	0.07857521
124	0x3d4d9dc0	0.05019927
125	0x3dc1c74b	0.0946184
126	0x3c1ce322	0.009575637
127	0x3d3a2481	0.04544497
128	0x3d6eeaa3	0.058329236
129	0x3e1b13b4	0.15144235
130	0x3d585b02	0.052821167
131	0x3e2df19b	0.16986696
132	0x3da49755	0.08036677
133	0x3db03c83	0.08605292
134	0xbd8ca86d	-0.06868062
135	0x3d329db9	0.043607447
136	0xbc93324a	-0.017968316
137	0xbe329612	-0.1744006
138	0xbda8bfbc	-0.082396954
139	0x3e3fb084	0.18719679
140	0x3d84dbf7	0.064872675
141	0x3d2fc7cf	0.04291516
142	0xbe1d4828	-0.15359557
143	0x3e002acd	0.12516327
144	0xbe1922e6	-0.14954719
145	0xbe841428	-0.25796628
146	0xbef76eed	-0.48326817
147	0x3e244a63	0.16044001
148	0xbd97631f	-0.07391953
149	0x3d87c4e8	0.06629354
150	0x3bdc3de1	0.0067212437
151	0x3d5c24a1	0.05374587
152	0xbd05bee6	-0.032652758
153	0x3df03999	0.11729736
154	0xbe0e3d5e	-0.13890597
155	0x3cd12093	0.025528228
156	0x3cf97c8d	0.030454898
157	0x3bced11a	0.006311548
158	0x3e5f0537	0.21779333
159	0x3e24a982	0.16080287
160	0x3bf86d53	0.007581392
161	0x3da9183e	0.08256577
162	0xbce78c93	-0.028265273
163	0xbddfff1b	-0.109373294
164	0x3d97996c	0.0740231
165	0xbe9edd98	-0.31028438
166	0x3ca42d9a	0.020041276
167	0x3e11a6e5	0.14223821
168	0xbde8421b	-0.113407336
169	0xbbfc1ecf	-0.0076941024
170	0x3e0f530b	0.13996522
171	0xbda84b0f	-0.08217441
172	0x3d2bb383	0.041919243
173	0xbaad83f3	-0.0013238176
174	0xbd880cc5	-0.066430606
175	0x3da5aa74	0.08089152
176	0x3cdc0da3	0.026861971
177	0x3d58e820	0.052955747
178	0xbda71973	-0.08159151
179	0x3e10150a	0.14070526
180	0x3e03bac3	0.12864213
181	0x3ebe182f	0.37127826
182	0xbd4bc3c5	-0.049747247
183	0x3d066da2	0.032819398
184	0x3d8a5ae2	0.06755616
185	0xbe430562	-0.19045022
186	0xbd34205d	-0.043976177
187	0x3dc7b78b	0.09751805
188	0xbd7a2450	-0.061069787
189	0xbd73df81	-0.05953932
190	0xbc2418dd	-0.0100156935
191	0x3d1cf687	0.038321044
192	0x3d70d19c	0.05879365
193	0x3e20bc59	0.15696849
194	0xbd422db8	-0.047406882
195	0xbe1ab68b	-0.15108697
196	0x3e4d24b8	0.20033538
197	0xbe09133a	-0.1338624
198	0x3de2160e	0.11039363
199	0xbc3d99b4	-0.01157229
200	0xbc8bd82a	-0.017070848
201	0x3e4ce1d8	0.20008028
202	0xbd973447	-0.07383018
203	0x3e145735	0.14486392
204	0x3caca23a	0.02107345
205	0x3c47e6b6	0.012201002
206	0x3d9f0861	0.0776527
207	0xbd845db2	-0.064631835
208	0xbd0ff63d	-0.03514694
209	0xbf0656ac	-0.52476
210	0xbda4236f	-0.08014571
211	0xbddfa4a6	-0.10920076
212	0x3d25601d	0.040374864
213	0xbd2afca4	-0.041744843
214	0x3dd8900f	0.10574352
215	0xbec014da	-0.37515908
216	0x3d809e38	0.06280178
217	0xbc4c9712	-0.01248719
218	0xbd80096c	-0.06251797
219	0xbd35c176	-0.04437395
220	0xbd37bca6	-0.044857644
221	0x3da19c65	0.07891158
222	0xbb787be8	-0.003791565
223	0x3ce5b03a	0.028038133
224	0xbde21906	-0.11039929
225	0xbe337e47	-0.1752864
226	0x3da1c01d	0.07897971
227	0xbe994f00	-0.29943085
228	0xbdaa1bc8	-0.0830608
229	0xbe881c57	-0.26584122
230	0xbe62cbe3	-0.22148089
231	0xbd9039a5	-0.07042245
232	0x3cbb1920	0.022839129
233	0x3d936a00	0.07197952
234	0xbe152284	-0.14563948
235	0x3e8e12ca	0.2774871
236	0x3e3832b9	0.17988099
237	0x3e7e0996	0.24808344
238	0xbd1d84fe	-0.03845691
239	0xbf2d13eb	-0.6760852
240	0xbd97642e	-0.07392155
241	0xbdf022f3	-0.11725416
242	0xbe55155a	-0.20808926
243	0xbdf37f91	-0.11889566
244	0xbed2d4bc	-0.41177928
245	0x3f1f54a8	0.6223855
246	0x3caeb187	0.021324886
247	0xbe21a63f	-0.15786074
248	0x3d9e631f	0.077337496
249	0xbc9a1e9a	-0.01881342
250	0xbd5e6c91	-0.054302756
251	0xbc996ac5	-0.01872767
252	0x3e1503c8	0.14552224
253	0xbdacbc83	-0.08434393
254	0xbc31be82	-0.010848643
255	0xbd8fd912	-0.07023825

fc2.bias f4 [200]
0	0xbc205621	-0.00978616
1	0xbea6a5aa	-0.32548267
2	0xbf0fca38	-0.56167936
3	0xbf19e86d	-0.6012028
4	0xbedc8846	-0.43072718
5	0xbe9555ee	-0.29167122
6	0x3e5d479a	0.21609345
7	0x3e4cdac5	0.20005329
8	0x3c1134bd	0.008862671
9	0x3ea39f84	0.31957638
10	0xbe82904b	-0.25500712
11	0x3ea9aef6	0.33141297
12	0xbe7fe57c	-0.24989885
13	0x3de93200	0.1138649
14	0xbec6e0d0	-0.38843393
15	0xbca396f8	-0.019969448
16	0xbdaf8ad9	-0.08571405
17	0xbe224f66	-0.158506
18	0x3e3332f1	0.17499901
19	0xbe0f5b9c	-0.1399979
20	0xbea9c916	-0.3316123
21	0xbf14ec1d	-0.5817278
22	0xbe05f89f	-0.13083123
23	0xbf14f298	-0.5818267
24	0xbe24c0ea	-0.16089216
25	0xbebdefd3	-0.37097034
26	0xbbae21ad	-0.005314073
27	0x3e75b7ce	0.23995897
28	0x3ec058d6	0.37567776
29	0xbe4922ca	-0.19642177
30	0xbe83abd7	-0.2571704
31	0xbd3ef39b	-0.04661904
32	0xbde19b89	-0.11015994
33	0xbe27b11c	-0.16376156
34	0x3eb1ac01	0.3470154
35	0x3e43e810	0.19131494
36	0x3e9260bd	0.2858943
37	0x3e6c61a5	0.23084123
38	0xbe442c39	-0.19157495
39	0xbe0bb2d3	-0.13642435
40	0xbc59d560	-0.0132955015
41	0xbe786ca0	-0.24260187
42	0xbe1555bc	-0.14583486
43	0xbf12e80e	-0.5738534
44	0xbe377919	-0.17917289
45	0xbe7a1776	-0.24423012
46	0xbe871fb5	-0.26391378
47	0x3af205ad	0.0018464826
48	0xbe9ca913	-0.30597743
49	0xbeec39d7	-0.46137878
50	0x3e1d7625	0.153771
51	0x3e4d8573	0.20070438
52	0x3e2d259f	0.16908883
53	0xbf28b614	-0.6590283
54	0xbe05f8cd	-0.13083191
55	0xbef8b91a	-0.4857872
56	0xbde8b95a	-0.11363478
57	0x3e291aa2	0.16514066
58	0xbf1202df	-0.5703563
59	0x3f0353b3	0.5129959
60	0xbe3c874e	-0.1841099
61	0xbdca928d	-0.098912336
62	0x3de32d1f	0.110925905
63	0xbccbe338	-0.02488862
64	0xbeea7908	-0.45795465
65	0xbe24e50c	-0.16103
66	0x3d75be5a	0.059995987
67	0x3d41990c	0.047265097
68	0x3ea0e7de	0.314269
69	0xbf24b76b	-0.64342374
70	0x3e14a899	0.1451744
71	0xbd8e192f	-0.06938397
72	0xbe8044ee	-0.2505259
73	0x3e40c79a	0.18826142
74	0xbd85bde6	-0.06530361
75	0xbe5396ed	-0.20663042
76	0xbef08d96	-0.46983021
77	0xbef43c9f	-0.477025
78	0x3e383ef2	0.17992762
79	0xbed17548	-0.4090979
80	0xbf01df4a	-0.5073134
81	0xbf3a17ef	-0.7269277
82	0xbcb14fb2	-0.021644447
83	0xbe9d4faf	-0.30724856
84	0x3e810a72	0.25203282
85	0xbe5c5be6	-0.21519431
86	0xbe2cebac	-0.16886777
87	0xbe249eec	-0.16076249
88	0xbefc9d9c	-0.49338996
89	0xbf4b18e1	-0.7933484
90	0xbddda06d	-0.108216144
91	0x3ec235a7	0.37931558
92	0x3dd6091d	0.10450957
93	0xbf061444	-0.5237467
94	0xbde99d50	-0.11406958
95	0xbec6d3fc	-0.38833606
96	0xbe3eee29	-0.18645538
97	0xbf190fcd	-0.59789735
98	0x3e2bc5ab	0.16774623
99	0x3ed5208b	0.4162639
100	0x3e99e2b4	0.30055773
101	0x3ea9ee34	0.33189547
102	0xbea44f0b	-0.32091555
103	0x3eb27833	0.3485733
104	0xbefa8584	-0.4892999
105	0x3ee46c78	0.44614005
106	0xbf097e07	-0.5370793
107	0xbee672da	-0.450095
108	0x3c1ccaef	0.0095698675
109	0xbe7ca91b	-0.24673884
110	0x3dd83009	0.10556037
111	0xbea77591	-0.32706884
112	0x3d9501fa	0.072757676
113	0xbe4971b4	-0.1967228
114	0x3debfe37	0.11523097
115	0x3e080dfa	0.13286582
116	0x3d47caa4	0.048777238
117	0xbe2714b8	-0.16316497
118	0xbe96b3da	-0.2943409
119	0x3e02e607	0.12783061
120	0xbe7a55b8	-0.24446762
121	0xbef18b85	-0.47176757
122	0x3e8bb0d8	0.2728336
123	0x3e48d88c	0.19613856
124	0x3d172ba7	0.036906864
125	0xbe833833	-0.25628814
126	0x3eb94be4	0.36190712
127	0xbf07faab	-0.53116864
128	0xbe890ef4	-0.2676922
129	0xbe98c4c4	-0.2983762
130	0x3e0f2337	0.13978277
131	0xbe862535	-0.26200262
132	0xbf21bf61	-0.63182646
133	0xbe07d428	-0.13264525
134	0xbeac9303	-0.3370591
135	0x3d3355b4	0.043782905
136	0x3e4dd456	0.20100531
137	0xbf4ac516	-0.7920698
138	0xbf09f0d9	-0.5388313
139	0xbf359356	-0.7092794
140	0x3dfbc7ef	0.12293994
141	0xbe9ad626	-0.30241507
142	0xbd0132d9	-0.031542633
143	0xbe6ee0ab	-0.23327892
144	0xbeea7aec	-0.45796907
145	0xbd43abb5	-0.047771174
146	0xbe1eb122	-0.15497258
147	0xbed963b4	-0.4245888
148	0x3e38b892	0.18039158
149	0xbea84292	-0.3286329
150	0xbeeac244	-0.45851338
151	0x3e33d8b6	0.17563137
152	0xbe3ca34a	-0.18421665
153	0xbc96500e	-0.01834872
154	0x3eb448f6	0.35211915
155	0xbd7afbad	-0.061275173
156	0xbbc15793	-0.0059003322
157	0x3e14b334	0.14521486
158	0xbece0770	-0.4024005
159	0x3e9ecd1a	0.31015855
160	0x3e9e202a	0.30883914
161	0xbee22a7a	-0.44173032
162	0xbea1e646	-0.31620997
163	0xbee3ce14	-0.44493163
164	0xbed5a9f8	-0.41731238
165	0x3f099874	0.5374825
166	0xbe637651	-0.22213103
167	0x3ea01de0	0.31272793
168	0x3d0f002a	0.034912266
169	0xbe069175	-0.13141425
170	0x3e006bf2	0.12541178
171	0xbd51175b	-0.051047664
172	0xbe49468f	-0.19655822
173	0xbec8fe67	-0.39256594
174	0xbe989d7f	-0.2980766
175	0x3e1215b7	0.14266096
176	0xbe173a82	-0.14768413
177	0xbe19228d	-0.14954586
178	0xbf0faf2b	-0.5612666
179	0xbf28c8ed	-0.6593159
180	0xbed1bad0	-0.4096284
181	0xbf016e39	-0.5055881
182	0xbe5e5464	-0.2171188
183	0xbcc5c091	-0.024139674
184	0xbe3d94ad	-0.18513747
185	0xbf1dd78b	-0.6165702
186	0x3ec28a64	0.3799621
187	0xbf0fcd51	-0.5617266
188	0xbe84d48f	-0.2594342
189	0x3e4a48d6	0.19754347
190	0x3e909946	0.28241938
191	0x3d1699d8	0.03676781
192	0x3e04f403	0.12983708
193	0xbebccd4e	-0.36875385
194	0xbe567e5f	-0.20946644
195	0xbe83bf9c	-0.25732124
196	0x3e947f79	0.29003504
197	0xbd8ceed3	-0.068814896
198	0x3e08de0a	0.13365951
199	0xbdb13313	-0.0865232

fc3.weight f4 [100, 200]
0	0x3e85786b	0.26068434
1	0xbd583790	-0.052787364
2	0xbe56f060	-0.20990133
3	0xbcf1d940	-0.029522538
4	0x3e55f189	0.2089292
5	0x3e398d7e	0.18120381
6	0xbdc93b9f	-0.09825825
7	0x3cabdb68	0.020978644
8	0xbe54b8e9	-0.20773663
9	0xbe26873a	-0.16262522
10	0xbee17032	-0.4403091
11	0xbda67a00	-0.081287384
12	0x3cdc8bea	0.026922185
13	0x3e4cdf65	0.20007093
14	0x3e022dc9	0.12712778
15	0x3ea87522	0.32901865
16	0x3d77e161	0.060517672
17	0x3d5eee6e	0.054426603
18	0x3e6579cf	0.22409748
19	0x3dae6f6f	0.08517348
20	0xbdfc8391	-0.12329782
21	0xbe3b7a75	-0.18308432
22	0x3c5ff241	0.013668598
23	0x3d0bb9dd	0.0341128
24	0xbcedcec9	-0.029029267
25	0x3e07d8b6	0.13266262
26	0x3e8c7707	0.2743456
27	0xbf016719	-0.5054794
28	0xbdab5b51	-0.083670266
29	0x3d015c8b	0.031582396
30	0x3d53d222	0.05171407
31	0xbccf416f	-0.025299756
32	0x3d6f42a7	0.058413174
33	0xbec6f0f0	-0.38855696
34	0x3da80641	0.08204318
35	0x3dcd1199	0.10013122
36	0xbda96d75	-0.082728304
37	0xbe01dd43	-0.12682061
38	0xbd48b672	-0.04900212
39	0x3da7b654	0.08189073
40	0x3ec6e5ba	0.38847142
41	0xbe9d3b0d	-0.30709115
42	0xbdbf70ae	-0.09347664
43	0xbdd77346	-0.105200335
44	0x3df0723e	0.1174054
45	0xbf66d6a3	-0.9017126
46	0xbee7ac39	-0.45248583
47	0xbf2b29e1	-0.6686078
48	0x3e7ee23a	0.24890986
49	0x3ddbaf98	0.10726851
50	0x3d12af48	0.035811692
51	0x3d2b386a	0.041801848
52	0x3c6f3b8e	0.014601601
53	0x3ec8cac7	0.39217207
54	0x3bae387b	0.0053167916
55	0xbdc40fb3	-0.09573307
56	0xbd0dcbdf	-0.034618255
57	0xbd8246b3	-0.06361141
58	0x3d661691	0.056173865
59	0x3ea8edb4	0.32993853
60	0xbd88555b	-0.06656905
61	0x3da58a5f	0.08083033
62	0x3dedb2e2	0.11606385
63	0x3c9ab6e7	0.018886043
64	0xbe84dbc9	-0.25948933
65	0xbf05b412	-0.5222789
66	0xbe61edde	-0.22063395
67	0x3e19448e	0.14967558
68	0xbc2e45d2	-0.010636764
69	0x3e070b0d	0.1318781
70	0xbec55c84	-0.38547146
71	0x3edc7f55	0.43065897
72	0x3e6b7b5f	0.22996281
73	0xbde5f5ac	-0.11228499
74	0x3beea736	0.0072831167
75	0xbd18d973	-0.03731675
76	0x3d6bf47a	0.057606198
77	0xbdd4bb19	-0.103872485
78	0xbf1d3e2c	-0.6142299
79	0x3f1e5db6	0.6186174
80	0x3cf8c85a	0.030368973
81	0x3dfd4678	0.123669565
82	0x3eacd20d	0.33754006
83	0xbdd433d6	-0.103614494
84	0x3db105a1	0.08643652
85	0xbca5f26b	-0.020257195
86	0xbcdfd613	-0.027323758
87	0xbd1fd92b	-0.039025467
88	0xbf0f9448	-0.56085634
89	0x3e57ef84	0.21087462
90	0x3d6d2c4c	0.057903573
91	0xbc588323	-0.013214859
92	0x3e8715e6	0.26383895
93	0x3ea8b215	0.32948366
94	0x3f504805	0.81359893
95	0x3e08f5ad	0.13374968
96	0x3da122b4	0.07867947
97	0x3c8ee2d0	0.017442137
98	0x3e7180e0	0.23584318
99	0x3df5dab2	0.120046034
100	0x3ef74ddb	0.48301587
101	0x3ec80f45	0.3907415
102	0x3dc042eb	0.093877636
103	0x3e07f723	0.13277869
104	0xbf131e54	-0.5746815
105	0xbe27ef71	-0.16399933
106	0x3e54be9b	0.20775835
107	0x3c952438	0.018205747
108	0x3dd3761a	0.103252605
109	0x3ccd60c5	0.025070557
110	0x3e56b90a	0.20969024
111	0x3e3a6d3b	0.1820573
112	0xbe1ecc39	-0.15507592
113	0xbdaea9d8	-0.08528489
114	0xbe0216db	-0.12704031
115	0xbed1f2ff	-0.41005704
116	0xbf05430a	-0.5205542
117	0x3cb86f90	0.022514135
118	0x3e1c300a	0.152527
119	0x3cbfedcb	0.023428818
120	0x3e06dd91	0.13170458
121	0x3d50ed4a	0.051007546
122	0x3e8ce494	0.2751814
123	0xbde26f8b	-0.110564314
124	0x3d6fc478	0.058536977
125	0x3e93efa5	0.28893772
126	0x3e99e129	0.30054596
127	0xbd18f8e3	-0.037346732
128	0x3d8b9718	0.06815928
129	0x3ebf9f4c	0.3742622
130	0xbf2cdced	-0.67524606
131	0x3db1e6d8	0.08686608
132	0x3db87219	0.090061374
133	0x3e440e9e	0.19146201
134	0xbe95f26f	-0.29286525
135	0x3e5bd0c8	0.21466362
136	0x3d4ecac0	0.050486326
137	0x3f5052ce	0.8137635
138	0xbd6573b9	-0.056018565
139	0x3f5a1757	0.85191864
140	0xbd958d9c	-0.073024005
141	0xbd149a2a	-0.036279835
142	0x3e54cd84	0.20781523
143	0xbe3702d6	-0.17872176
144	0xbf702dc8	-0.93819857
145	0x3d35c5a0	0.044377923
146	0xbe3785c8	-0.17922127
147	0xbe184c44	-0.14872843
148	0xbf4794e9	-0.77961594
149	0x3e0a8f38	0.13531196
150	0x3dddd5b2	0.10831775
151	0x3da7dbdf	0.08196234
152	0x3d02d8f8	0.0319452
153	0xbf6551a7	-0.89577717
154	0xbd0f92fe	-0.035052292
155	0x3e2d2a4d	0.16910668
156	0xbeaac968	-0.33356786
157	0xbf46e6b9	-0.77695805
158	0xbd9feb99	-0.078086086
159	0x3e5aa889	0.21353354
160	0xbe4c557d	-0.19954486
161	0x3d8fd96c	0.07023892
162	0xbd75e60c	-0.060033843
163	0x3dd55f86	0.1041861
164	0x3e08f393	0.13374166
165	0xbddc0a1d	-0.107441165
166	0x3eae6220	0.34059238
167	0xbe49ecad	-0.19719191
168	0x3dcf757c	0.1012983
169	0xbd60be08	-0.054868728
170	0x3dbcc7a1	0.09217764
171	0xbcbf9373	-0.023385739
172	0xbaeb1c76	-0.0017937559
173	0xbf3e5458	-0.7434745
174	0x3eb610a7	0.3555958
175	0x3e6a33b3	0.22871284
176	0xbd35850f	-0.044316348
177	0x3d40af9e	0.04704248
178	0xbd1e6c30	-0.038677394
179	0x3e21ae70	0.15789199
180	0x3d3625e4	0.04446973
181	0x3e005892	0.12533787
182	0x3e1f6499	0.15565719
183	0xbf2d7769	-0.6776033
184	0x3f361c1b	0.71136636
185	0x3e32ad94	0.17449027
186	0x3c3897ea	0.011266688
187	0x3d8361d0	0.06415141
188	0xbdcc23e4	-0.09967783
189	0x3d3753e4	0.04475774
190	0xbc910b22	-0.017705504
191	0xbc7b9d3f	-0.015357315
192	0x3e57b9ef	0.21067022
193	0x3dca3c66	0.09874801
194	0xbd12cb51	-0.03583843
195	0xbef090e9	-0.46985558
196	0xbde68141	-0.11255122
197	0x3e9fa4bd	0.31180373
198	0xbec1a6da	-0.3782261
199	0xbd4ba95b	-0.049722057
200	0xbeb53992	-0.35395485
201	0x3e10e4c5	0.14149769
202	0x3ebff09a	0.37488252
203	0x3e4b6a5a	0.19864789
204	0xbd78e0af	-0.06076115
205	0xbf2867b4	-0.6578324
206	0x3f0a61f2	0.540557
207	0xbd9f3e71	-0.07775582
208	0xbe99ed82	-0.30064017
209	0xbe11e7bd	-0.14248557
210	0x3eb8d04b	0.36096415
211	0x3cd6240d	0.026140237
212	0x3e4ef576	0.20210823
213	0x3eaa93cf	0.33315894
214	0xbfd8d8b5	-1.6941134
215	0xbf6bde47	-0.92136043
216	0xbf1e4955	-0.61830646
217	0x3d8aa92d	0.06770549
218	0x3ca837f6	0.020534497
219	0x3e14d5f2	0.14534739
220	0x3e29f157	0.1659597
221	0x3d117b86	0.03551819
222	0x3ca134e6	0.019678544
223	0xbefcb71c	-0.4935845
224	0x3a1c34d5	0.00059588003
225	0xbe9960bd	-0.29956618
226	0x3f00ff6c	0.5038974
227	0xbca1ce3b	-0.019751659
228	0x3e8ae6d5	0.27129236
229	0x3f00063c	0.5000951
230	0x3ed000ff	0.4062576
231	0xbcbc2a77	-0.022969468
232	0xbd07a0c9	-0.03311232
233	0x3e77b18f	0.24188827
234	0xbf822215	-1.0166651
235	0x3c924e8e	0.017859723
236	0x3eb47e03	0.3525239
237	0x3d366f14	0.044539526
238	0xbd29d0e4	-0.04145898
239	0xbf08f0d5	-0.5349248
240	0xbe1550d7	-0.14581619
241	0x3d9924e9	0.07477743
242	0xbe991b4c	-0.29903638
243	0x3d83e346	0.06439833
244	0x3f2c5744	0.67320657
245	0x3e15da4e	0.14634058
246	0x3ca62aa8	0.020284012
247	0xbeb52fb9	-0.35387972
248	0x3d6a14d5	0.057148773
249	0xbd5a415f	-0.053285
250	0xbe1c256f	-0.15248655
251	0xbbf15d47	-0.007365856
252	0x3dc90a0d	0.0981637
253	0xbed8b6d3	-0.42326984
254	0x3ceb1d37	0.028700454
255	0xbec46127	-0.3835537

fc3.bias f4 [100]
0	0xbd83a314	-0.06427589
1	0x3dc0322a	0.09384568
2	0xbd0b2b73	-0.033976983
3	0x3de13ed6	0.10998313
4	0x3e4f23bb	0.20228474
5	0x3e3a2c5b	0.18180983
6	0xbc8c02e8	-0.01709123
7	0xbe007c48	-0.1254741
8	0x3e3eb3d5	0.18623288
9	0xbeaad115	-0.33362642
10	0xbd30cfbf	-0.043166872
11	0xbdb9c24c	-0.09070262
12	0x3de586a9	0.11207325
13	0x3dcac7d7	0.09901398
14	0x3f05fa95	0.5233548
15	0xbe015aa2	-0.1263223
16	0x3e90be35	0.28270116
17	0x3d75c85e	0.06000554
18	0xbe269279	-0.16266812
19	0x3e56b6d0	0.20968175
20	0xbd57980c	-0.052635238
21	0xbe8230fa	-0.2542799
22	0xbd959dd8	-0.07305497
23	0x3e677e6f	0.22606824
24	0xbdd54f2f	-0.10415494
25	0xbe197ec6	-0.14989766
26	0xbdf71fc1	-0.120666035
27	0xbdf26175	-0.11834995
28	0xbc854606	-0.016268741
29	0xbe0e9925	-0.13925608
30	0xbe420b6e	-0.18949673
31	0xbe4e04e8	-0.20119059
32	0xbdc4a4c0	-0.09601736
33	0x3eb186f5	0.34673277
34	0xbe0902c0	-0.13379955
35	0x3e825a90	0.2545972
36	0xbe8e5f5c	-0.27807128
37	0x3e168320	0.14698458
38	0x3cd6c6cf	0.026217846
39	0xbddf4c1c	-0.109031886
40	0x3d018411	0.03162009
41	0x3b9a882c	0.00471594
42	0xbe10d9c3	-0.1414557
43	0xbdf3ee6c	-0.1191071
44	0x3e88d1c4	0.26722538
45	0x3d8a6fc5	0.067595996
46	0xbe0bf41b	-0.13667338
47	0xbd9aad25	-0.07552556
48	0xbd93ac78	-0.0721063
49	0xbef201ba	-0.47266942
50	0xbd8b4daf	-0.06801926
51	0x3e9249f9	0.28572062
52	0xbd5674ad	-0.052357364
53	0x3dda0db6	0.106471464
54	0xbdd267d8	-0.10273713
55	0xba496595	-0.00076826784
56	0xbbba38df	-0.005683049
57	0xbe8d4243	-0.27589616
58	0x3e9289e9	0.28620842
59	0x3e833c02	0.2563172
60	0x3e517f7b	0.20458786
61	0x3e727b53	0.23679857
62	0xbe94f0a7	-0.29089853
63	0xbdbe72f9	-0.09299273
64	0xbe9065e7	-0.28202745
65	0x3d2e9377	0.042621102
66	0xbd1b760e	-0.037954383
67	0xbe0e088b	-0.13870446
68	0x3ead9d6b	0.33909163
69	0xbe0c76fe	-0.13717267
70	0x3e73252a	0.23744646
71	0xbd47840a	-0.048709907
72	0xbedc965e	-0.4308347
73	0x3e9bd6fa	0.30437452
74	0x3d88bc79	0.06676573
75	0x3d52fbe6	0.05150976
76	0xbcab31ee	-0.020897832
77	0x3e07c039	0.13256921
78	0xbdda80b4	-0.106690794
79	0xbe2f3645	-0.17110546
80	0x3e4bd9f4	0.19907361
81	0x3d1ca435	0.038242538
82	0x3e12f037	0.14349447
83	0xbdbac314	-0.091192394
84	0xbd1c8814	-0.03821571
85	0x3d6f0b62	0.058360465
86	0x3eb01c17	0.3439643
87	0x3e666919	0.22501029
88	0x3e1d8cde	0.15385768
89	0xbe1b90ee	-0.15192005
90	0xbe122906	-0.14273462
91	0xbdf4a53f	-0.11945581
92	0x3e611a54	0.219827
93	0xbdc6123a	-0.09671445
94	0xbeea3b95	-0.45748582
95	0x3d3e8028	0.046508938
96	0xbdfb6fdc	-0.12277195
97	0xbee12953	-0.4397684
98	0x3e0a94ec	0.13533372
99	0x3e1d20b0	0.153445

fc4.weight f4 [2, 100]
0	0x3dceb1e3	0.10092523
1	0xbece2c5a	-0.40268213
2	0x3bf1fb9a	0.0073847296
3	0xbc699513	-0.0142567335
4	0x3eba6889	0.3640788
5	0xbf6dda53	-0.9291126
6	0x3d933a76	0.07188885
7	0x3e96276b	0.2932695
8	0x3cbd477c	0.023105375
9	0x3e4acd9f	0.19805
10	0x3cbccb65	0.023046205
11	0x3c454210	0.012039676
12	0x3cb6d7b0	0.022319645
13	0x3dad9626	0.08475904
14	0x3fb4b941	1.4119035
15	0xbcd5d925	-0.02610452
16	0x3e62c894	0.22146827
17	0xbf256f50	-0.64622974
18	0x3f97cccd	1.1859375
19	0x3cb38b6f	0.021917073
20	0x3ca6e818	0.020374343
21	0xbf45ef98	-0.77318716
22	0x3d57af11	0.05265719
23	0x3dce8722	0.10084368
24	0x3e1341cd	0.1438057
25	0xbf339d27	-0.7016167
26	0x3d811618	0.06303042
27	0x3f869a8d	1.0515915
28	0x3d216745	0.039405126
29	0x3d192c94	0.03739603
30	0xbeafe3f7	-0.3435361
31	0xbf0804a9	-0.5313211
32	0xbeadb536	-0.33927315
33	0x3e9d1651	0.3068109
34	0x3b0d622a	0.0021573403
35	0xbefb01e4	-0.4902488
36	0xbf30bf64	-0.6904204
37	0x3e139438	0.1441201
38	0x3d4423e2	0.047885783
39	0xbc358f6a	-0.011081556
40	0xbe47368f	-0.19454406
41	0x3d31678f	0.04331165
42	0xbd2b8aa1	-0.041880254
43	0x3f25cb89	0.64763695
44	0xbec5ea60	-0.38655376
45	0x3dc0f1e0	0.09421134
46	0xbcd85b56	-0.02641074
47	0x3f15b9e7	0.5848679
48	0x3b05ec01	0.0020434859
49	0xbf7740ab	-0.9658305
50	0xbdbec30e	-0.093145475
51	0x3e1341c9	0.14380564
52	0xbdca4402	-0.09876253
53	0x3e20a158	0.15686548
54	0xbd52c8a8	-0.051460892
55	0x3d839459	0.064247794
56	0x3e02dbbf	0.12779139
57	0x3d3cb288	0.0460687
58	0x3e1bb49d	0.15205617
59	0x3f1cce6a	0.6125246
60	0x3c9a8292	0.018861089
61	0x3ecac38a	0.3960231
62	0x3f0806b9	0.5313526
63	0xbb336e42	-0.0027378951
64	0xbf296d11	-0.6618205
65	0xbf0bff9a	-0.5468689
66	0xbd6075d6	-0.054799877
67	0x3e6ee4d8	0.23329484
68	0x3eab0935	0.33405462
69	0xba8d020e	-0.0010758059
70	0x3e478cfc	0.19487375
71	0xbded30b6	-0.115815565
72	0x3ec196f6	0.37810487
73	0x3e57876f	0.21047758
74	0xbd0700cc	-0.032959744
75	0x3d5ade35	0.05343457
76	0xbda5024f	-0.08057081
77	0xbefa0a30	-0.48835897
78	0x3cec7b2a	0.028867323
79	0xbcbef86e	-0.02331182
80	0x3d019bac	0.0316426
81	0x3beb4cc6	0.007180783
82	0x3ddea1c0	0.10870695
83	0x3d9bdef3	0.076108836
84	0x3cef297f	0.029194592
85	0xbeb4e258	-0.35328937
86	0x3e59eee6	0.21282539
87	0x3e09ec32	0.13469008
88	0x3f05bf54	0.5224507
89	0x3d9c1b10	0.07622349
90	0xbfccee55	-1.6010233
91	0xbec8044b	-0.39065775
92	0x3e8fdb64	0.2809707
93	0x3dc08862	0.09401013
94	0xbf47343b	-0.7781407
95	0x3e9ef3c9	0.31045368
96	0xbd463328	-0.04838863
97	0xbf285e84	-0.6576922
98	0x3f025889	0.50916344
99	0xbcc88c2e	-0.024480905
100	0xbc6f98f7	-0.014623872
101	0x3ec5fd31	0.38669732
102	0xbc8c33b0	-0.01711449
103	0xbbe979ee	-0.007125131
104	0xbe6f2ba1	-0.23356487
105	0x3f629b8b	0.8851859
106	0x3d943254	0.07236162
107	0xbe87931c	-0.26479423
108	0xbbb10d40	-0.005403191
109	0xbea5d115	-0.3238608
110	0xbda2afde	-0.079437
111	0x3d21a029	0.03945938
112	0xbdaf3a51	-0.08556045
113	0xbdaf1007	-0.08547979
114	0xbf9fd664	-1.2487302
115	0x3d36d788	0.04463914
116	0xbdb7bb3d	-0.0897126
117	0x3f15e066	0.5854553
118	0xbf9ad253	-1.2095436
119	0xbdf795a0	-0.120890856
120	0x3d024527	0.03180423
121	0x3f26b45a	0.65118945
122	0x3d3ee542	0.046605356
123	0xbdcbe0db	-0.09954997
124	0xbc01a64d	-0.007913184
125	0x3f20f973	0.6288063
126	0x3d1ec4a6	0.038761757
127	0xbf84d0b2	-1.0376189
128	0xbe443628	-0.19161284
129	0xbd0f0997	-0.034921255
130	0x3eb37c94	0.35055983
131	0x3ef3d3a9	0.4762242
132	0x3ec07777	0.37591144
133	0xbebd0e18	-0.36924815
134	0x3ddaa435	0.10675851
135	0x3efc0c44	0.49228108
136	0x3f357e11	0.7089549
137	0xbad881d1	-0.001651818
138	0x3d75f630	0.060049236
139	0xbc96ddd2	-0.018416319
140	0x3de53148	0.1119104
141	0x3c69498c	0.014238726
142	0x3d33148b	0.043720763
143	0xbf3146fb	-0.6924893
144	0x3edbad5c	0.429057
145	0x3d23fe31	0.040037338
146	0xbcc69118	-0.024239108
147	0xbefae7a3	-0.4900485
148	0xbbb4cc83	-0.0055175438
149	0x3f91116a	1.1333439
150	0x3c0d5837	0.008626989
151	0xbaa82bff	-0.0012830495
152	0xbd51e1c3	-0.051240694
153	0x3b582e22	0.0032986482
154	0xbd1327c0	-0.03592658
155	0x3d654450	0.05597335
156	0xbc863af8	-0.01638554
157	0xbd4a1fe7	-0.04934683
158	0xbe2d6c09	-0.16935743
159	0xbf0fcfcb	-0.5617644
160	0x3b874c04	0.004128935
161	0xbe8a9377	-0.27065632
162	0xbf317f42	-0.69334805
163	0xbd0f090e	-0.034920745
164	0x3f3bc25d	0.7334345
165	0x3f024764	0.50890183
166	0xbcbf640c	-0.023363136
167	0xbe716050	-0.23571897
168	0xbedce177	-0.43140766
169	0x3dde5dc8	0.10857731
170	0xbe4d4a2e	-0.20047829
171	0x3cb8b4aa	0.022547085
172	0xbeea6b90	-0.4578519
173	0xbe66f563	-0.22554545
174	0xbd6d3a1e	-0.057916753
175	0xbdaa1e32	-0.083065405
176	0xbbf7d222	-0.0075628916
177	0x3eb086fc	0.34477985
178	0xbcc940f4	-0.024567105
179	0x3c106f1a	0.008815551
180	0xbc9c1caf	-0.019056646
181	0xbd0941ae	-0.033509903
182	0xbd679f7e	-0.056548588
183	0x3d0fb299	0.035082433
184	0x3baffcfc	0.0053707343
185	0x3ef37f5c	0.47558105
186	0xbe8f75cf	-0.28019568
187	0xbe00dce5	-0.12584265
188	0xbf2a5d9a	-0.66549075
189	0xbbea3e0a	-0.007148509
190	0x3fc7b172	1.5601027
191	0x3ee70cb2	0.45126873
192	0xbe4ef0e4	-0.2020908
193	0x3d8bedb3	0.06832447
194	0x3f48a3bf	0.78374857
195	0xbeec3aca	-0.46138602
196	0xbbe5a34e	-0.007007993
197	0x3f0e6108	0.5561681
198	0xbf1b62be	-0.60697544
199	0xbd590937	-0.052987304

fc4.bias f4 [2]
0	0xbda83c43	-0.08214619
1	0xbd279b67	-0.040919688
