onnx_models/fdia_model_ffnn_pytorch_200_400_200.onnx (onnx, 748137 bytes, 8 tensors)

fc1.weight f4 [200, 128]
00000000: 1155 c83d 4e19 24be ad03 debe 0eb5 853a
00000010: 45c9 bbbd f2d6 6dbe aedd 62bc 7c8e b83d
00000020: 7a52 b33c 1e86 9a3d 197d 883b 0939 bd3b
00000030: 9dbe 39bd 8198 04bd d065 fbbd 9c83 8bbb
00000040: f141 0d3c 59e1 96bc 2fc8 4abe 8f35 76be
00000050: 4f1e 51bc 015a 4abe 279c 5abe 9fd5 91bd
00000060: 5fde 9c3d e43b 6dbd 5d24 6f3c fa89 5fbb
00000070: 1d67 c23b 1796 06be 10cc 203e e550 603c
00000080: f7f5 b4bc d2fa 82bd f6b1 c33e 6451 a3bd
00000090: c023 c23e 3440 1f3d 20de c43d d33d c3ba
000000a0: 6e0c 22bc 4ab1 893d b285 983e efd3 6abe
000000b0: 96fb 813d fc82 edbb 8965 a0bd 5ce3 6c3c
000000c0: fce8 91bd 82e4 8cbd 3d0c 8cbe bfdd 4dbe
000000d0: e486 86bd 4988 a8bc 9bda 01bc 96bc 1d3e
000000e0: e0c8 f9bc 1243 593b 06bc 0d3d 06e7 a83d
000000f0: e843 50be 2401 9e3b 9d15 cc3c a0b6 a83e
00000100: 079f 013d 7a55 7b3d d702 bdbd ec49 28bd
00000110: df05 403a 2343 babb 34d0 853d f858 bf3d
00000120: 3fb4 863d 93df 0f3d 87e5 afbc e90d 2ebd
00000130: 93d6 de3a c98b b43c 8a09 f53c 381e fbbd
00000140: 9d58 d13d 8ed0 9cbd bfde 983c e050 aeba
00000150: 8901 833d 8bf3 4bbd fd0b 6ebd 12c0 bf3c
00000160: 293d 12be 2383 48be e3a7 66bd 188a 53bd
00000170: 7024 22be 7367 fbbb 45a8 c3bd 01b0 81be
00000180: cff3 cf3d 066a 173c f736 c03a e150 81bc
00000190: fb28 10bb 181e a03c 7684 583d 6727 80bd
000001a0: 4deb c2bd 56f3 a0be bd28 9fbe a978 303d
000001b0: 6616 d4bd ffdb 1d3e 12eb 37be 02db 963d
000001c0: afb6 51bd 5725 533d d314 283d 0dd8 e4bc
000001d0: ff8d 4bbd 3d5b f4bc cedc 0a3d 7fee fbbc
000001e0: f5cf 823d c84f 8c3d 3ebc 1c3c c056 093d
000001f0: d7a8 7d3d 6a89 b7bc 9021 b8bb 67ca a23b
00000200: 449d 093b b411 34bd f5ad 833e 8ec3 3b3d
00000210: 1b18 b7bc 46d1 50bc affc 98bd af38 03be
00000220: e2eb e23d 2ba7 b3bd 8b34 ddba 015f 7cb8
00000230: c83f ccbc b444 fc3a 0996 1a3e 3b3b 513d
00000240: d890 eebc 333c 753c 618f 11be 2e45 46be
00000250: 2b07 203d 6fbb 003e 7b12 5c3d 309c 9e3c
00000260: 59a8 713d 55f5 9ebc 212e f9bc 4684 cf3b
00000270: 22dd 363d 80c1 d1bd 05fd dc3e de2b 27be
00000280: 6600 89bd 35c7 97bb 8a2b 51bd 2e61 09be
00000290: 4bcd 88be 669e 42be 2a39 063d bb13 aa3b
000002a0: 34e5 d6ba 2cea bbbd 76c3 28be 3d3b f63d
000002b0: e234 473d e0e0 69bd 1651 adbd 0b3f c0bd
000002c0: 5cab f53b a041 18ba 6385 5e3d bcb8 c83d
000002d0: 9e63 94bd 2b96 4fbc 3719 4dbc 895d aa3b
000002e0: c161 383d 744d 89bc 794e 2f3c 94fa f03c
000002f0: c36b 0abe de0b fc3b 6823 bebd d097 fa3a
00000300: bee9 91bd 586d 61be 1fed 84be ebf8 b53c
00000310: 7503 083a 6257 183b fd25 213d 1b76 ebbd
00000320: 06e5 673e adea a33d 6888 eb3c 9cd9 edbd
00000330: bccf b9bd b164 b2bd d033 c43b dfc2 973e
00000340: 514d 333e c145 d2bd 10c8 c03d 6d30 4fbd
00000350: 9745 6fbd 3503 ebbb d024 c9bc 4f3f 1dbd
00000360: 469e b2bc 3f04 b53e fcce 8bbd c21d c4ba
00000370: e23c 4d3c 75f4 7ebb ea38 d3bd 576f c83d
00000380: 9528 f4bc 9d3f ac38 6d99 003b d57b c23c
00000390: 37ad f13a b418 8e3e 1444 7c3c 70b1 b03d
000003a0: 55ab 2ebd e020 663d eb94 f1bc d498 a13d
000003b0: e11b 893e 1815 653e 93e3 41bc bb84 da3c
000003c0: 42d1 9d3d fd2c b13c acf0 41bd 9131 7e3d
000003d0: 3a7a 75bd 1e9c 603c 5100 eabc 3153 34bd
000003e0: 6957 9e3d 639b 6bbd ef55 28bd 1702 9dbc
000003f0: 94b4 863c 1eac 2b3d d5a6 46bd a22d b23d
0.0978185 -0.16025278 -0.4336218 0.0010201053 -0.091692485 -0.23226526 -0.013846798 0.09011552
0.021889914 0.07545112 0.0041653034 0.0057746214 -0.0453478 -0.032372 -0.122752786 -0.0042576324
0.008621679 -0.018418001 -0.19802926 -0.24043868 -0.012763574 -0.19760896 -0.2134863 -0.07120823
0.076596014 -0.057918444 0.014596072 -0.003410934 0.005932702 -0.13143192 0.15702844 0.013691162
-0.022089941 -0.063954964 0.3822171 -0.079745084 0.379179 0.03887959 0.096126795 -0.0014895744
-0.009890659 0.06723268 0.297895 -0.22932409 0.06346814 -0.0072482806 -0.07831866 0.014458504
-0.07124516 -0.06879522 -0.27353087 -0.2010412 -0.06568697 -0.020572798 -0.007925655 0.15403971
-0.030491292 0.003315155 0.03460314 0.08247189 -0.20338404 0.0048219133 0.02491265 0.32951832
0.0316458 0.061360814 -0.09229057 -0.041086122 0.00073250936 -0.005684273 0.06533852 0.09343141
0.06577348 0.035125326 -0.021471752 -0.042493735 0.0017001204 0.022039311 0.029911775 -0.12261623
0.1022198 -0.07656966 0.018660901 -0.0013299249 0.06396777 -0.049792808 -0.0581169 0.023407016
-0.14281143 -0.19581275 -0.056312453 -0.05164537 -0.15834212 -0.007672244 -0.09553579 -0.25329593
0.10153925 0.009241587 0.0014664818 -0.015785636 -0.0021997083 0.0195456 0.0528607 -0.062575154
-0.09517536 -0.3143565 -0.31085768 0.04308382 -0.10355835 0.15415953 -0.17960766 0.07365991
-0.05119961 0.051549282 0.041035485 -0.027935052 -0.049695965 -0.029828662 0.033901982 -0.030753372
0.06387321 0.068511546 0.009566365 0.033529997 0.061928596 -0.022404391 -0.0056192353 0.004967976
0.0020998279 -0.043962196 0.25718656 0.045840792 -0.022350362 -0.012745207 -0.074700706 -0.12814592
0.11080147 -0.08772119 -0.0016876621 -6.016996e-05 -0.024932757 0.0019246549 0.15096296 0.051081877
-0.029121801 0.014967966 -0.14214851 -0.19362327 0.039069336 0.125715 0.05372856 0.019361585
0.05899844 -0.019404093 -0.030417504 0.006332907 0.044644482 -0.10241985 0.4316179 -0.16325328
-0.06689529 -0.0046319016 -0.051066913 -0.13415977 -0.26719126 -0.19005737 0.03276936 0.0051903403
-0.0016395212 -0.09175524 -0.16480812 0.120230176 0.048634417 -0.057099223 -0.084627315 -0.093870245
0.0074972343 -0.0005808119 0.054326426 0.0980086 -0.07245563 -0.01267008 -0.012518219 0.0051991385
0.0450151 -0.016760565 0.010699862 0.02941636 -0.1351767 0.0076918444 -0.09284097 0.001911873
-0.07124661 -0.22014368 -0.2596216 0.02221342 0.00051885034 0.0023245444 0.03934287 -0.11497136
0.2264596 0.08003745 0.028751567 -0.11613771 -0.09072825 -0.087106116 0.005987622 0.29640862
0.17509963 -0.10267211 0.09413159 -0.05058329 -0.058415975 -0.007172013 -0.024553686 -0.038390454
-0.021803986 0.35354802 -0.068265885 -0.0014962482 0.012526723 -0.0038903032 -0.1031359 0.097868614
-0.029804507 8.213448e-05 0.00196227 0.023740688 0.0018438463 0.27753222 0.01539709 0.086275935
-0.042643864 0.056183696 -0.029489955 0.07890478 0.26779082 0.22371328 -0.011834043 0.026674619
0.077059284 0.021627897 -0.047348663 0.06205899 -0.059931017 0.013709096 -0.028564604 -0.04402465
0.07731516 -0.057521235 -0.041097578 -0.019166036 0.016443528 0.04191219 -0.048498947 0.0870011

fc1.bias f4 [200]
00000000: be75 853d 658f b43d edb7 7fbd 04e5 1bbd
00000010: 3f23 54bd 2408 85bd d7bc 06bc ac9b 5e3c
00000020: 2dc7 acbd 8c49 ffbc ed38 4dbc b7ff 933d
00000030: 9ede 793d da60 a4bc 3e7c 54bd e2f6 03bd
00000040: 978a 3dbd e46a 8abd 3ad0 e4bd 1faf 2cbc
00000050: 2bab d63c 3e40 2a3d 4182 aabd 1899 8fbb
00000060: c81b b43d e92b edbd 93a5 943d 90bd 95bd
00000070: d07a 67bd 36a6 613d 8944 da3c bc8f bbbd
00000080: 7a18 1ebd 389c 18bd b7f3 683c 9fed 393c
00000090: 51c5 9a3c 3250 a7bd a6a0 523d d8a1 1ebd
000000a0: d7b1 a13d bd84 573c e420 483d 922f abbd
000000b0: f176 0abd 5c64 77bb c459 50bd 3b24 fb3b
000000c0: d9b9 1bbd f5ff 273d 0130 ebbc 3330 a93d
000000d0: c3fe fa3c 19a2 ccbd fd7a 2ebc dc33 5a3d
000000e0: 6b99 50bc 6288 473c ed0c 293d d4b6 9739
000000f0: 12c3 4d3d a471 c13d 6af9 c6bc 4e2e 9b3d
00000100: ad8a 5b3c d2ad cbbc 0eba 08bd 093c ab3d
00000110: f009 283a 8b3a 95bd 5341 703d 14b0 293d
00000120: 34de b1bc f3cd a13c 7371 e0bc 1513 91bd
00000130: 82d1 0ebd ae48 cc3c d31a 6f3d 41e6 62bd
00000140: 9132 7cbd 7d66 04bd e443 97bd 738a 3c3d
00000150: 1c06 b8bd f618 c1bd c089 3bbd 2d16 0c3d
00000160: 3306 84bd 24ce de3c 3325 39bc e2df 6dbd
00000170: 7b61 0e3e 2037 8fbd 89b7 3fbd a110 933d
00000180: ec83 bfbd 56e0 913d 16dd f3bc 4b27 9dbd
00000190: af34 7abd 3d17 4c3a 66e5 3a3c eb4a 763d
000001a0: 7302 053c 181a dabd 63a8 05be 58c9 843d
000001b0: 543b 80bd e649 4e3c 66af f43c 776b 8ebc
000001c0: 06fb 50bd e5cf 0f3d 0a6c 9cbd 0865 cabd
000001d0: 3543 5bbc 8c7b 1bbd 5a89 4d3d f21d 443d
000001e0: 5b37 33bd f52b c33c b21d 3c3d dedf e1bd
000001f0: 3102 a53d 3a26 703d 6139 5bbc f6c5 7cbd
00000200: 3e4e 62bc 5ebf 17bd f16e d3bd ea0f 7fbb
00000210: f930 ce3c e4d8 3e3d 8a48 d03c c7cc d73b
00000220: 31e9 f5bc 26b5 9f3d 886a 553b 09fa ab3c
00000230: fe8b 84bd b35b f0bc c134 b0bb 159d 713d
00000240: 71fe 8d3c 4d84 1ebe 7bb4 19bd 34e9 e5bb
00000250: fa6f 9fbd 1455 8a3c 6490 0cb9 ffc0 8dbd
00000260: 8bb0 f3bb 49a3 ef3d 850c f53b 4896 a4bc
00000270: 7b8f 3fbd 0940 813c 4aee dd3c 9462 dcbd
00000280: 4c26 803d fd91 1dbd b872 b63b 013b 973d
00000290: f720 0a3e 9b7f c93d 5ebd 8abd 48a2 41bd
000002a0: 6443 933c fd83 743c bb43 e0bd 4a1f 873d
000002b0: 729e f4bc 25c5 bfbd 6b1c bbbd 39e7 aa3b
000002c0: 30f2 83bd f1c8 76bd 41eb 3abd 0ee9 a9bb
000002d0: 0888 06bd d406 c3bd 6f43 68bd d1e5 ce3b
000002e0: 96f5 9c3b fd8c 423d d334 353c 72d4 0fbe
000002f0: 97cc 04bd 9581 88bd 51c4 95bd 1959 d5bc
00000300: bd88 c6bd f341 5b3c ad4c b7bd 6546 a1bd
00000310: 3e78 0abd 0228 d43c 7374 9b3c e2e2 6abd
0.06516598 0.08816413 -0.062431265 -0.038060203 -0.051791426 -0.06495693 -0.008223734 0.01358692
-0.08436427 -0.031163 -0.012525779 0.07226508 0.06100332 -0.020065714 -0.0518763 -0.032217868
-0.046274748 -0.06758669 -0.111725286 -0.010539799 0.026204666 0.041565172 -0.08325625 -0.004382264
0.08794361 -0.11580641 0.07258143 -0.07311547 -0.056513608 0.05509015 0.026644008 -0.091582745
-0.03859756 -0.037258357 0.014218262 0.011348157 0.018892916 -0.08169593 0.051422738 -0.038728565
0.078952484 0.013154206 0.048859492 -0.08358683 -0.033804838 -0.0037749028 -0.050866857 0.007664231
-0.038019035 0.041015584 -0.028709413 0.082611464 0.030639058 -0.09991855 -0.01064944 0.053272113
-0.01273189 0.012178512 0.041272093 0.00028937182 0.05023486 0.09445503 -0.024288852 0.07577191
0.013399762 -0.024863157 -0.03338056 0.0836106 0.0006410172 -0.07286557 0.058656048 0.041427687
-0.0217124 0.019751525 -0.027397847 -0.07083718 -0.03486777 0.024937 0.05837519 -0.05539537
-0.06157166 -0.032324303 -0.07385996 0.046030473 -0.0898554 -0.09428589 -0.045785666 0.034200836
-0.06446495 0.027197905 -0.011300373 -0.05807484 0.13904373 -0.06992936 -0.046805892 0.07180906
-0.09351334 0.07122867 -0.029768508 -0.0767351 -0.0610854 0.0007785445 0.011407232 0.06013004
0.00811826 -0.10649508 -0.13052516 0.06483716 -0.06261316 0.012590861 0.029868793 -0.017385228
-0.051020645 0.035110373 -0.07637794 -0.098825514 -0.013382723 -0.03795962 0.050179817 0.04788012
-0.043753963 0.023824671 0.045926757 -0.110290274 0.080570586 0.058630206 -0.013380379 -0.061712228
-0.0138126 -0.037047736 -0.10323895 -0.0038919398 0.025169836 0.04659356 0.025425214 0.0065856907
-0.03001842 0.07798223 0.0032564718 0.02099325 -0.06472014 -0.0293406 -0.0053773825 0.058987696
0.017333241 -0.15480156 -0.037525635 -0.0070163254 -0.0778503 0.016886272 -0.0001340523 -0.06921577
-0.007436817 0.11701066 0.007478299 -0.020091191 -0.046767693 0.015777605 0.027091164 -0.1076099
0.062573045 -0.038469303 0.0055678748 0.07384301 0.13489138 0.09838792 -0.067744 -0.047273904
0.01797647 0.014924047 -0.109504186 0.06597765 -0.029860709 -0.09363774 -0.0913628 0.005215552
-0.06442678 -0.060250226 -0.04563451 -0.005185253 -0.032844573 -0.09522787 -0.056704935 0.0063140173
0.0047900183 0.04749774 0.011059958 -0.14045885 -0.032421675 -0.06665341 -0.07312835 -0.026043462
-0.096940495 0.013382423 -0.089501716 -0.07874755 -0.033806078 0.025897983 0.018976426 -0.05734528

fc2.weight f4 [400, 200]
00000000: 09e1 353d 7b60 943a a6b5 553d 1011 153c
00000010: cbaf d936 1e21 b9bd 8465 0a3e 739d eb3d
00000020: a3c5 07bd e1e4 74ba 9bd6 e03c 9133 513d
00000030: adc5 84bd d317 0a3d 063d c2bd 14f8 223d
00000040: 1f6f 3d3d 2358 3fbd 2364 ea3d 74af d5bc
00000050: cbfa 09be 30fc 99ba b54d 0ebd 318e fa3c
00000060: e8fa bbbc 7788 283c e947 4cbd 1436 c33c
00000070: c8eb 033d ac0d 07bd 93ef 0e3d 231f 23be
00000080: 45c2 603d 297f eb3c ebfc 71bd 9358 41be
00000090: 86d3 56bd a52a 8ebc 5f1e 0cbd ce49 01be
000000a0: d241 3fbc 05c1 e8bc 232b f63d 7530 30bd
000000b0: 3f92 88bc e7f4 57bd 61f6 4cbc 0add 0d3d
000000c0: a9e7 983c 9234 1abd 76cd 4bbd b0b4 3dbd
000000d0: abf1 99bc 5eda 19bc 3044 33bd 1eec f4bc
000000e0: d788 14bd a873 c7bd 7a63 973d 602b 563d
000000f0: 5fd3 623d b557 3dbc f216 b53d dcd8 f1bd
00000100: ed31 15be b3f8 713d adb8 773c bd44 52be
00000110: 93c1 633c b0e7 e7bb c15e b8bd e23f 603c
00000120: 7c4d 16bc d006 d9bc 1514 d43d 6b7e a2bd
00000130: ea3d 00bd a60c de3d a931 a4bc 0054 593b
00000140: 794c e03b 6088 efbd 0023 273d 6f71 373b
00000150: 2318 993d 4f17 94bd 886d 4dbd ccbc 91bd
00000160: 4a82 243d da17 633c 9aad 5cbd 9d53 80bc
00000170: 15e9 e8bd 46f3 76bd 323b a5bc 935a c33c
00000180: 66f6 703d a0fc 13bd 2a09 453d b858 a0bc
00000190: 8ce5 98bd 2f17 9839 936c 85bd fa34 773d
000001a0: f218 ca3b 4cec 693d 8ff4 31be 0198 cebd
000001b0: 8cc1 9a3d edbd 35bc 20d9 78bd faa3 c63c
000001c0: 0cf5 f7bd 41ea aa3c c729 9cbc 2d3c c9bc
000001d0: 2e6b ac3d 8228 aabc 3d10 6d3d 2b40 09bd
000001e0: 97ef babc 0008 933c 79cb 5b3c 2159 bc3d
000001f0: 2ddc 3e3c 2315 bc3d c49c 31bd dd47 59b8
00000200: 802d a3bb a60d 0b3c d65b 09bd 62a6 2bbd
00000210: c68b 0dbd c0fd 803d 83ab 4a3c 2d13 8ebd
00000220: 38f0 0abe 50fb bf3d b0bd 3bbd 2636 40bc
00000230: 002c 123d a2a4 333d b96f 9f3d 75a0 19bd
00000240: b720 01be e796 5b3c 8dee debd 69d7 e13c
00000250: 47d9 37bd ae3c c93c e176 223d 2c0d 2738
00000260: 13b6 c6bd c3b4 9e3d 54ae 81bc 725c 16bc
00000270: d034 4dbc 7607 8ebd ccb1 4a3d 369b 98bd
00000280: fa94 f8bd fee0 cfbc b6f5 eabc 4f59 dbbd
00000290: cfca 923c 9a53 00bb dcbb ebbc e0bb a0bb
000002a0: 2d99 b43c c932 3c3d 6cf2 303c b8d1 75bc
000002b0: 4ec9 79bb c264 613c 0417 89bd cb73 4b3d
000002c0: 9456 913d 59f4 d3bc 7447 91bd f4fb 71bc
000002d0: 07b3 c5bd 555b cabd fa9d fabc 0912 9bbd
000002e0: 96fe adbc e12e 9c3c 845c a6bd 0526 993c
000002f0: 11b1 cd3c bd53 f6bc 94fa 06bc 84d0 8e3d
00000300: 3f44 0c3e 4cd0 4fbd f00f 92bd fd72 50bc
00000310: f11e 1d3c c96e 1b3d 862e 4a3d 4c97 763c
00000320: 9f17 2c3c 0f65 fd3c d066 1a3d f1ae a23c
00000330: e63e 223d b810 f2bd 1456 cc3b cfdf 3cbd
00000340: 114e 5b3c f6e0 b7bd c950 f7bb 04e4 24bd
00000350: 92ba 74bd e8bd 1b3d 2ce6 f23c cbbf d3ba
00000360: 5e25 cebc 38ec ff3c d11e afbd fc3d e7bc
00000370: e551 3dbc cbfc 06bc 0910 6c3d dd07 29bd
00000380: eb63 c7bc 6b5f 90bd 155a e13c 8bd0 4b3c
00000390: 51bd 62bd ca4e 3dbd 9b84 95bd 3a28 82bd
000003a0: 4240 913a 3b42 fd3c 6706 9e39 5848 60bd
000003b0: f080 6b3c 66d3 19bd aec6 b7bb 1b79 b13c
000003c0: 67b6 6ebc c54a 6b3d 7f6b 49bc 2363 6ebd
000003d0: c9ec 56bd ab1a 2cbd 2dbb 633d ed9c ebbc
000003e0: e8fa e2bc a9f8 4abd 25e4 28bd 9d2b 613d
000003f0: 5711 0bbd 3ee9 22bd faa0 1fbd a955 83bd
0.044404063 0.0011320257 0.052175187 0.009098306 6.487569e-06 -0.0903952 0.13515288 0.115046404
-0.033147465 -0.0009341967 0.027446082 0.05107457 -0.06483016 0.033714127 -0.094842955 0.039787367
0.04624855 -0.046714913 0.11444881 -0.02608464 -0.13474576 -0.0011748131 -0.034742076 0.03058538
-0.02294679 0.010286442 -0.049873266 0.023829497 0.03220728 -0.032972023 0.034896445 -0.15929846
0.05487277 0.028747158 -0.059079092 -0.18881445 -0.05244782 -0.017354319 -0.03420865 -0.1262581
-0.011673408 -0.028412351 0.120199464 -0.043014962 -0.016671298 -0.05272379 -0.012509913 0.034634627
0.018665152 -0.03764779 -0.04975649 -0.046314895 -0.018791994 -0.009390442 -0.0437662 -0.029897746
-0.036263313 -0.097388566 0.073920205 0.05228746 0.05537736 -0.0115565555 0.08842267 -0.11808941
-0.14569826 0.05907507 0.015119714 -0.20534034 0.013901132 -0.00707718 -0.09002448 0.013687106
-0.009173747 -0.026492506 0.10355393 -0.079342686 -0.031309046 0.10842256 -0.020043211 0.003316164
0.0068450538 -0.11695933 0.040804863 0.0027991196 0.07475307 -0.07231008 -0.050153285 -0.07116088
0.040163316 0.013860667 -0.053876497 -0.01566487 -0.11372582 -0.060290597 -0.020169828 0.0238469
0.058828734 -0.036129594 0.048104443 -0.019573554 -0.074656576 0.00029008972 -0.065148495 0.060353257
0.0061675245 0.057110116 -0.17378448 -0.10087586 0.075564474 -0.011092645 -0.06075394 0.024248112
-0.12107286 0.020863654 -0.01906289 -0.024564827 0.084188804 -0.020771269 0.057876814 -0.03350846
-0.022819323 0.01794815 0.013415211 0.091966875 0.011649174 0.09183719 -0.043362394 -5.180376e-05
-0.0049797893 0.008487141 -0.033534847 -0.041906722 -0.034557126 0.06298399 0.012369993 -0.06937251
-0.13568199 0.09374106 -0.045835197 -0.01173166 0.035686493 0.043858178 0.07784981 -0.03750654
-0.12610136 0.013402677 -0.10885344 0.027568536 -0.044884946 0.024565067 0.039664153 3.982817e-05
-0.09702697 0.07749321 -0.015830196 -0.009177314 -0.0125247985 -0.06935017 0.049485967 -0.07451479
-0.1213779 -0.02537584 -0.028681617 -0.10710394 0.017918972 -0.001958108 -0.028776102 -0.004905209
0.022045696 0.04594687 0.010799985 -0.015003614 -0.0038114372 0.013756933 -0.06693843 0.049670976
0.070965916 -0.02587335 -0.07093707 -0.014769543 -0.096532874 -0.098807015 -0.030592907 -0.07571799
-0.02123956 0.019065322 -0.08123115 0.018694887 0.025108846 -0.030069226 -0.008238453 0.06973365
0.13697909 -0.050735757 -0.07131946 -0.012722728 0.009589897 0.03794745 0.049360774 0.01505072
0.010503679 0.030931978 0.037695706 0.01985881 0.039610766 -0.11819595 0.0062358472 -0.046111878
0.013385312 -0.08978455 -0.007547472 -0.040256515 -0.05974824 0.038022906 0.02965077 -0.0016155181
-0.025164302 0.031240568 -0.085508 -0.028227799 -0.01155517 -0.0082389815 0.05763248 -0.041267265
-0.024339637 -0.070494495 0.027508775 0.012439857 -0.055356327 -0.046217717 -0.07300683 -0.06355329
0.0011081772 0.03091537 0.00030140879 -0.054756492 0.014374003 -0.03755512 -0.0056084013 0.021664193
-0.014569855 0.057444353 -0.0122936955 -0.058200013 -0.05247191 -0.04201762 0.055598427 -0.028761351
-0.027707532 -0.049553547 -0.0412332 0.054973233 -0.033952083 -0.03977322 -0.03897188 -0.06412823

fc2.bias f4 [400]
00000000: 9b91 80bb 9ba6 bcbd 1d35 2cbd 65cc 1f3c
00000010: f60f 57be feed 3dbe c09d ca3d 8993 c4bd
00000020: 7bcd 06bd 711b 5e3c 2058 223c 14fe 9e3e
00000030: 05fd 0cbc 481a b4bd 781e 753d 2f8a 31be
00000040: e40c 2c3e 5cce 1f3c 4f0e 82be 58c8 91bd
00000050: c45e d1bd 12ae d1bd 1e75 a93c 1dec 3fbd
00000060: e554 593e 2322 aa3c 2379 cdbd 7af8 0b3d
00000070: 4171 943b cfe7 733d 96d2 323d ff6b 223c
00000080: 6223 b5bd 9bae 5f3e d1b2 56be d996 c3b9
00000090: dc9a d3bb 7024 4ebd 8ab1 7bbe 4bfe 4fbd
000000a0: f760 8ebd 4748 a53d 5617 8f3c d05f aa3c
000000b0: 5f8c 17bd 1e37 2ebd 5978 32bd 437c babd
000000c0: c66c 35be 5d5d 3bbd 07e3 fdbc c652 2dbd
000000d0: 276f 343b b9f5 a83e 6882 843e bd9a a2bd
000000e0: 952d 32be 1e71 4abd ffea 8c3d b646 38bb
000000f0: d092 4dbb df6a 0c3c 1657 58be 9ce6 f7bd
00000100: 7999 d33d c48f 13be 9746 5bbd eda6 8f3d
00000110: ebea a83d a644 88bd 4e5e ac3d de81 703e
00000120: 04a2 8cbd b549 5a3e 6cdb 88bc c25d 54be
00000130: e3d6 cabd d2be 13bd 45c1 16be 7c3b 6d3c
00000140: 8649 9a3d fdd2 fbbc 774a 88be 7fe7 a2bc
00000150: cfbf acbd c6e1 823c 454e b7bd faff 1ebd
00000160: d628 6f3d 5401 a53d 5790 1abd e95b 6b3b
00000170: e21e 93be c292 48bd 3048 d03b 888c 5cbe
00000180: e478 0ebe 3a34 1dbe 2865 45bd 1eab 03be
00000190: aa36 80bd 7b52 ae3c 3578 02be 54fa 433d
000001a0: d435 1f3c e193 82bd 348c 19be e318 ff3d
000001b0: 4b3e 90bd ceec 8abc a7be c6bd fe9b 6f3e
000001c0: b94c bcbd e53f 67bd 1f99 41bd 720a a4bd
000001d0: 78c3 883c 0e48 95bd 3af6 0739 fdbc 56be
000001e0: f5f2 0abe 8200 2ebe 946b a4bc 2276 663e
000001f0: e965 3ebe cd4e 913c d929 dabc 69f5 563e
00000200: 84ee 41bc 628f b83d d309 51be c179 5fbc
00000210: edcf c6bd f023 97bd a092 77bd 8650 b5bd
00000220: d93e 7cbd 96b3 b2bd ca6b adbc 111f efbd
00000230: 820b 5cbe 1bf9 953d 3316 0ebe 4373 443e
00000240: f870 b03c fb70 eabd dc00 253c 55fb d2bd
00000250: 0032 de3c 7def 4ebe 30d6 3cbd 24be 06be
00000260: 2c72 06be 8d56 5e39 338e 68bd b8fa cebd
00000270: 3533 29bd 52a8 e9bd 1dac 45be feb7 07be
00000280: ee72 9abd 9e74 98bb c3a2 123e a5fa c13d
00000290: d37a 873d a527 26be eab4 8abe d49b edbc
000002a0: a2f2 38bd fbc3 173e 9d3a cabc 6b35 ae3d
000002b0: 4a10 9bbd 2e2f 7dbd 12a2 193e 2682 9fbd
000002c0: a940 7fbe 43a5 0abd ad1c 93bd 9302 093e
000002d0: e14f a8be 9f5f 9abd 7616 cbbd f091 84bd
000002e0: d385 eebd 95a1 a1bd ab3a ab3e 470a a0be
000002f0: 743d d13d cc58 94bd 2aa2 b1bd 9e4f a13d
00000300: 1a03 50bd dd7b e3bc 0041 d9bd 09cd 5ebe
00000310: 4e84 2abd 9666 33be d32f d83d 5fd2 743e
00000320: 3431 813d a7e9 783e 1613 72bd b963 c8bd
00000330: daee 12bd b998 aebd 70d3 053e 0f5b 57be
00000340: 953f 7d3e dd28 fcbc 5f34 e23d 91e3 f3bd
00000350: d96c ba3d 0192 92bd b5b2 8bbe a292 6e3d
00000360: fa3b e9bc 23f2 8cbd 99e8 46bd 0937 0dbe
00000370: 428d 4bbe be39 07bd c231 543e 9ad7 65be
00000380: 16b4 563d 75ae 313d 4050 e0bc 00b4 873e
00000390: 37cf 343c 15ba 4ebe a8c6 e53c 518e 1abe
000003a0: ca8f 833d 8365 febd e77c 713d 7c67 983c
000003b0: 8591 51bc 5e01 af3d 0bbe 2f3d 7e8e 26be
000003c0: 3b84 f9ba 68fa 7dbc 1fc2 cf3b 1ca5 7cbd
000003d0: dfc1 eabd 08ab 98bd 7d64 cabd f224 d0bd
000003e0: b30c 00be 35cc 893d 9318 363d c53e 073d
000003f0: 00e0 17bd 10c6 60bd f61a 4b3c 02b9 9d3d
-0.0039236075 -0.09211465 -0.04204284 0.009753321 -0.21002182 -0.18547818 0.0989337 -0.095984526
-0.032910805 0.013556347 0.009908706 0.3105322 -0.008605246 -0.08794075 0.05984351 -0.17337869
0.16801792 0.00975379 -0.25401542 -0.07118291 -0.10223153 -0.102382794 0.020685729 -0.046856035
0.21223791 0.02076823 -0.100328706 0.034172513 0.0045301025 0.05954724 0.04365786 0.009913444
-0.08844639 0.2184395 -0.2096665 -0.0003730569 -0.0064576697 -0.05032772 -0.24579445 -0.050779622
-0.06952088 0.080704264 0.017467182 0.02079764 -0.036999103 -0.042533033 -0.043571804 -0.09105732
-0.17717275 -0.045743335 -0.030992044 -0.042315267 0.0027532072 0.32999972 0.25880742 -0.0793967
-0.174002 -0.049424283 0.068807594 -0.002811832 -0.0031368025 0.008570402 -0.2112697 -0.12104532
0.10332007 -0.14410311 -0.053534117 0.070142604 0.08247932 -0.06653719 0.08416425 0.2348704
-0.068668395 0.2131718 -0.016706191 -0.20738891 -0.09904268 -0.036070652 -0.14722164 0.014479514
0.07533555 -0.030740255 -0.26619312 -0.019885777 -0.08435022 0.015976798 -0.089504756 -0.038818337
0.058388554 0.08056894 -0.03773531 0.0035912937 -0.287345 -0.048968084 0.0063562617 -0.21537983
-0.13913304 -0.15351954 -0.048192173 -0.12858245 -0.06260426 0.021279564 -0.12741168 0.047846153
0.0097174235 -0.06375862 -0.1499489 0.12455919 -0.070431314 -0.01695862 -0.09704333 0.2339935
-0.09194321 -0.05645742 -0.04726517 -0.08009805 0.01669477 -0.07289134 0.0001296633 -0.20970531
-0.13569243 -0.16992381 -0.020070828 0.22506002 -0.18593563 0.01773777 -0.026631283 0.20992054
-0.011836652 0.09011723 -0.20413904 -0.013639868 -0.097076274 -0.073799014 -0.060442567 -0.08853249
-0.061583374 -0.087256595 -0.021169562 -0.11675847 -0.21488765 0.07322904 -0.13875656 0.19184594
0.021538243 -0.114473306 0.010071006 -0.10301844 0.027123451 -0.20208545 -0.046102703 -0.1315847
-0.1312949 0.00021203813 -0.056776237 -0.101064146 -0.0413086 -0.11409058 -0.19303937 -0.13253781
-0.07541452 -0.0046525737 0.14319901 0.09471635 0.06615224 -0.1622606 -0.2709115 -0.029004969
-0.045153268 0.14820854 -0.024686152 0.085062824 -0.07571466 -0.061812572 0.15003231 -0.07788496
-0.2492701 -0.033849012 -0.07183204 0.13379888 -0.32873443 -0.075377695 -0.099163935 -0.06473148
-0.11646619 -0.078921475 0.33443198 -0.3125784 0.102167994 -0.07243499 -0.086735085 0.07876514
-0.050784208 -0.027769024 -0.10608101 -0.21757902 -0.04163008 -0.17519602 0.10555997 0.23908375
0.06308213 0.24307881 -0.059100233 -0.097846456 -0.035872318 -0.08525223 0.13068938 -0.2103083
0.24731286 -0.030781204 0.11045145 -0.11908639 0.09102792 -0.07156754 -0.2728478 0.05824531
-0.028470982 -0.068821214 -0.048561666 -0.13790525 -0.19878104 -0.03301405 0.20722106 -0.22445527
0.052417837 0.043379266 -0.027382016 0.26504517 0.011035732 -0.20188172 0.028048828 -0.15093352
0.0642391 -0.124217056 0.058957007 0.018604033 -0.012791042 0.08545183 0.04290585 -0.16265294
-0.00190366 -0.015501596 0.0063402797 -0.061680898 -0.11462759 -0.074544966 -0.09882448 -0.10163297
-0.12504844 0.067284025 0.04445703 0.033018846 -0.037078857 -0.054876387 0.012396565 0.07701303

fc3.weight f4 [200, 400]
00000000: 0dd8 41bd 9686 8b3b 9563 14bd bae9 c9ba
00000010: c18c a33c 0317 1bbd c5cb 5f3d ea81 c33b
00000020: 18de 963a 5f7d c3bc f173 123e e8c2 80bd
00000030: 151e 203d 4493 ffbe 0b21 41bd 3778 05bc
00000040: bd27 483d af16 b93c bbc7 263d 8186 d6ba
00000050: 9e0a 86bd 1d52 df3c 88fd f83c cc46 21bc
00000060: a891 36bc ed47 03be 5287 4cba e288 b7bd
00000070: 2a50 d5be d4b9 14bd 4686 14bd e530 32bd
00000080: 6d7e 48bc 935c b93e 6f68 0e3d e8ed 4dbd
00000090: 6d63 debd d0dd a73a bc3f f73a c0ac e4bc
000000a0: b8c7 0abc daaa 0b3e c936 e7bc ee9e 4ebd
000000b0: bc57 a43c 5291 30bd 5690 fb3c 144b 1b3d
000000c0: 855d 5fbc f8e8 4cbd 176d 65be 4952 08be
000000d0: 39a4 0c3c 8653 f3be d972 72bc 814a 2c3b
000000e0: 25ff 423d bcbc 09bd 56b4 eebd d4a5 c53c
000000f0: 9234 9a3c 7164 ce3d b085 c6bd 94f8 49bd
00000100: 76cc d6bd 1178 2ebe 2521 dcbc 20e2 b7be
00000110: cbdb 663e 22cf d93b 4895 083e 90e2 05bd
00000120: adfa 47bb e537 f839 3260 f4bc f2df 4bba
00000130: afdf 12bd 4da9 383c fd2e 09bc bbe9 ab3c
00000140: 0f0f 7ebe 4b36 ec3c 44cf f93c 5823 38bc
00000150: 4f40 303a 2036 b3bc 9a35 ba3c 49f1 86be
00000160: 6a6e 34bf bbe8 c73d 3381 3f3c c591 d9bc
00000170: af95 103d d67c 45bd ed92 033d d45f 233d
00000180: b706 403d a946 e8bc f308 4dbc 23d4 e5be
00000190: e47e ad3c d90b 35bd 3ce6 4a3b dd3b 17bb
000001a0: edd7 59bd 23d6 11bd 4ae1 9ebc 9eec edbd
000001b0: fa71 b9bc 9572 35bb 8658 a5be 6f2b f8bc
000001c0: ff06 6dbd d9cb 14ba ba37 24bc 7033 d3bb
000001d0: 8fea 8bbe 9298 c8be 0be6 cd3d 3594 fd3c
000001e0: 2d50 13bc 4626 99be 49c1 84bd d7cc 173c
000001f0: 71a1 7fbe a9fb 94bc 79d2 6bbc 0b58 10bc
00000200: 3385 15bd 8766 6cbd 3e80 b6bd 0f5c f53c
00000210: dc7e 93be f6d2 aebd 3bc2 fa3c dc2e d73c
00000220: 2b22 153d 231b 823c d7b8 31bd 56c0 0ebc
00000230: 2e8e d53c 92ba 10bd e951 433d 69fe 85bd
00000240: dd69 36bf 8eb0 4fbe b64c 92bd 9524 1bba
00000250: 04f9 a73c 2f02 b2bc 10a6 37bd a3e4 04bf
00000260: 3a6b b2be c8e8 9abe d4a5 07bd 9af2 6cbb
00000270: e845 31be 9fcd 6dbd cec8 193d ba90 293d
00000280: 6a8c 89bc e3d4 3dbb 518d a8bd ef18 b8bb
00000290: ced8 91be 1a3e cabc 12f5 03bd 3f25 143c
000002a0: 5a50 aebe 94ba e7bd 8f02 083e 1974 cebb
000002b0: 9363 97bc ed0f 30bd 9ad9 043c 1401 5f39
000002c0: d04f fdbc 6a1a 1d3d 310e 30bd bb89 9bbd
000002d0: b035 dbbb 2427 72bd ee52 81bc 7f1a c1be
000002e0: b45c 20bd e90a e9bc 70f9 54be 803d da3b
000002f0: c121 86bb b593 fabc 4aca de3c 40b8 89bc
00000300: 4dc6 6ebd 76f3 0ebf 4376 03bd 25f4 c63c
00000310: e12b debc 5456 02bd b129 14bd a761 87bb
00000320: 8449 2ebe 16e4 903c 02ee 36be 369a d3bc
00000330: c511 14bd d438 4b3d 930c fe3c 0de9 c0bc
00000340: da1e 96bd e832 e83c be6d 073d c48f 3abd
00000350: 3151 2cbd 46a0 913c b719 5fbd 03ad c4bd
00000360: 002a 563c ad76 6f3c 0ec2 593e 961e 58bb
00000370: 38b4 82be f2ee 733f 74d8 1abd 3994 333d
00000380: 9ce9 40bd 026e 94be 4ddc d8bd b9b3 cfbe
00000390: 09ae 1d3d 949a 8dbe 1132 6b3e c2f7 d4bc
000003a0: aae7 8fbe 5714 49bd 9c60 92be 32a1 7bbd
000003b0: 1a10 99bd d76e 96bd 7586 87be 442e e8bb
000003c0: 779e a33a 3c6d e4b8 0d61 56bd 0459 c8bd
000003d0: 076f cfbd b987 a4bd 3dc6 acbd 8eee e5bc
000003e0: 863f 093e f222 05bf 5468 77be 2663 9e3a
000003f0: 84e2 52bc 4fc2 83bd 3b75 31bd 222f d9bd
-0.047325183 0.0042579873 -0.03622778 -0.0015404739 0.019964578 -0.037863743 0.05463769 0.0059664147
0.0011510281 -0.023863493 0.1430204 -0.062871754 0.03909119 -0.49917042 -0.047150653 -0.008146337
0.048866022 0.022593824 0.04071782 -0.001636699 -0.06544994 0.027260834 0.03039433 -0.009843539
-0.011143126 -0.12820406 -0.0007802147 -0.08961655 -0.41662723 -0.036310032 -0.036260866 -0.04350366
-0.0122371735 0.3620344 0.034767564 -0.050275713 -0.10858808 0.0012807194 0.0018863599 -0.027914405
-0.008470468 0.13639393 -0.028224366 -0.050444536 0.020061366 -0.04310734 0.030708473 0.037913397
-0.013633137 -0.050026864 -0.22404896 -0.1331264 0.008584076 -0.4752466 -0.01479789 0.0026289525
0.047606606 -0.033627257 -0.1165549 0.024126925 0.018823896 0.100777514 -0.096934676 -0.04930933
-0.104882166 -0.17037989 -0.026871273 -0.35914707 0.22544782 0.0066470066 0.13338196 -0.03268677
-0.0030514405 0.0004734389 -0.029831026 -0.0007777206 -0.035857853 0.011270833 -0.008373019 0.020985475
-0.24810432 0.028834483 0.03049434 -0.011238895 0.000672345 -0.021876395 0.022730637 -0.2635596
-0.7048098 0.09761187 0.011688518 -0.026558766 0.035299 -0.048214756 0.03212254 0.03988631
0.046881404 -0.028354006 -0.012514341 -0.4488841 0.02117867 -0.044200752 0.0030959984 -0.0023076453
-0.05318444 -0.035604607 -0.019394536 -0.11617397 -0.022637356 -0.0027686704 -0.322941 -0.030294148
-0.057868 -0.00056761276 -0.010023052 -0.006445341 -0.27327392 -0.39178902 0.10053643 0.03095446
-0.008991283 -0.29912013 -0.06482179 0.009265146 -0.24963929 -0.018186407 -0.014393442 -0.008810054
-0.03650398 -0.057714965 -0.08911179 0.029951124 -0.28807724 -0.08536331 0.030610194 0.026267461
0.03640954 0.01588208 -0.043389168 -0.008712849 0.026068773 -0.035334177 0.047685537 -0.065426655
-0.71255285 -0.20282194 -0.07143538 -0.0005918232 0.020504482 -0.021729557 -0.044836104 -0.5191137
-0.34847432 -0.30255723 -0.03311713 -0.0036155344 -0.17311823 -0.058057424 0.037545018 0.041397788
-0.016790587 -0.0028966002 -0.08230079 -0.0056182067 -0.2848572 -0.024687815 -0.03221614 0.009042083
-0.34045678 -0.11314884 0.13282226 -0.006300461 -0.018480098 -0.042983938 0.008108521 0.00021267339
-0.030921847 0.03835527 -0.042982284 -0.075946294 -0.0066897497 -0.05911936 -0.015786614 -0.37715527
-0.03915091 -0.028447585 -0.20798278 0.0066601634 -0.0040933792 -0.03058801 0.027196068 -0.01681149
-0.058294583 -0.5584024 -0.032095205 0.024286339 -0.027120532 -0.03182061 -0.036172573 -0.004131514
-0.17020231 0.017686885 -0.1786423 -0.02583037 -0.03614976 0.049614742 0.031011855 -0.023548627
-0.07330103 0.028344586 0.033063643 -0.04554726 -0.042069618 0.01777662 -0.054467883 -0.09603312
0.013071537 0.014615697 0.21265432 -0.0032977215 -0.2552812 0.95286477 -0.037804082 0.043842528
-0.047097787 -0.2899018 -0.10588894 -0.40566805 0.03849605 -0.27656996 0.22968318 -0.025997046
-0.28106433 -0.049091663 -0.28589332 -0.061433025 -0.07473774 -0.0734536 -0.2646977 -0.0070855934
0.0012483139 -0.00010892234 -0.05233865 -0.097826034 -0.10128599 -0.080336995 -0.084362485 -0.028067853
0.13403139 -0.5200645 -0.24160892 0.0012083992 -0.012871388 -0.06433546 -0.04332469 -0.10604693

fc3.bias f4 [200]
00000000: 2b82 b2bd 59b6 c0bc 3c3b 18bc dc7f 90bc
00000010: b1bc 41bc f867 98bd a361 033e de31 a53c
00000020: 0d4b f93d a855 c4bc 7db9 763d d557 f23c
00000030: 7f7d b1bd 26bd a0bd 61bf e23c cf79 d6bd
00000040: 6e9c 5f3d bc68 a03d 84a5 123e aa33 1c3e
00000050: f5c7 f0bc 21b5 ee3d 5107 52bc b818 4b3e
00000060: d90a 5a3d b686 5cbe 5237 82bc d35e 863b
00000070: 994e 5d3e 21f0 c3bc 16bc dbbc c47b 143e
00000080: 6603 94bd ea91 e93c 7557 823e f92e 40bd
00000090: a5a7 3abd 81fd 8bbd a235 69bd 2d77 ee3c
000000a0: 469f 4cbd 9842 e2bc b3c4 233e f5cf cb3b
000000b0: 3308 433e 08fb 523d 057d c83d 4ba9 e93c
000000c0: 7bc1 4dbc 849b d2bd eb1e bcbd df46 fdbc
000000d0: 5171 003e 447c fe3d 6cab 053e f119 803d
000000e0: 7d6e 863d 3142 9ebc 0515 d6bb a9d4 c2bd
000000f0: d203 25bd ba7e 303c 7609 99bc 00f7 f33c
00000100: d0aa 3bbd cdbc c1bc 7849 c7bd 5ce0 f63d
00000110: 92df c73d e151 ce3c ba42 143e 8432 ebbc
00000120: 3dae 00be 8ba4 c1ba 0d8d 0cbc 5f3c 523d
00000130: 71c2 013d c6c0 2abd eff1 863d e97b 76bd
00000140: 7af9 9d3c 636f 6dbc f79b 5c3d 8777 a73d
00000150: 8c6a 663d 9de2 01bc bf02 4dbc 832a a3bd
00000160: 3a94 d53d 5644 32bd d904 aabc 9311 01bd
00000170: 8ec8 fa3d 2193 cd3d 80fa a63c 6ab4 9c3d
00000180: 6f6a 33bd c54b 933d 3995 a9bb 6ddb 2b3e
00000190: f373 d63d b013 d0bc a998 893d a0dd c23c
000001a0: 17d3 d5bc c913 cb3d 3ba5 86bc e754 0ebd
000001b0: 9122 2b3e 607a 51bd f1b2 6d3d f7a2 a7bc
000001c0: 3997 703e 7f6a 7abc e25f bc3d ac78 073e
000001d0: 5b96 2d3e 76d6 3ebd 3199 e6bc 6bba fb3d
000001e0: f725 e4bc 52af e5bd 2325 973c bb57 ddbd
000001f0: 371c 06bd f09f 96bd 30d4 bf3d a4ec e6bc
00000200: bf74 5abd bd8c a0bd ab66 15be a08b 7e3d
00000210: 5955 82bd 478c 87bd 518c 1bbc e40d b1bd
00000220: 4a4c 6cbd 69ed 1fbd 87dd 023e 7446 aebc
00000230: eaa5 743e ca8f 763e 338c ce3d 1c17 1f3d
00000240: d950 b83d e5ca fb3d 515b ec3c bb09 d03d
00000250: 366b 8abd 7230 7abd a88f a8bd 07e4 63bd
00000260: b978 1b3e fb46 fc3c 86c4 ab3c 4d57 3cbd
00000270: 54b3 533d b3b0 52bd 21e4 8dbd 2d44 8c3b
00000280: bd42 eb3c debc 0dbc 0b30 a83d 06b9 3dbd
00000290: d4b8 a1bd 8e41 973c 84fc 2cbd 4b25 4d3e
000002a0: cef9 1abd fb77 773d 324a 763c ca42 89bd
000002b0: aef1 433b 5731 78bd 7697 bf3d 55c4 b13d
000002c0: 4eb4 d73d 8518 c83c ba62 3b3d 8778 9dbc
000002d0: ef5f 563d a639 80bd 0bc4 c83e 886c 073e
000002e0: 6f8c 173b 02e4 99bd bbc0 f33d 8c27 3ebd
000002f0: 861f 773d ff49 e5bd 4441 79be 434b 9abc
00000300: a47d ec3d fdb5 433e d227 1c3d 6480 14bd
00000310: 50f4 0bbd 0f19 013e daee 4a3c 22a1 e03c
-0.08716234 -0.02352445 -0.009291466 -0.017639093 -0.011824773 -0.074417055 0.12830214 0.02016538
0.12172518 -0.023966625 0.06023549 0.029582897 -0.086665146 -0.07848577 0.027679147 -0.10472452
0.054592542 0.078324765 0.14320952 0.15254083 -0.029392222 0.11655641 -0.012819127 0.19833648
0.053233 -0.21535763 -0.01589552 0.0041006594 0.21612014 -0.023918213 -0.026823085 0.14500338
-0.07227211 0.02851196 0.2545735 -0.046919797 -0.045570035 -0.068354614 -0.056935914 0.029109562
-0.049956582 -0.027619645 0.15993004 0.006219859 0.19046097 0.051508933 0.097894706 0.028523108
-0.012558336 -0.102835685 -0.09185585 -0.030917583 0.12543227 0.124260455 0.13053674 0.06254948
0.06564043 -0.019318672 -0.0065332674 -0.09513218 -0.040286846 0.0107724015 -0.01868127 0.029780865
-0.045817196 -0.023649598 -0.0973081 0.12054512 0.097594395 0.025185527 0.14478579 -0.028710611
-0.12566467 -0.0014773769 -0.008578551 0.051327106 0.031679574 -0.04168775 0.06589114 -0.060176764
0.019283999 -0.014491889 0.053859677 0.08177095 0.056253955 -0.007927564 -0.012512862 -0.07967093
0.104286626 -0.0435222 -0.020754265 -0.0315109 0.12245284 0.10037828 0.02038312 0.07651599
-0.043802675 0.07192186 -0.0051752594 0.16782923 0.10471334 -0.025400013 0.06718571 0.02378732
-0.026101632 0.09915883 -0.01643621 -0.034748938 0.16712405 -0.051142097 0.05803198 -0.02046345
0.23495187 -0.01528418 0.09197976 0.13229626 0.16951887 -0.046591245 -0.02814922 0.12291416
-0.027850134 -0.1121508 0.018450325 -0.10807749 -0.03274175 -0.073547244 0.093666434 -0.02818901
-0.053333994 -0.07839344 -0.14589946 0.062144876 -0.06363935 -0.06618553 -0.009493903 -0.086452276
-0.057689942 -0.03904477 0.12779818 -0.021273829 0.23891416 0.24078289 0.10085335 0.0388404
0.089997955 0.122945584 0.028852137 0.10158106 -0.0675873 -0.061081357 -0.08230525 -0.055637386
0.15182771 0.030795565 0.020967733 -0.045981694 0.051684693 -0.051438045 -0.06928278 0.004280588
0.028718347 -0.0086509865 0.082122885 -0.04631903 -0.07896581 0.018463876 -0.042233005 0.20033757
-0.03783589 0.060417157 0.015032338 -0.06702192 0.002989869 -0.06059393 0.09355061 0.086800255
0.10532437 0.024425754 0.04574845 -0.019222511 0.052337583 -0.062609956 0.3921207 0.13224995
0.0023124476 -0.07514192 0.11901995 -0.046424434 0.060332797 -0.11195754 -0.24341303 -0.018834716
0.115474015 0.19112392 0.038123913 -0.036255255 -0.03416854 0.12607215 0.012386048 0.027420584

fc4.weight f4 [2, 200]
00000000: c32a 3fbf 8821 c8be 38d5 48be 168d a43c
00000010: 3271 b0be 6c4d 50bc 59ba 05bf fcf5 78bd
00000020: 0323 82be 696c 303d f19d 8bbe 5398 08bc
00000030: b275 933e b4a5 2fbd 489b 79be 5e35 5fbd
00000040: 8a00 1fbd f8c6 e83c 9848 ee3d 4954 313d
00000050: 5876 eabc 179d 40be 9284 413b 08a6 65bf
00000060: 18c2 4cbe d06f d9be a993 003b 5327 e93d
00000070: 58e0 e23d 2867 92bc f605 0cbd 6fe0 e33d
00000080: 706f febb bf62 323d a81d 6d3e 5393 2ebe
00000090: 3367 acbe de44 b5be 01ef b83b 3ef2 253d
000000a0: e89b 2dbc 760a d1bf b37d d13b c9ba f23e
000000b0: 2ec0 7dbf 3a9d dcbd 44c4 78be a97c bdbe
000000c0: f11e 13bd 2e13 00bd 7f39 a6be 63c6 33bc
000000d0: aeeb 6fbe 86eb 81be 360b 873d aaf8 b23e
000000e0: f41e 81be 81d7 9bbe f324 d33c 693c b73c
000000f0: 712b efba 0f7f cc3c 51fe 4c3d 5fbe 38bc
00000100: ef6b c4bc ec55 3dbc a955 46be e9c0 1f3d
00000110: b6e9 6cbe 58de dabb 5cc3 9cbe c44f 27bd
00000120: 441a 2dbc 7566 773c 2251 5a3c d9ec 08be
00000130: 6e2c 7c3d 6fc0 23bd 564e 73bd acf3 2c3c
00000140: 3b76 ff3d 86cb 153d f0fd 863c 4f31 1b3c
00000150: 4432 54be d07b 3ebc 6dca d73c 7c0e 58bb
00000160: 3f6a 6c3d fd8e 53bc 1e05 5cbe 45fc 7d3c
00000170: a632 ea3d e7ac a2be c5d4 70be 8b39 b9be
00000180: 1a4b edbc c80a 343e 74d7 edbd 0384 2d3e
00000190: f169 3bbb 2d4e 75be e8a5 bc3b aad9 61bc
000001a0: 2649 2fbd b954 3dbc 752e 8fba 016b ab3c
000001b0: be7f 0ebf 6b59 e1bc 3a35 0ebf b02d eabb
000001c0: 4052 843e 6f3f afbe 022b fd3c 4b05 ad3d
000001d0: 7ba7 0f3f a004 a0be ea92 a43c a350 eb3d
000001e0: c28c c6be 6abc c1bc 8bac bfbe a685 d43c
000001f0: 8c14 50bd 97d5 df3c 8ed9 4f3d b369 1ebd
00000200: eb1d 2d3d c121 e4bc 6142 2cbf 444c e2be
00000210: 170b 4c3c ef98 c3bc a43c dabc 7e86 adbc
00000220: 7e3f 97bc 1992 25be 3c26 cc3c 2903 033c
00000230: ee23 0d3e 02f0 1f3e 3c95 8abe 03ec 3a3d
00000240: 48f0 bc3d 72dd 533d ec2a 2e3c 8aa8 4ebf
00000250: e5ed b73b e025 2f3d 6d88 513c 6607 443d
00000260: 3806 45bc 407d 9d3d 8423 093d 1920 9ebb
00000270: 1abf bf3e 3e02 9c3c 7007 33bc 7572 23bd
00000280: 07d8 503e 880a 8f3c 4e1d 74be ae49 55bd
00000290: b41d 12bd fc13 bd3c 1782 123c 8dda fbbe
000002a0: 5989 c6bc c483 6cbe eed4 8bbd 78be 19bf
000002b0: d873 a7bc 999f 113d b1bc a63c c478 0d3d
000002c0: ee7d 2abc c99a 173e b4dc a83c 9f73 943c
000002d0: fab8 8ebc d34c b83b c371 bb3e 51b9 a5be
000002e0: 8c24 81be 8bf9 edba 6afa 903d efe9 713d
000002f0: 6463 73be 6e54 72bd e8ed 283f f686 66bc
00000300: 7b43 afbe e424 ba3e cf10 833d 972a 1ebd
00000310: 630a 78bd 054e ee3d 5f59 c6be 02a7 a83b
00000320: 7773 343f ebee c63e b656 613e dd34 073c
00000330: 7c79 7e3e 21fc 413c 9f1b 013f 7b7a 953d
00000340: 4425 ab3e ba3a 253d 11d2 923e 6977 52bc
00000350: 771b 4cbe d3ae c8bc 70d4 4b3e 29b3 bdbc
00000360: 5b77 5fbd 62b5 31bc 6c01 bfbd eabc a1bd
00000370: f22f eabc d5f5 3a3e 1150 b5bc e75f 623f
00000380: 2cc1 493e 5d04 c23e d0c1 e3bc 37bd d2bd
00000390: d7c3 3cbe eedf 96bc 59fa 063c dbf0 adbd
000003a0: 9ab5 e7bb b13f 1abd def9 8fbe 91b5 313e
000003b0: e2b9 a93e 6fc7 a13e f6bb 4cbc 321e 193d
000003c0: 6cdd 483d e747 d33f 1638 62bd 5d93 babe
000003d0: 70fc 743f 6713 173e 1f63 713e 6973 ba3e
000003e0: b3c5 99bc a2b4 45bb 8869 b53e ac46 3fbc
000003f0: 9d87 143e 65a4 9f3e 2c62 90bd 179d e6be
-0.74674624 -0.39088082 -0.19612586 0.020086806 -0.3446136 -0.012713771 -0.5223747 -0.060781464
-0.25417337 0.043072138 -0.27268937 -0.008337098 0.28800732 -0.042882636 -0.24375641 -0.054494254
-0.038818873 0.028415188 0.1163494 0.04329327 -0.028620884 -0.18809925 0.002952848 -0.8970647
-0.19995916 -0.4246812 0.0019619262 0.113844536 0.110779464 -0.017871454 -0.034185372 0.11126792
-0.007764749 0.043551203 0.23155844 -0.17048387 -0.33672485 -0.35404104 0.005643726 0.040514223
-0.010596253 -1.6331317 0.0063931583 0.4740813 -0.9912137 -0.10772176 -0.2429362 -0.3700917
-0.03591818 -0.03126829 -0.3246574 -0.010972592 -0.23429748 -0.25375003 0.06593935 0.3495534
-0.25218928 -0.30437854 0.025774455 0.022367673 -0.00182472 0.02496293 0.050047223 -0.011275857
-0.023977248 -0.01155613 -0.19368614 0.039002333 -0.23136029 -0.0066793375 -0.30617797 -0.040847555
-0.010565344 0.015100111 0.013325008 -0.133716 0.06156581 -0.03997844 -0.05940088 0.010556143
0.124737225 0.03657105 0.016478509 0.009472205 -0.207223 -0.011626199 0.026341641 -0.0032967618
0.05771851 -0.012912509 -0.21486327 0.01550204 0.11435442 -0.3177254 -0.23518665 -0.36176714
-0.028966475 0.17582238 -0.1161336 0.1694489 -0.0028597082 -0.23955603 0.0057570823 -0.013784805
-0.04279437 -0.011555844 -0.001092388 0.020925047 -0.5566367 -0.027508458 -0.5554997 -0.0071465597
0.25844002 -0.34228083 0.030904297 0.08448275 0.5611493 -0.3125353 0.020089585 0.114899896
-0.38779265 -0.023649413 -0.37436327 0.025942635 -0.050800845 0.027323527 0.050744586 -0.03867502
0.04226486 -0.027848126 -0.67288786 -0.4419881 0.012453816 -0.023876635 -0.026640244 -0.021182295
-0.018462893 -0.16169013 0.024920575 0.007996359 0.13783237 0.156189 -0.27066982 0.045635235
0.092255175 0.05172486 0.010630351 -0.8072592 0.005613076 0.04276073 0.012788874 0.04785862
-0.012025408 0.07689905 0.033481136 -0.0048256037 0.37450486 0.019044038 -0.010927066 -0.039904077
0.20394908 0.017461076 -0.23839304 -0.05207222 -0.03567286 0.023080818 0.008942149 -0.4919018
-0.024235414 -0.2309714 -0.068277225 -0.6005626 -0.02044098 0.035552595 0.020353647 0.034539
-0.010406001 0.1480514 0.020613052 0.018121539 -0.017422188 0.0056243925 0.3661023 -0.32367948
-0.25223196 -0.0018156035 0.07079013 0.059060987 -0.23768383 -0.05916255 0.65988016 -0.014070263
-0.3423117 0.3635627 0.0639969 -0.038614836 -0.06055678 0.11635975 -0.3874006 0.005146862
0.70488685 0.38854155 0.22005734 0.00825235 0.2485103 0.011839897 0.5043277 0.07298752
0.3342687 0.04033921 0.28675893 -0.012845852 -0.19932352 -0.024497425 0.19905257 -0.02315672
-0.054557186 -0.010846468 -0.09326443 -0.078973606 -0.028587315 0.1825784 -0.022132905 0.88427585
0.19702595 0.37893954 -0.027802378 -0.10289996 -0.18434082 -0.018417325 0.0082383985 -0.08493205
-0.007071209 -0.037658397 -0.2812032 0.17354418 0.3314963 0.31597468 -0.012495985 0.037382312
0.04903929 1.6506318 -0.05522927 -0.36440554 0.9569769 0.14753495 0.23572968 0.36416176
-0.018771028 -0.003016748 0.35432076 -0.011674564 0.14504857 0.3118011 -0.07049975 -0.45041725

fc4.bias f4 [2]
00000000: 1838 f23d 6102 70bd
0.11827105 -0.05859602
