onnx_models/fdia_model_ffnn_pytorch_50_100_50.onnx (onnx, 67728 bytes, 8 tensors)

fc1.weight f4 [50, 128]
00000000: 2a90 8bbe bfb1 0bc0 1148 e83f ad9d 7c3c
00000010: 95f9 953f d4a5 ddbe 17aa 4ebe 47f1 223e
00000020: 4227 e7be 7b35 adbd e036 073b 96e5 1d3b
00000030: 1a6e 443d dfc9 1b3c ed6a ba3f b4e3 1abd
00000040: ae9e 0abc 6d1a b33a b2c6 c3be c132 dfbe
00000050: e09b 1b3d 83e8 dd3f dd95 a03f 1c21 04bd
00000060: a6cc e13b ff62 003c c357 a3be 87fc 9e37
00000070: 9d34 cd3d b766 b33e 8e08 043f 8e6e ba3e
00000080: c1dd ad3b 3477 673f fd13 2c3d 5cb7 8c3d
00000090: d722 56bf 0427 d9bf 7433 edbd d69b ce3b
000000a0: d12a c5bb c4b2 223d 06b4 39bf afee b63f
000000b0: 38a4 39bd f18d ec3b aaf6 56bb cc63 c5ba
000000c0: 0f1d 02bb 6898 d43e 4e01 e23f 1768 a13f
000000d0: 1bb1 5cbb b5e0 003d f2be 4abc f882 73bb
000000e0: 22a4 ba3b b9c2 ac3d d41d ac3e c10f 9b3e
000000f0: 3d7d a53f 346b dabd bcd7 4d3f 699b 3d3d
00000100: 2732 cd3e 95c6 10bf a9fc 27bf dee3 c4bd
00000110: 251e 0f3b 5177 d9ba e7ef 92bb 2a9e 3a3c
00000120: 7d55 2d40 8a52 513c 4b26 913c 02fb fa39
00000130: a572 8fbb bfd4 4eb9 9b11 803c 8230 2740
00000140: ecc1 1640 7141 35ba 69b4 68bc 240d c4bc
00000150: c584 a7bc 7237 b73b 55bf d9bb 1535 94be
00000160: 233b ac3e a07d 6e3d f511 7fbd 354f 9c3f
00000170: 20df acbe 264a 33bd 13d2 893e 74c4 eabe
00000180: 0a3e 1d3d b033 8cbb 2f12 3d3b 478e bfbb
00000190: 657b 9d3a 4391 2140 c0f3 d43c 7803 573d
000001a0: 89c2 61bb 495b a0bf 1953 87bf 8ed1 8cba
000001b0: be35 2040 fb80 2740 ecd6 80be 3231 9bbd
000001c0: e858 68bc 873f 87be bfc2 c4ba 5f7a 5cbc
000001d0: 061c d13b 8f10 6e3d d94b 9d3c d249 953d
000001e0: c368 5f3d 805b 1b3d 3487 a43d 5c63 febd
000001f0: d522 5e3b 4f9c 2f3d acec 4a3d ec8a 2d3d
00000200: 6bde 003d eb74 ab3d 9f20 f1bb 6275 c33d
00000210: 09c2 b5bd 0f71 7abc a23c 623a e9e5 4f3c
00000220: b382 81bc c7d7 5fbd 817b 123c 552a cf3c
00000230: 6fc1 c63d df9d 3a3d fc2b 11bb 4ec0 0b3c
00000240: d02b af3c b402 8dbd 91c4 9ebd 0225 1d3d
00000250: 9a46 a5bc ce92 78bc 775c ae3d ab96 a33b
00000260: 8815 f03d da4e bb3d ee7d 69bd 2614 20bd
00000270: 5776 f73d 5418 a3bd eb32 85bd 25e7 a1bc
00000280: d5ab f2bc fa47 41bd 8aab 2bbd fd17 2c3c
00000290: 541d 7f3d a5c5 8eba ad15 e73d c9ea 383d
000002a0: ff9c 3c3d 283b 393d e01a 293d 9f40 dd3d
000002b0: 7a02 21bd d6c0 46bc c402 8c3c 9156 dbbc
000002c0: 64c1 0fbc f3f2 a13d 4b1d 49bc 99f0 c73d
000002d0: 5845 253c f833 abbc 0097 06bd 63b6 163d
000002e0: 6b77 67bd 1af2 de3d bd80 1f3d 49d2 4f3d
000002f0: 2d98 a33d 325c 3f3d cb39 5bbd 4827 d23d
00000300: d208 67bd c702 7cbd b54e 843c 31d4 153d
00000310: a153 2d3d fd41 2e3c bc81 e0bc 5bfa 923d
00000320: 6cf8 423d 8dda debc e6da 15bc c243 4ebd
00000330: bc4d 9fbd 2066 67bd 06c5 4d3d f02b 163d
00000340: 171e b0bc 18de edbd e3f6 da3d d877 9c3b
00000350: 2e20 0e3d c0e1 1f3c 738b cfbc 10b2 52bc
00000360: d79f 163d 86b9 9fbc 80da c23d 663d 793d
00000370: 5ed4 5d3d 8072 533b c178 0f3d 0a5a 4dbb
00000380: 9163 6f3b 0927 1ebd 5896 213d 2546 163d
00000390: c189 8dbc 3ea1 843c 0203 35bd e863 dd3c
000003a0: 123d 87bd a682 9dbd 3ce1 a6bc 4849 773d
000003b0: bf80 2a3d 8636 973d 8ab1 e23c a746 c9bc
000003c0: 745f af3c 0256 c63d 55df 4fbd 23cc 8a3d
000003d0: 54ad 21bd f100 c03d bf41 c03d 1d57 5fbc
000003e0: 4194 e73c 5b25 d83d 20ef 60b9 11ba 33bc
000003f0: 3bda 2e3b b058 703d 0758 2cbd ec0c 963d
-0.27258426 -2.1827238 1.8146993 0.015418452 1.1716791 -0.4329058 -0.20182072 0.15912353
-0.4514714 -0.08457466 0.0020632073 0.0024093143 0.047956564 0.009508579 1.4563881 -0.03781481
-0.008460684 0.0013664492 -0.3823753 -0.4359341 0.03799045 1.7336582 1.2545735 -0.032258138
0.006890851 0.0078361025 -0.31902894 1.895266e-05 0.10019801 0.35039303 0.51575553 0.36412472
0.005305976 0.90416265 0.04201125 0.068709105 -0.8364691 -1.6965032 -0.115820795 0.006305198
-0.006017067 0.039721265 -0.7254032 1.429159 -0.045322627 0.007219069 -0.0032800832 -0.0015059649
-0.0019853746 0.41522527 1.7656648 1.2609891 -0.00336749 0.031464297 -0.0123746265 -0.003715692
0.0056958357 0.08435578 0.33616507 0.30285457 1.2928845 -0.106649786 0.8040731 0.04629079
0.40077326 -0.5655301 -0.65619904 -0.09613775 0.0021838036 -0.0016591345 -0.004484165 0.011390248
2.7083428 0.0127760265 0.017718455 0.0004787073 -0.0043776804 -0.00019724945 0.015633395 2.6123357
2.355586 -0.00069143536 -0.014203169 -0.023932047 -0.020449052 0.0055913264 -0.006645123 -0.28946748
0.33638868 0.058225274 -0.062272985 1.2211672 -0.3376398 -0.043771885 0.26918086 -0.45853007
0.038389243 -0.0042786226 0.002884995 -0.005845818 0.0012014924 2.524491 0.025995135 0.052493542
-0.0034448227 -1.2527858 -1.0572234 -0.0010743605 2.5032802 2.6172473 -0.25163972 -0.07577743
-0.014181353 -0.26415655 -0.0015011652 -0.01345691 0.0063815145 0.05812126 0.019201206 0.07289471
0.054543268 0.037929058 0.080336004 -0.12421295 0.0033895273 0.042873677 0.049542114 0.042368814
0.031462114 0.0837191 -0.007358625 0.09543873 -0.088749 -0.015285744 0.0008630251 0.012689092
-0.015809393 -0.05464914 0.008940578 0.02528874 0.09704863 0.045560714 -0.002215146 0.008529736
0.021383196 -0.06885281 -0.07752336 0.03836537 -0.020175267 -0.01517172 0.0851373 0.0049923263
0.11722857 0.09145899 -0.05700486 -0.039081715 0.120831184 -0.079636246 -0.065038525 -0.019763539
-0.029622952 -0.047187783 -0.04191164 0.010503766 0.06228383 -0.0010892643 0.11283431 0.045145784
0.04604816 0.04522243 0.041285396 0.10803341 -0.039309002 -0.012130937 0.017091163 -0.026774677
-0.008774135 0.07907667 -0.01227505 0.09762687 0.010087334 -0.020898804 -0.03285885 0.03679503
-0.05651037 0.10886021 0.038941134 0.050737653 0.079880096 0.046718784 -0.053521913 0.102613986
-0.056404896 -0.061526086 0.016150812 0.036579315 0.042316083 0.01063585 -0.027405612 0.07176658
0.047600195 -0.027203823 -0.009146428 -0.050357588 -0.077784985 -0.05649388 0.050236724 0.036662996
-0.021498723 -0.11614627 0.10691621 0.0047750287 0.034698658 0.009758413 -0.02533505 -0.012859836
0.03677353 -0.019497644 0.09514332 0.06084957 0.054157607 0.0032264292 0.03502727 -0.0031334185
0.0036527852 -0.038611446 0.03945002 0.03668799 -0.0172776 0.016190168 -0.04419232 0.027025178
-0.06603445 -0.07690935 -0.020371072 0.06037262 0.041626688 0.073834464 0.027672548 -0.024569822
0.02140782 0.096843734 -0.050750095 0.06777217 -0.03947194 0.093751796 0.0938754 -0.013631609
0.028268935 0.10554 -0.00021451386 -0.010969655 0.0026680368 0.05867833 -0.042076137 0.073266834

fc1.bias f4 [50]
00000000: cfbc 243e 07ad 3cbd 1ec2 cdbd df56 7a3c
00000010: f36d 203d 83e7 02be be3b 1bbe 7619 cfbd
00000020: a21e b1bd 767e 3ebe d185 93bc c0fb 97be
00000030: d3fc a6be 1c63 8cbd ed39 383d 45dc cbbc
00000040: cfd5 a2bd 8265 e6bd 0b72 6cbd 8bee 5ebe
00000050: eeec 88be 9f42 10be 2a66 ccbd 22bc 8abe
00000060: 248c a1be 64f9 c23d 42dd 44be bfb8 91bd
00000070: 6c81 2b3d 5b1f 06be f1d5 0fbe 2fb0 97be
00000080: 2fe8 1abe 266e 3bbe 2b1e a4bd 2757 093f
00000090: faa5 89bd dca7 c7bd e054 fbbc 167f 7bbe
000000a0: 5a63 44be 9923 75bd 7037 1e3e 4da7 8a3e
000000b0: 5459 cbbd 542f 423c 770d 50be 45f9 96be
000000c0: 8cc8 25bd 4278 b8bb
0.1608765 -0.04606345 -0.100467905 0.015279501 0.039167356 -0.12783627 -0.15159509 -0.10112278
-0.08648421 -0.18602929 -0.018008145 -0.29684258 -0.32614765 -0.06854841 0.044977117 -0.024885306
-0.07950937 -0.1124983 -0.057725947 -0.21770684 -0.26743263 -0.14087914 -0.09980424 -0.2709666
-0.3155223 0.09520224 -0.19225028 -0.07115316 0.041871473 -0.13097899 -0.14046456 -0.29626605
-0.15127634 -0.18303737 -0.080135666 0.5364861 -0.06721111 -0.097488135 -0.03068012 -0.24560198
-0.19178525 -0.0598484 0.15450835 0.27080765 -0.09929147 0.011852104 -0.20317636 -0.29487053
-0.04047446 -0.00562957

fc2.weight f4 [100, 50]
00000000: c486 9e3c eb3a a33d 0cbd 94bd f6ae 053c
00000010: 0433 b63d e65c d2bc 8a7b 16bc e71c 82bd
00000020: c6d8 30be 18d2 0dbe fb4c 99bd 943b 33bb
00000030: 64dd b9bd 85c5 c2bd d3c1 3dbd 5e9b 83bd
00000040: b295 a43d 3c18 a83d d620 bbbd 1d63 7d3d
00000050: e060 7cbc 1530 623d 322b 573d 19f5 2abe
00000060: 2248 d33a 247b 413d 969e 503d 540a c8bd
00000070: 3bbe debd d4ee 80bd 024b a8bd c8ad 15be
00000080: 1ddb 49bd c5f7 22be 28ab 0fbe 704b 84be
00000090: 2a76 87bc baaf 76bd b5f2 073e f0bf ad3d
000000a0: c360 c4bc b1c0 1dbd 38df a83c 130b 09be
000000b0: 277e 34bd cec4 813d 56c3 c83d ed97 fbbd
000000c0: cdf4 5cbe fe35 ccbd 4535 fbbf 59c5 073e
000000d0: 2061 013e 57f6 84bf d457 223d 7914 093f
000000e0: dc6c 7abd 095e c63e f9f2 16be a593 013f
000000f0: 5eb2 8f3d b269 f3bd 39bc 3abf 28c5 bbbd
00000100: a558 183f 081a 47bc 0887 2d3e c1a3 873d
00000110: c9ab d3bd 2778 0bbe 60bf f6bd e28e 003f
00000120: cd8b 9c3e 5a22 233f 153f 3a3f 4ef2 ad3c
00000130: eb36 7a3e cb0d 6fbd a420 143e 74ac b33d
00000140: f621 06be 1b11 f33e 83c2 063f 06e1 103a
00000150: 3747 2a3c a128 bcbe 0c1c 2dbe c3af aabb
00000160: 4c46 8d3d 53fc babe c5ec 3d3e f804 05bf
00000170: 67aa 9b3d c954 ad3d 74af f5bd 84c3 b5bc
00000180: 2e08 313f 4c0a 013f c65d 393e ac53 553d
00000190: 7145 99bd efbf 0dbe ae07 10bd 2d79 91be
000001a0: 7599 1dbe 3efc d83d 9818 68bd 7165 ddbd
000001b0: 3432 0d3d faf8 a13d a199 8b3e 4166 a4bd
000001c0: d1b5 16be db34 82ba f697 d6bd 2cc0 be3b
000001d0: a390 2ebc 67f3 b8bd 302c bfbc 16ce 48be
000001e0: 8d40 243d 05be b4bd bf0a 30bd 686f a43d
000001f0: c931 dfbc f052 14be 68e4 0ebe b93e 7f3d
00000200: bb92 393e 6bd5 8abe f8fc 9d3d 5c4e a1bc
00000210: 2118 1abd 43e0 21be a443 2f3d 9d94 d5bb
00000220: 6d56 60bd edbf 30be e9b4 9d3d 34ff 13be
00000230: 8bc8 d93b 8c0a 07bd 159b 4abe a1be a3be
00000240: 8a72 02be 6cab abbd 9e00 82bd 7dfe 97bd
00000250: 387e 08be 2ded 3ebe 974a 0f3f 82a8 c93d
00000260: a0c9 163e 7fe5 80bf 713b a7bd e488 fa3c
00000270: ca36 89bd c2cf 83be 55c7 cdbc b075 fe3c
00000280: 74fb 30bd 24b3 e0bd 746c 6bbe 4260 d7bd
00000290: aa8c a53c 4b70 a3bd 5b45 943d 9d68 e53c
000002a0: e1c3 a83e 17a2 6c3e c46a 85be 7d79 553e
000002b0: 8a4c 863d 7146 1dbf 7e1d b5bf fafe ed3e
000002c0: 31b9 95be 0f6b 3fbd f80e db3d 211c 35be
000002d0: e9a2 c13d 52c0 873d c1bd 4e3e 9701 8ebe
000002e0: a8ee d339 167d e0be 4cde e33d 58b1 af3d
000002f0: 64d4 613d 0dbb debd 22be 0c3f cac4 56bd
00000300: cd85 483f 5bec 8d3e 5e09 b43d 5b39 c13d
00000310: 0361 453d 9d24 08bf 3dd6 70be 6cb7 e43d
00000320: 9b1c ea3e e0ce f63d 2f71 363e 4990 92bf
00000330: ed6c b93e 1a2c 703e a69e 74be 36fb c03d
00000340: 729c 57be e38c 353d 28ab 4d3e ddd8 4dc0
00000350: 537c 713e db3d 483e dbda 4bbd 2797 c9bd
00000360: 24ee 4dbe e77a 52bd c517 d6be e8db 94bd
00000370: 28ef a7bb fdeb 913e eb48 623e 23d2 53c0
00000380: 3eda 6ebf 7237 e33d 13cc 82bd 72a0 223e
00000390: 17d6 383e a0c0 813e 76f5 9d3d c9c2 583e
000003a0: 8f43 acbc e11e 43be 6df1 edbd cf9e 0abf
000003b0: 8342 b6bd a1fb 02be 2898 9b3d 5e59 9cbe
000003c0: a5ab 4cbc f9db ee3d 8cd9 dd3d c679 61be
000003d0: 738a 443d c283 dabd 618b 8ebe b74f cfbe
000003e0: ec33 103f 857c 01be 2088 813e 7178 1b3d
000003f0: 8c8c 833e f774 4abf e89a d33d 3b2b 393e
0.01935137 0.07970222 -0.0726262 0.00815939 0.08896449 -0.025679063 -0.009184727 -0.06353169
-0.17270193 -0.13849676 -0.07485386 -0.0027348744 -0.0907543 -0.0951033 -0.046327423 -0.06426118
0.080363646 0.08207747 -0.09137122 0.0618621 -0.015403956 0.055221636 0.05253143 -0.1669506
0.001611952 0.047236577 0.05093249 -0.09767595 -0.10876127 -0.06295553 -0.082174316 -0.14617074
-0.04928123 -0.15914829 -0.14030135 -0.25838804 -0.016535837 -0.06022618 0.13276179 0.08483875
-0.02397192 -0.038513843 0.020614251 -0.1338313 -0.04406562 0.06336366 0.098028824 -0.12284837
-0.21577759 -0.09971236 -1.9625632 0.13258876 0.12634706 -1.0387677 0.03963454 0.53546864
-0.061138973 0.38743618 -0.14741124 0.5061591 0.07016443 -0.11885394 -0.72943455 -0.09168464
0.5951026 -0.012152202 0.16946042 0.066230305 -0.103355 -0.13620053 -0.12048221 0.5021802
0.3057541 0.6372429 0.72752506 0.021233704 0.24435012 -0.058362763 0.14465576 0.08773127
-0.13098893 0.47473988 0.5264055 0.0005526695 0.0103929555 -0.36749747 -0.1690523 -0.0052089407
0.06898174 -0.36520633 0.18547352 -0.51960707 0.07600861 0.08463437 -0.11996356 -0.022187956
0.69153106 0.50406337 0.18102178 0.05208175 -0.07483948 -0.13842748 -0.035163574 -0.28412762
-0.1539057 0.105949864 -0.05666408 -0.10810364 0.034471706 0.07908817 0.27265647 -0.08027316
-0.14717795 -0.0009933965 -0.10478203 0.0058212485 -0.010654601 -0.090308 -0.0233365 -0.19609866
0.040100623 -0.08825306 -0.042979 0.080290616 -0.02724542 -0.14484763 -0.13954318 0.062315676
0.1812238 -0.2711595 0.077142656 -0.019690685 -0.037620667 -0.15808205 0.042789117 -0.00651796
-0.054769922 -0.17260714 0.077005215 -0.14452821 0.006646221 -0.032969043 -0.19785722 -0.31981376
-0.12739006 -0.083823055 -0.06347774 -0.07421587 -0.13329399 -0.18645163 0.5597319 0.098465934
0.14725351 -1.0070037 -0.081656344 0.030582853 -0.06699903 -0.25744444 -0.025119463 0.031061977
-0.043208554 -0.10971668 -0.2299059 -0.105164066 0.020208675 -0.079804026 0.07239791 0.028003985
0.32961944 0.23108707 -0.26058018 0.20847125 0.065575674 -0.6143561 -1.4149625 0.46483594
-0.29242852 -0.04673296 0.106962144 -0.17686512 0.09454901 0.06628479 0.20189573 -0.27735588
0.0004042287 -0.43845433 0.11126384 0.085787475 0.055134192 -0.10875521 0.5497762 -0.052433766
0.78329164 0.27719387 0.08790849 0.09434768 0.04818822 -0.5318087 -0.23519225 0.111677974
0.4572495 0.12051177 0.17816614 -1.1450282 0.36215916 0.23454323 -0.23888645 0.09422915
-0.21055773 0.044323813 0.20084822 -3.2163613 0.23582582 0.19554846 -0.049769264 -0.09843283
-0.20110375 -0.05138674 -0.4181501 -0.07268506 -0.005124945 0.28500357 0.22098128 -3.3097007
-0.9330176 0.1109456 -0.0638658 0.15881518 0.18050419 0.25342274 0.077128336 0.21168055
-0.021028308 -0.19054748 -0.11618314 -0.5414857 -0.08899405 -0.12791301 0.07597381 -0.30536932
-0.012492095 0.1166305 0.108325094 -0.22019109 0.047983598 -0.10669662 -0.27840713 -0.40490505
0.56329226 -0.12645157 0.25299168 0.03795666 0.25693166 -0.79084724 0.103322804 0.18082897

fc2.bias f4 [100]
00000000: 6201 b3bd 1cb8 a9bf e914 2abe dd41 d1be
00000010: d2cb 233e fe93 f1be d564 5f3f d99d 92be
00000020: 06e7 59be 80f5 dcbd c1a2 f4bd 9238 61bd
00000030: 5e62 81be 4fda bbbe b825 853e d872 12bf
00000040: da02 743e 68e3 573e 98d3 8bbf cff2 b3bd
00000050: 8aab 91bd d615 f9be 8390 a1be b7dc 37be
00000060: f145 2bbe f86c 6fbf e0fa 14bf c310 10be
00000070: 532d 9ebe 2605 7bbe a9dd 43bd 0ce9 2cbe
00000080: dd2a 10bf 1ac1 98bf 0d8e d13d 5c18 4bbf
00000090: b224 15be 44df c03e 545d 103f dce2 333f
000000a0: 48d5 adbd 8396 cf3f b5e9 34bf 88a8 87bd
000000b0: 7c51 bebd be10 243e bfa8 3d3f 3c5c e5bc
000000c0: c3cc b13c f48b dbbe f940 d6be c6ca 0b3f
000000d0: f1dc 733f 35ab adbf cad2 c9be 7edf 33bf
000000e0: 6163 3bbf 69d5 bbbe cb58 453f 9ffa 523e
000000f0: 51ae 79be 05ca 97bf d825 99be 3105 453f
00000100: ef79 e5bd de78 a83d ba2c cdbd b28a cebe
00000110: 83db 15be 4537 26bf fa5f 8abe 6e95 513e
00000120: fe6d 7dbe 9194 22be d18b 9dbe 3081 7fbd
00000130: 068c 11bf 6d8f 90bf 1b46 4abe dc37 23be
00000140: 667e fabd b502 29be a5ee 1b3e 942b 61bf
00000150: f90d 8d3f 99be 723f f4dd 82bf d0de 70bf
00000160: fb01 5a3e 092e bdbd e9e3 00be 7852 4bbf
00000170: ea27 ffbe 912a 83bf 7351 20be 4716 0fbe
00000180: 5e49 28bf 3b22 7ebe a956 05be d64a 45bf
-0.08740498 -1.3259311 -0.16609539 -0.40870562 0.1599572 -0.47183222 0.8726323 -0.28636053
-0.21279535 -0.10789013 -0.11945105 -0.05498559 -0.2527036 -0.36689994 0.2600534 -0.5720649
0.23829213 0.21082842 -1.0923948 -0.087865464 -0.071127966 -0.48649472 -0.31555566 -0.1795529
-0.167259 -0.9352565 -0.58195305 -0.14068894 -0.30893955 -0.24513683 -0.047818813 -0.16885775
-0.56315404 -1.193393 0.10232172 -0.79334044 -0.1456478 0.37670338 0.5639241 0.70268035
-0.08487946 1.6217808 -0.7066911 -0.06623942 -0.09292886 0.16022012 0.7408561 -0.027998082
0.021704083 -0.42880213 -0.41846445 0.5460628 0.95259005 -1.3567873 -0.39418632 -0.70262897
-0.73198515 -0.36686257 0.7708861 0.20603417 -0.24382903 -1.1858526 -0.29911685 0.76961046
-0.112048976 0.082261786 -0.100182965 -0.4034019 -0.14634518 -0.64928085 -0.2702635 0.20467159
-0.2474899 -0.15876986 -0.30770734 -0.062379062 -0.56854284 -1.129377 -0.19753306 -0.15939277
-0.1223114 -0.16504939 0.15227754 -0.8795712 1.1019889 0.9482208 -1.0223985 -0.94089985
0.21289818 -0.09237296 -0.12586941 -0.7942271 -0.4983514 -1.0247365 -0.1565607 -0.13973342
-0.6573695 -0.24817745 -0.1302134 -0.77067316

fc3.weight f4 [50, 100]
00000000: 5946 a33c ecb8 823e dfc3 a43c 88b9 0dbe
00000010: 924f 13bf cf14 19be ae6c 89bd 1358 91be
00000020: 5860 b9bd f13c cabe d701 f1be 2768 c3bc
00000030: ed22 89bd 36d8 b5be d654 f4bd 628a 80bd
00000040: e3a9 833e a5dd bc3d dadf b8bd 504b 9f3d
00000050: 3d9b b8bd 4036 3ebe ae45 5e3c 8397 30bd
00000060: b63a d73d 909c b3be 78af 873e 50e8 8bbd
00000070: f5c1 fdbd b521 533c 91b5 f9bb 6609 953d
00000080: 8bfc ac3c 1188 a93e 9143 d33d 6683 253d
00000090: 2afa 0bbe 592c 883d 8c40 763e d355 acbd
000000a0: 5673 bdba ff7b f33d 3832 3f3f f9b2 113d
000000b0: e6ef 8b3b fa16 7b3d a0a2 ecbe 450c cd3d
000000c0: 0c05 efbd 1f42 f6bc 1246 98be 012a 2bbe
000000d0: 3240 b8be 7af6 35be 0e35 07be 2a72 a7bd
000000e0: bb6f 68bd 0be0 7e3d 54b5 0fbf 272a 443e
000000f0: 55c0 92be 05aa 1d3f 37ad efbd 1172 aebe
00000100: b5b4 fabd effb 0d3d 6bcc 323d 21ef c1bd
00000110: 231b babd 0346 2a3b 5c06 103d f4fc d2be
00000120: 739a 81be d4ae 973c 8abe 9f3d ad5f 733c
00000130: 54a3 9c3e 5ff7 a7bd 043a 57bc 2a39 973d
00000140: 9cff 983c 5569 8ebc 5df0 21be 66a3 97be
00000150: 3809 0dbf bf6e 44be 37f4 03be 9e3c 24bf
00000160: c24d ebbd 8c2d 003e 8728 863b 14fb e03d
00000170: c161 0cbe 999e d8be 49dc 4bbe 03ec ac3e
00000180: f1a8 1c3f 004b d03b 7d47 26bd 2812 27be
00000190: b798 cdbd f92f 92bf 873a 51bc a972 56bf
000001a0: c93a ed3e fe4e b33c dab6 03bf 157f 85be
000001b0: bff7 a13d 4697 823f 6264 b53e eac6 523d
000001c0: 3c5f d3bd 283b 993d 4b02 ea3d a02e 503f
000001d0: c3fa d23e 4160 a7bf fb2f 323e c0e6 cabc
000001e0: 8e6b 8cbe 552d d7bf a13f 88be 9820 63bd
000001f0: 17ef 0cbe eec8 1fbf 8ab6 993e 4fb4 d43d
00000200: a482 4d3e 7a94 39bd 4195 60bc b3b4 583c
00000210: 84d0 093f 2bd0 56bf 4189 583e 38e2 673f
00000220: 9e97 353f eebd cfbf f3b4 3b3f c65b 07bf
00000230: 25d5 3bbd ca55 eebf 7b34 a2be 96d5 533d
00000240: 0c34 46be 542e 18bf 0a1b a2be 2a17 af3d
00000250: d8a0 38bf d9f1 523e fe8b 9d3e 5967 54bd
00000260: c48c a2be 9c2b 73bf cb23 2a3e 2dd7 0f3f
00000270: 767a be3b 0891 383d f52b 4f3f a77a 9c3e
00000280: 65c1 68bf e675 97bf 944c 4d3e 673e b2bf
00000290: c353 f93e ba7c dfbe bbf5 80bd f9b4 a33d
000002a0: 3d38 94bd 65bb 08c0 c118 febd 1a47 63bd
000002b0: e846 4f3f 8d6a e13c 27a1 80bc 5178 733d
000002c0: c9c7 883e 9b20 d63e a5c4 b03d 3057 a0bd
000002d0: a737 e73e a336 d1bc 236a a53e 1cc5 43bf
000002e0: 8c07 82bf 9fcb 02be ce9d c9be f58d 343e
000002f0: 2269 efbf b860 35bd bb54 81bd 836f 65bd
00000300: df96 8a3e 5204 aabd 590f 75bf 632c 3f3f
00000310: 90e0 f0be af09 143e 5fd5 193e 93ce 4d3e
00000320: db89 403d 6055 293d 1e9b 7c3d d488 fbbd
00000330: cd38 653d 1dbf 19bd 57f6 77bd 91d0 e5bd
00000340: a2b8 603b 0c42 8abd 26d9 913c 877c 693d
00000350: 9a19 18b9 7537 2dbc 2986 8e3c c93f b6bd
00000360: 2564 45bd 5baf 3f3c 84d0 39bd 8e8e 47bd
00000370: 3d57 a83d 3d93 243c 9b50 adbd 2f6b dcbd
00000380: fdc2 a53d cab5 40bd 8d1f cdbd 87b0 5fbd
00000390: c07b 153d cd1d a63b 4597 e4bd 4e56 17bd
000003a0: 44ba 003c d674 04be e57c 8e3b a000 013d
000003b0: fc22 94bd b7be 56bd 26e0 1cbc 9cf1 ccbd
000003c0: 1659 29bc aab1 a9bc c08b 7eba da57 5bbc
000003d0: ac67 91bd 0442 343d b575 aabc d20e 773d
000003e0: b410 4dbd 5223 b63c f17c babb b72f f5bc
000003f0: eb04 bf3b 629a 9dbd 7d59 b0bd 5292 03be
0.019931005 0.2553171 0.02011293 -0.13840306 -0.5754329 -0.14949344 -0.06710182 -0.28387508
-0.09051579 -0.3949962 -0.47071716 -0.023853375 -0.06696115 -0.35516518 -0.11930244 -0.062763944
0.2571555 0.09221963 -0.09027071 0.077780366 -0.09013984 -0.18575382 0.013566418 -0.043113243
0.10509245 -0.35080385 0.2650106 -0.068314195 -0.1239051 0.012886454 -0.0076205214 0.07277183
0.021116516 0.33111623 0.10315622 0.040408514 -0.13669649 0.06649084 0.2404806 -0.08414807
-0.0014453928 0.11888885 0.74686 0.035571072 0.0042705415 0.06130121 -0.46217823 0.10012106
-0.116708845 -0.030060826 -0.2974096 -0.16715242 -0.35986477 -0.17769805 -0.13203833 -0.08176072
-0.05674718 0.062225383 -0.5613606 0.19156705 -0.28662363 0.61587554 -0.1170296 -0.340714
-0.122414984 0.03466409 0.04365198 -0.09469438 -0.09087207 0.0025981672 0.035162315 -0.41208613
-0.25313148 0.018515982 0.07800014 0.014854354 0.3059336 -0.08201479 -0.013136391 0.0738395
0.018676572 -0.01738421 -0.15814348 -0.2961685 -0.5509219 -0.19182871 -0.1288613 -0.64154994
-0.114894405 0.12517375 0.0040941867 0.10985389 -0.13709165 -0.423085 -0.19908251 0.33773813
0.61195284 0.006356597 -0.04059552 -0.1631552 -0.10038894 -1.142089 -0.012770302 -0.8376871
0.46333912 0.021888252 -0.51450884 -0.26073518 0.07908582 1.0202415 0.35428149 0.05145923
-0.10320899 0.07481986 0.114262186 0.81321144 0.4120694 -1.3076249 0.17401116 -0.024768233
-0.27425808 -1.6810709 -0.26611045 -0.055451006 -0.1376308 -0.6241597 0.3002208 0.10385954
0.20069367 -0.045307614 -0.01370746 0.013226676 0.53833795 -0.8391139 0.21146108 0.9057956
0.70934474 -1.6229837 0.7332298 -0.5287441 -0.045857567 -1.8619931 -0.31680664 0.051717363
-0.19355792 -0.5944569 -0.31661254 0.0854934 -0.7212043 0.2060007 0.30770868 -0.051856373
-0.3174802 -0.9498842 0.16615216 0.5618771 0.0058129383 0.045060188 0.8092645 0.30562326
-0.90920097 -1.1832855 0.20048743 -1.3925294 0.48696718 -0.43649846 -0.06296869 0.07993502
-0.07237289 -2.1364377 -0.12407065 -0.05548773 0.8096757 0.027516628 -0.015701843 0.059440915
0.26714924 0.4182175 0.08631257 -0.0782913 0.45159647 -0.025538748 0.32307538 -0.7647264
-1.0158553 -0.12772988 -0.39378208 0.17632277 -1.8703959 -0.04428169 -0.06314989 -0.05601455
0.2706823 -0.08301605 -0.95726544 0.74677104 -0.47046328 0.14456819 0.15022801 0.20098333
0.04700647 0.041341186 0.06167137 -0.12281957 0.055962373 -0.037535775 -0.060537662 -0.112214215
0.0034289737 -0.06750879 0.01780374 0.057003524 -0.00014505387 -0.010572304 0.017397957 -0.08898885
-0.04819121 0.011699523 -0.04536487 -0.048719935 0.082197644 0.01004487 -0.0846264 -0.10762631
0.08093832 -0.047048368 -0.100157835 -0.05461171 0.03649497 0.0050694705 -0.11161665 -0.03694754
0.007856909 -0.12935194 0.0043483847 0.031494737 -0.07233235 -0.052427974 -0.0095749255 -0.10007021
-0.010336181 -0.0207146 -0.00097101554 -0.013387645 -0.07099852 0.04400827 -0.02080808 0.060316868
-0.050064757 0.022233639 -0.0056911637 -0.029929979 0.0058294437 -0.07695462 -0.086108185 -0.12848786

fc3.bias f4 [50]
00000000: 4dd9 c3be d211 ae3e 5167 f2bd 3ea7 c3bd
00000010: 5949 dabe e484 94be 1cde 85be d202 f9be
00000020: 72db e6be 707e 53be a139 21be f90f 0d3f
00000030: 8f70 dfbe d07b d2bd e71b f6bd 3685 acbd
00000040: be04 0ebe ab01 91bd 3ed9 86bd 7aa0 83be
00000050: 5a65 84be 039a 2bbe 14ee d6be bb6d 323c
00000060: 1a30 54bd 3290 7d3e ff7b 2dbf a692 a4bc
00000070: e960 c6bd 3536 30bf d3e8 2fbf 85c2 50be
00000080: c450 3e3f 5d77 633e 9c8b 853e aa9d 243e
00000090: a3d4 bb3e 28a4 f3be f408 64be e97f a0bd
000000a0: 06e9 f3bd 2784 0f3e f85b 9f3f 7999 123f
000000b0: f163 f6bb 529a 85be e344 d0bd c045 163f
000000c0: 4a07 f5be deb5 223f
-0.38251725 0.3399797 -0.11836112 -0.09553383 -0.42634085 -0.29007638 -0.26146019 -0.48634964
-0.45089298 -0.20653701 -0.1574464 0.551025 -0.43640563 -0.102775216 -0.12017041 -0.084238455
-0.13868997 -0.07080396 -0.065844044 -0.2570837 -0.25858575 -0.1675797 -0.41978514 0.01089042
-0.051803686 0.24762037 -0.6776733 -0.020089459 -0.09686453 -0.68832713 -0.68714637 -0.20386703
0.7434199 0.22213502 0.26083076 0.16075769 0.36685666 -0.4758618 -0.2226904 -0.07836897
-0.1190968 0.14015256 1.2449942 0.5726543 -0.007519238 -0.260943 -0.10169389 0.5870018
-0.47857124 0.6355876

fc4.weight f4 [2, 50]
00000000: 4f98 6cbd 5abd 2abf 48fb cfbd e791 ab3d
00000010: 1f2e a93b 827c c03e 9590 74be 1b18 6b3e
00000020: 477a c03d 6b09 133d 0d2a 383e 609d 0c3e
00000030: 3b1a 44be 7057 c53d f717 6dbd fd07 b6bd
00000040: d594 86bd 18f1 573d ebb0 46be c4f3 fd3c
00000050: 42e6 463c db9f 48be 6b35 d53d 72d3 573d
00000060: a405 853d 8e54 febe c51d 863e f6f3 3ebd
00000070: b7cd 48bf 572e 35bf 1b71 88be c35f 68be
00000080: c24e 8b3e 3db6 8c3e bf8e 8c3e 970f 9ebd
00000090: 1499 e63d 7b91 d8bd ae59 573e 6cea 283e
000000a0: b32d eb3d 63b0 0d3f bcb8 76bf 8bd4 1b3d
000000b0: d9c5 f43d b828 6a3d 4e81 cabd c3f2 01bf
000000c0: e97d a3be b316 afbe a34e 88bb d99a 1f3f
000000d0: cfad 9c3d 95e6 393d c04f 653d a47c ecbe
000000e0: e862 4a3e 333d 80be 82a7 6c3c 9295 8f3c
000000f0: d45d 1ebe 53c1 23be 8af0 0a3e a6db 87bd
00000100: 3b68 2bbd ecfc a9bd 9d5d 473d bb5c 313d
00000110: cd12 723e 02d3 bb3d 3847 0f3d e8f3 7abd
00000120: 3ee9 29bd 8caf 10bd 6803 043e 5d08 103f
00000130: cded 92be 9357 8ebd 5469 4c3f 688b 4a3f
00000140: fa62 8a3e 715b f63d 2e71 7abe 3a9c 45be
00000150: c2a1 78be d2d5 883e b463 e2bd 7345 1b3e
00000160: 8186 3cbe a166 10be 443f 97bb 5429 07bf
00000170: 957e 6c3f 3c07 8fbe eed5 eebd b0dd 1cbe
00000180: e0c4 dabc 3df1 1a3f 662a 3d3e 79b9 da3e
-0.05776244 -0.6669518 -0.1015535 0.08377438 0.0051629688 0.37594992 -0.23883279 0.22958414
0.093983226 0.035897654 0.17984791 0.13731909 -0.19150631 0.09635818 -0.057884183 -0.088882424
-0.06571356 0.05272016 -0.19403426 0.031000026 0.012139859 -0.1959223 0.10410579 0.052691884
0.064952165 -0.49673885 0.26194587 -0.046619378 -0.78438896 -0.70773834 -0.26648793 -0.2269278
0.27208525 0.27482787 0.27452657 -0.07717817 0.11259666 -0.10574623 0.21030304 0.16495675
0.11483326 0.5534727 -0.9637563 0.038044494 0.11951799 0.05716774 -0.09887944 -0.5076105
-0.31932 -0.34197006 -0.004159765 0.62345654 0.07650339 0.045385916 0.05598426 -0.46188843
0.19764292 -0.2504669 0.014444234 0.017527375 -0.1546548 -0.15991716 0.13568321 -0.066336915
-0.04184745 -0.08300194 0.04867326 0.043301325 0.23639984 0.09171106 0.03498003 -0.061267763
-0.041482203 -0.035323665 0.12891924 0.5626276 -0.28697053 -0.06950297 0.7984822 0.7911897
0.27028638 0.1202916 -0.24457237 -0.19297877 -0.24280456 0.26725632 -0.11054173 0.15163212
-0.18410684 -0.1410165 -0.004615696 -0.52797437 0.9238065 -0.27935207 -0.116618976 -0.15318942
-0.026705205 0.6052435 0.18473205 0.4271963

fc4.bias f4 [2]
00000000: d7e4 43bf dd09 613f
-0.76521057 0.87905675
