onnx_models/fdia_model_ffnn_pytorch_100_200_100.onnx (onnx, 214531 bytes, 8 tensors)

fc1.weight f4 [100, 128]
000000 10 f6 07 3e e5 4e b8 3d 66 d7 2a bc 19 8a 2f 3e
       0.13277459 0.08999423 -0.010427332 0.17142524
000010 d6 91 15 3e 5d a4 8d 3e 89 7c ab 3d b4 af ac 3d
       0.14606413 0.27664462 0.083733626 0.0843195
000020 a7 86 46 3e f2 4b 2b 3e f2 4c b4 39 fb 55 e8 39
       0.19387303 0.1672819 0.00034389604 0.0004431455
000030 61 c9 7e bc 05 67 c9 ba a3 c6 01 3e 24 8b 67 3c
       -0.015550942 -0.0015365785 0.1267343 0.014132295
000040 00 7d 32 bd 32 ba 7b 3b 74 82 b5 bc fb 4f 60 bd
       -0.04357624 0.0038410542 -0.022156931 -0.054763775
000050 0f fa cf bb 54 19 4e 3e c9 ee 16 3e 77 8c 0b 3c
       -0.006346948 0.2012685 0.14739527 0.008517376
000060 f9 df 97 bd 0f c8 59 bd 6c bb b3 3b 17 0e 05 b9
       -0.07415766 -0.053169306 0.005484989 -0.00012689117
000070 63 ee 7b bd 70 e1 d2 3e 0e a8 32 3e 4c 4f 02 be
       -0.06150664 0.4118762 0.1744692 -0.12725562
000080 e3 a2 f7 3d 3b 55 db 3d 51 81 33 3e 05 90 60 3e
       0.12091615 0.10709616 0.17529799 0.21929939
000090 62 fd ca 3e 1f d3 e6 3e d7 44 bc 3d aa 89 d0 b9
       0.3964644 0.45082948 0.09192818 -0.0003977542
0000a0 41 2f ae b7 3d b3 cc 3b 26 37 b1 bd 42 e7 dc 3d
       -2.076442e-05 0.006246953 -0.08653097 0.107862964
0000b0 38 d3 6d bd 1d 5d 00 ba b5 b7 02 3d 6e 69 c5 3c
       -0.058062762 -0.00048966875 0.031913478 0.024098124
0000c0 30 f3 c8 3b 8a da 3b ba cb 05 05 3e 76 23 04 3e
       0.006132506 -0.0007166049 0.12990491 0.12904152
0000d0 67 53 e2 bb 46 4c 6c 3b 09 6e 04 bd 9c 97 ab 3c
       -0.006906915 0.0036056205 -0.0323315 0.020946316
0000e0 83 cb 9a 3c dd f4 66 bb 89 aa 90 3e 24 b5 dc 3d
       0.01889587 -0.0035241165 0.28255108 0.10776737
0000f0 f2 29 76 3d 46 b3 3d 3e 54 de fd 3d 8e 36 e2 3d
       0.060098596 0.18525419 0.12395921 0.11045562
000100 3a f0 71 3e 29 88 56 3e 0b ee aa 3e 21 22 f5 3d
       0.23626795 0.20950378 0.33384737 0.119694
000110 7f 30 53 b9 1f f1 6b 3a 1b a6 0f bd d9 37 9e bd
       -0.00020140594 0.00090004684 -0.03507052 -0.07725496
000120 24 78 b4 3e f0 96 52 bd 51 69 89 3c 72 3d a1 bb
       0.3524791 -0.051413476 0.016773852 -0.004920655
000130 c8 2d a6 3b a5 27 23 bc 66 51 d6 bb 81 9c d4 3e
       0.0050713755 -0.009958182 -0.006540465 0.41525653
000140 44 51 91 3e ee 24 17 3c 74 44 9e bd 70 e0 bf bb
       0.28382313 0.009225113 -0.077279 -0.0058556125
000150 85 d4 2c 3c 6c e1 70 bb 8b da ac ba 54 1f 12 3e
       0.0105487155 -0.0036755456 -0.001318769 0.14269763
000160 42 f8 bf 3d a6 32 80 be a7 b3 04 3e 83 a0 ae 3d
       0.09373523 -0.25038642 0.12959157 0.08526709
000170 ab 52 84 3e 5b af 6d 3d 42 c9 93 3d 7f 3f 2e 3e
       0.2584432 0.05802856 0.07216121 0.1701641
000180 96 68 e7 3d 9a 59 24 ba 12 c6 1c ba 8c dc 9e 3c
       0.11299245 -0.0006269455 -0.00059804425 0.019392274
000190 13 ff d3 ba be 4a 48 3e ba 67 50 bd 65 e9 59 bc
       -0.001617404 0.19559762 -0.05088017 -0.0133002745
0001a0 cc 9e 88 bc b4 65 c5 bd c5 53 d6 bd 70 6d ce bc
       -0.016677283 -0.09638539 -0.104651965 -0.025198668
0001b0 a2 de cf 3e 1e a4 9a 3e 2d ba 27 bd 13 6d 97 3b
       0.40599543 0.30203336 -0.040949035 0.004621157
0001c0 4c b6 a7 bc 93 90 78 ba 4a b3 41 bb 0b 59 d1 38
       -0.020472668 -0.00094819925 -0.0029556327 9.982482e-05
0001d0 33 0e 96 bd dd cc 6a bd bb fa 72 bd cb 81 90 bd
       -0.07326927 -0.05732428 -0.059321146 -0.07056006
0001e0 96 f3 28 3c c7 c5 56 bd 19 b3 63 bc 29 95 80 bd
       0.010311982 -0.05243471 -0.013897681 -0.0627845
0001f0 eb 98 bf 3a 72 0f 99 bc 4d 9e 68 bd 39 81 37 bd
       0.0014617717 -0.018684123 -0.056791592 -0.04480097
000200 1c 33 d6 3d 54 fb a2 3d b6 b7 83 3e 7d 1e 07 3e
       0.10458967 0.07958093 0.25726098 0.13195224
000210 19 a2 8c 3e eb b5 f4 3d 9f c8 41 3d 17 da 05 3e
       0.2746742 0.119487606 0.047310468 0.13071476
000220 02 a8 31 bb 5d eb 91 3c 65 f1 0e ba f4 e0 5e ba
       -0.0027108197 0.017812425 -0.00054528407 -0.00085021486
000230 6a 33 27 bc 4f 9f 80 38 d8 a0 0b be 41 9c 04 3d
       -0.010205129 6.133189e-05 -0.13635576 0.032375578
000240 83 74 ab 3c b8 b9 71 3a 46 ac 8f 3d 4d 25 2b 3d
       0.02092958 0.00092210947 0.070152804 0.04178362
000250 aa 53 b4 bc 9e a8 45 be 7f ba 34 be e8 e3 79 3c
       -0.02201255 -0.19302604 -0.17649268 0.015252091
000260 41 21 a4 ba 5a 89 80 3d 18 ff 71 3a 46 4c a9 ba
       -0.0012522117 0.06276198 0.00092314323 -0.0012916408
000270 23 24 57 3d a1 92 06 3e 89 3a 6a 3d c8 ce 1f 3e
       0.052524697 0.13141872 0.05718473 0.15606225
000280 e7 e1 8b 3d 90 58 86 3e 86 55 82 3c e7 52 b3 3d
       0.06830197 0.26239443 0.015909921 0.08756047
000290 a1 5a 40 3e 61 dd e0 3d 5b 26 c6 3d 39 a5 31 b9
       0.18784572 0.10979725 0.096752845 -0.00016941586
0002a0 bc 2c 9d 3a b6 74 8e bb c2 9b 0d 3d c1 be 14 be
       0.0011991481 -0.004347409 0.03457237 -0.14525892
0002b0 05 7a 2e 3d 45 a2 55 3b af 30 ce bb 4c eb c4 3c
       0.042596836 0.003259794 -0.0062924246 0.02403798
0002c0 5d 0d e5 3a d3 fe 87 bd cd cc 3b be 85 24 d7 bd
       0.0017475296 -0.06640401 -0.18339844 -0.105050124
0002d0 7c f4 b0 3b fd d3 f0 bc e9 ed e9 3c e9 ca 53 bc
       0.0054002386 -0.029397959 0.028555827 -0.0129267955
0002e0 d3 80 96 bc 3c ee 7f 3c d8 ef 1a 3e c0 08 fe 3d
       -0.018371975 0.015620764 0.15130556 0.12404013
0002f0 92 b9 ad bc 97 20 08 3e d1 b7 4b 3e 07 8a 99 3d
       -0.02120665 0.13293682 0.19894339 0.0749703
000300 7c a1 52 3e 3b f0 03 3e 85 31 d6 3d db eb f3 3d
       0.20569414 0.1288461 0.10458664 0.1191022
000310 65 4e 99 3a ec 9f 90 3a f9 45 d2 3c 70 27 1b be
       0.0011696337 0.0011033989 0.025668131 -0.15151763
000320 3f 1f 28 bf 65 07 83 3d 20 e2 2e 3c bc 1c 08 bc
       -0.6567268 0.06397895 0.01067403 -0.008307632
000330 cf 4d d8 3c 8e a8 d3 3b 46 8e 90 bc e6 41 69 bf
       0.02640429 0.0064593023 -0.017645966 -0.9111618
000340 aa 6f 0f bf 95 6a 57 bc b7 d4 53 3d dc 7c 8e 3d
       -0.5602976 -0.01314797 0.051716533 0.06957409
000350 6b b2 6c bb 98 fe 3f 3c 86 62 07 bd 72 50 8a 3c
       -0.0036117088 0.011718415 -0.033052944 0.016884062
000360 7e b5 d2 3d 3e b0 9f 3e 50 52 08 3d d8 b3 45 3e
       0.10288523 0.3118915 0.033281624 0.19306886
000370 f7 75 0c 3d 1a 6b 3f 3d f7 4d 3d 3e 75 03 e3 3d
       0.034292188 0.046733 0.18486772 0.11084644
000380 7d b7 a5 3d ff 72 0f ba 45 46 ed b9 5c 18 42 bd
       0.08091638 -0.0005472153 -0.00045256517 -0.047386512
000390 ee 74 87 3a 0e a7 ad be 42 92 1a 3d 59 30 4f bc
       0.001033453 -0.33916515 0.03773714 -0.012645804
0003a0 8c 23 ea b9 bf 2c 69 bd 7b ba 64 3b cb 8c ee 3b
       -0.00044658442 -0.05692744 0.003490119 0.0072799674
0003b0 90 22 69 bf 4e 0a 19 bf d9 8a 1c 3c ed 33 5b 3d
       -0.91068363 -0.5978135 0.009554588 0.053516317
0003c0 63 90 c3 bb 9d 52 23 3c ac 95 10 3c dd e2 52 3d
       -0.00596814 0.009968427 0.008824747 0.051485885
0003d0 83 d1 0c 3d d6 e3 61 3d ed 80 6f bc 2e 62 2b bd
       0.034379493 0.055148922 -0.014618141 -0.04184168
0003e0 dd 9c 7a 3c de 58 13 bd 9a 60 2c 3d 0f 4a 58 bd
       0.015296188 -0.035973422 0.042084314 -0.052805003
0003f0 e2 ff 0a bd 0d 44 d0 3c cf b1 72 3c 4f 19 f4 3c
       -0.033935435 0.025423074 0.014812901 0.029797224

fc1.bias f4 [100]
000000 92 37 a6 3c 2a 58 12 3c 64 98 ec bd 5f de f0 bc
       0.02029017 0.008932153 -0.11552504 -0.02940291
000010 5f 56 5b 3d ad e7 f7 bc 26 6a f2 3d 9e d6 dc 3c
       0.053549167 -0.030261839 0.118366525 0.026957806
000020 10 41 7e bd a7 68 15 be f8 ae 9a 3d 1d 83 3a bc
       -0.062073767 -0.14590703 0.07552904 -0.011383799
000030 00 68 db bd 85 13 03 be 65 0b 58 3d b4 6d bb bd
       -0.10713196 -0.12800415 0.05274524 -0.091517836
000040 2a b2 8a 3c 10 83 79 3d 5f 6e 02 bd 58 d4 6b 3d
       0.016930658 0.060916007 -0.03184354 0.057575554
000050 53 68 f1 3c 75 9b 93 3d 22 1f 1a bd b1 e7 40 3d
       0.029468691 0.072073855 -0.037627347 0.04709596
000060 52 36 4b bd 8a f7 9e bd 8d 37 30 bc d1 82 e9 bd
       -0.04961235 -0.07762058 -0.010755432 -0.114019044
000070 8c 4a 00 3d ed c4 14 bd 0a e0 a8 bd 13 77 d2 bc
       0.031321093 -0.036320616 -0.08245857 -0.025691545
000080 3b 69 05 3d 07 ba c5 bc 33 ce e3 3d be 81 25 3d
       0.03257106 -0.024136556 0.11123314 0.040406935
000090 8d 79 09 3c 68 f0 a3 bd 2b b5 74 bb 2f 54 8f bd
       0.008390796 -0.08004838 -0.003733943 -0.069984786
0000a0 40 2e 82 bc 42 e5 c1 bd 6b e0 6b 3d 75 82 47 3d
       -0.015891194 -0.094675556 0.05758707 0.048708398
0000b0 7f 5b 03 bb 49 17 1d be d4 66 e8 bd b8 aa 83 bd
       -0.002004355 -0.15340914 -0.11347738 -0.064290464
0000c0 e8 20 58 bd 71 a0 90 bd 54 a6 97 bd 32 9b f4 bc
       -0.052765757 -0.07061852 -0.074047714 -0.02985916
0000d0 77 18 b1 3d b1 0a 2d bd 37 99 c1 39 ca 12 62 bd
       0.086472444 -0.042246524 0.00036925983 -0.0551937
0000e0 30 ab 7e bd 92 28 56 3b 7e aa 9f bd 61 e1 5f bd
       -0.062174976 0.003267799 -0.07796191 -0.054658297
0000f0 ac c9 87 3d b3 61 83 3d 36 42 8b bd cb 37 53 bc
       0.06630263 0.06415119 -0.06799738 -0.01289172
000100 33 f5 0a 3d 92 b5 0f bd 4b 15 51 3c e6 f4 05 3d
       0.033925246 -0.03508527 0.012761424 0.032704256
000110 93 77 63 bd 1b 7b 6d bd 33 5b b9 3d 87 5b 5d bd
       -0.055533957 -0.05797873 0.09050598 -0.054042365
000120 be 26 2d bd ab de 3e bb 07 5d 03 be da e9 14 bd
       -0.042273276 -0.002912442 -0.12828456 -0.03635583
000130 f8 b2 74 3d 42 fa 71 bd c7 cc 5e bd 99 ad 13 bd
       0.05974099 -0.059076555 -0.05439451 -0.036054228
000140 ae 22 cc 3c 96 af 4e 3d 9c 66 43 bd f5 4b 3d bd
       0.02491888 0.05046042 -0.047705278 -0.046215016
000150 53 86 f5 3b 69 8d d3 bd d7 3f 52 bd 4d 6e 67 3c
       0.0074928193 -0.10329706 -0.051330414 0.014125419
000160 08 00 38 bd 28 ae b4 bd 5b 02 38 bd 14 35 41 3d
       -0.044921905 -0.0882228 -0.04492412 0.04716976
000170 91 ac ad bd db 6e bd bd 6c 34 8c 3d 17 d3 c9 3b
       -0.0848018 -0.0924966 0.06845936 0.006159197
000180 3d 02 12 bc 61 74 a1 bc 44 1c 4d bd 7f 2f 34 3d
       -0.008911666 -0.019708814 -0.050075784 0.04399061

fc2.weight f4 [200, 100]
000000 c0 eb 35 bd cf 90 93 3d 9f ae 60 be 60 97 8f 3d
       -0.04441428 0.072053544 -0.21941613 0.07011294
000010 14 5f 51 3e 39 66 bf 3d de 03 9b bd e7 c0 ce 3d
       0.20446426 0.09345669 -0.07569097 0.10095387
000020 06 30 ba bd 38 ec c6 3d 3e 89 a0 be 1a 90 4b bd
       -0.09091191 0.09713024 -0.31354707 -0.049697973
000030 6b 4a d5 3d 85 4e 00 3b a5 6a c8 3d 44 91 bf bc
       0.10414585 0.0019578051 0.09785966 -0.023384698
000040 54 79 f4 bd 09 81 39 be ff 21 1e 3d d0 89 86 3d
       -0.11937204 -0.1811563 0.03860664 0.065692544
000050 7e 9f 47 3d fc 45 3b 3d 99 80 3b 3e f9 f6 bb 3d
       0.048736088 0.04572104 0.18310775 0.09177966
000060 0c 26 96 3b 44 5d a5 3c cc e5 06 be b0 f7 b3 bd
       0.0045821723 0.020186074 -0.13173598 -0.08787477
000070 5c 59 28 be e8 1a 03 3e e3 f7 14 3d 46 17 d2 3c
       -0.16440338 0.12803233 0.036369216 0.025645863
000080 0c 91 1d 3c 7f fe 5d 3c 89 89 21 3e 5b fd 9e bd
       0.009617101 0.013549446 0.15775122 -0.077631675
000090 23 a8 de 3d cf 6a c5 be c3 28 42 bd 7e b1 53 bd
       0.10871913 -0.3855805 -0.047402155 -0.05168294
0000a0 b3 d0 21 3d fa 2d b0 bd 75 04 29 bd 07 c3 8c 3d
       0.03950567 -0.08602519 -0.041264016 0.06873136
0000b0 62 ec 32 3d 68 21 86 ba f1 3f be bc 17 e2 40 bc
       0.043682463 -0.0010233345 -0.023223849 -0.011772654
0000c0 ad 42 8c bd 67 df 2d bb ea ed 84 bd 1f 96 b0 bd
       -0.06848655 -0.0026530863 -0.06490691 -0.08622383
0000d0 a3 16 0a be cc dd 49 be ad e5 31 3d 12 1d b1 bd
       -0.13485198 -0.19713515 0.043431927 -0.08648123
0000e0 e8 fb 13 bd fb 7b da be 77 75 20 3d 23 e1 81 be
       -0.03612891 -0.42672715 0.039174523 -0.25367078
0000f0 d9 47 6a bc 96 ef c1 3c 3a 6e a0 bd 1d 14 08 3d
       -0.014299356 0.023673814 -0.07833524 0.033222307
000100 c7 c5 8e be 8d 44 a1 3d 93 e2 9a bd f4 42 55 bd
       -0.27885267 0.07874403 -0.07562747 -0.052065805
000110 f3 43 31 bc ab 87 ac bd a1 1e a9 bd 93 8a c2 bc
       -0.010819423 -0.08424314 -0.08257795 -0.023747718
000120 eb a3 f4 bc 75 88 c1 bd f6 ee 4d 3e e4 d4 cb bc
       -0.029863318 -0.09449855 0.20110688 -0.024881788
000130 a5 1a bc 3d df bd 06 3e 4c 6a 36 3b 1b 76 d4 3c
       0.091847695 0.13158368 0.0027834354 0.025935223
000140 ff ce 55 3e cf f5 9b 3c d6 07 44 be 7c 62 43 3d
       0.20879744 0.01903811 -0.19143614 0.047701344
000150 54 65 b1 bc 03 c9 3d be a5 7e 9c bd 91 e7 81 3d
       -0.021654762 -0.18533711 -0.07641343 0.06342996
000160 74 28 bc 3d b8 74 b2 3e 0f 91 bf 3d 22 ea 90 bd
       0.09187403 0.34854674 0.093538396 -0.07075907
000170 59 68 46 3d 42 a3 1d 3d b4 6f 8d bd 8d f6 9e 3d
       0.048439357 0.038485773 -0.06906071 0.077618696
000180 0a f6 fc 3c 74 d3 76 3d b7 ff 85 3e c5 8f b1 3d
       0.03087904 0.06026025 0.26171657 0.0867
000190 8a b2 84 3d 29 8b bb 3d 44 ee 20 bd a4 ae b2 bd
       0.06479366 0.09157402 -0.039289728 -0.08724716
0001a0 ab b0 72 bd df 5e 9f bd 8a c9 ac be 97 16 90 bd
       -0.059250515 -0.07781767 -0.33747512 -0.07035559
0001b0 f3 8b 69 be cf 39 18 bd df 7c 35 be 9f d3 06 3e
       -0.22807293 -0.037164506 -0.17723416 0.13166665
0001c0 8f b6 8f 3e c6 59 ad bd ef cb 01 bc 95 cb 1c bd
       0.2806897 -0.084643885 -0.007922157 -0.03828009
0001d0 03 c4 23 be 0d 2b 0d 3e c3 47 01 3e bf 39 57 bc
       -0.15992741 0.13785954 0.12625031 -0.013136326
0001e0 77 ca d9 bd 08 98 3f be 3a 05 d6 3d 3c 44 39 3d
       -0.1063432 -0.18710339 0.10450216 0.04523109
0001f0 a2 94 2b 3e 17 d1 1f bd e5 b3 4e be e1 47 8c bd
       0.16755918 -0.039017763 -0.20185812 -0.06849647
000200 51 e4 22 3e 55 b2 13 be a9 8f 86 bc cb f1 89 bd
       0.15907408 -0.14423497 -0.016425924 -0.067355715
000210 3b d5 cc 3d c8 57 87 bd 8e e6 11 be e3 40 1e be
       0.10001608 -0.0660854 -0.14248106 -0.1545444
000220 8d e3 0d 3d c3 d2 b5 bd ea 60 55 3d 01 7b f1 3d
       0.034640837 -0.0887809 0.052094378 0.11791039
000230 86 12 8c 3d 76 44 bb bc aa 34 3a 3d 44 8d 8f 3d
       0.068394706 -0.022859793 0.04546038 0.07009366
000240 72 48 0e 3d a6 bc ce 3d db 5e c9 3d d7 fd b2 bc
       0.034737058 0.100945756 0.09832545 -0.021849556
000250 ed 02 ad bd 5d fd 17 3d 1b eb 58 bd d1 b3 c8 3c
       -0.08447824 0.03710686 -0.05295859 0.024499806
000260 e6 6f a4 bc c7 53 bd bc e6 ea dc bc 60 ee 17 bd
       -0.020072889 -0.023111237 -0.026967477 -0.037092566
000270 16 2a 7d bd 80 74 9c 3b ec b8 b0 3d 2e ad 08 be
       -0.061807714 0.00477463 0.08629021 -0.13347313
000280 cf 3e 61 bd 04 60 17 3e c4 e0 7c bb e6 41 9b 3d
       -0.05499154 0.14782721 -0.003858612 0.075809285
000290 b1 88 05 bd 98 a2 bd 3d 87 de 1c bc e6 80 14 bd
       -0.032601062 0.09259528 -0.009574539 -0.03625574
0002a0 50 fb 0c 3d 94 84 50 3e ae d4 26 bd 42 3d 8f 3d
       0.034419358 0.20363075 -0.04073017 0.06994106
0002b0 74 6b e1 3a 2d 9a 35 bd e8 ff 4d 3d b5 34 4f 3d
       0.0017198161 -0.044336487 0.05029288 0.050587375
0002c0 dd 56 22 bd a5 5e cd 3d 93 a7 5f 3d 21 1a 0b 3e
       -0.03963362 0.10027818 0.05460317 0.13584186
0002d0 63 84 e1 3d 34 e7 f0 3c 43 ed c2 3d bd 82 95 3d
       0.11011579 0.029407121 0.0951791 0.07300327
0002e0 ab 67 bc bd 8d 6b a7 be f0 f1 03 3e 41 7a 15 bd
       -0.091994606 -0.32699242 0.1288526 -0.036493544
0002f0 18 9b a7 3d 13 16 f9 bd 7b 9f 39 bd 9b 93 18 3d
       0.08183879 -0.121624134 -0.045318108 0.037250143
000300 63 dd a8 bd 28 b5 cb 3d c9 fd 00 3d d2 60 c4 3d
       -0.08245351 0.09946662 0.03149203 0.095887795
000310 d6 37 29 bd 46 9f cd bd f9 29 c8 be 8d a0 63 bd
       -0.041313015 -0.100401446 -0.39094523 -0.055573035
000320 28 6b 0f 3e 6b f8 10 3e e1 02 d0 bd 65 3d fe bc
       0.1400572 0.14157264 -0.10156799 -0.031035135
000330 c1 84 36 be 8e 86 33 be be 32 73 3e 17 57 bd bd
       -0.17824079 -0.17531797 0.23749825 -0.09245127
000340 53 e9 61 bd 98 18 62 3b ed 5d e1 bd 32 a4 30 bd
       -0.055154156 0.0034499522 -0.11004243 -0.04312534
000350 76 16 41 3d 37 30 16 be cf 75 33 3c 46 d5 04 bd
       0.04714056 -0.1466683 0.010953381 -0.032429956
000360 a6 13 62 3d 7a ef 28 3e 9f a4 f6 3d 41 78 99 3d
       0.05519452 0.16497603 0.12043118 0.0749364
000370 52 87 04 3e 87 64 c6 bd a7 ba c6 3c 16 a7 b5 bd
       0.12942246 -0.09687143 0.024258925 -0.0886976
000380 1c 60 06 3c 33 7e 31 bd 65 bc f3 bd 66 10 1d 3c
       0.008201625 -0.043333244 -0.11901168 0.009586429
000390 38 6f 8f 3d 29 87 e9 bc 41 ea 88 bd bd 60 69 bd
       0.07003635 -0.028506832 -0.066853054 -0.056977022
0003a0 65 81 d6 3d 25 0c 08 3d 5d 1b 9b bd aa 26 b3 bd
       0.10473899 0.033214707 -0.075735785 -0.08747609
0003b0 04 95 b0 bd 74 9c 7b 3b ac e6 48 3d 38 c7 43 bd
       -0.086221725 0.0038392814 0.04904811 -0.04779741
0003c0 02 53 16 bd 99 1f 1f be 5b e5 a1 bd 2b 91 88 bd
       -0.036700256 -0.15539397 -0.07905074 -0.066683136
0003d0 ef 2c 41 3e d2 f5 14 3e a9 fc ec 3d 5d 9f 02 3d
       0.18864797 0.14546898 0.115716286 0.031890262
0003e0 0a 67 bc 3d 26 79 35 3d 5e b3 87 3d 74 ef f2 bd
       0.09199341 0.04430499 0.066260085 -0.11862078
0003f0 65 de 80 3d 0d a7 a0 bd ed 20 f5 bd 90 58 a2 bd
       0.062924184 -0.078443624 -0.11969171 -0.07927048

fc2.bias f4 [200]
000000 09 f3 88 3e 21 4a d0 bd da 92 69 bb 53 fb e5 3d
       0.2674792 -0.10170389 -0.003564051 0.11229577
000010 36 bd 0d 3e 51 9a 67 3e c1 ff 7f bd 34 83 ae 3c
       0.1384171 0.22617461 -0.062499765 0.021302797
000020 f7 92 8e bb b5 29 09 3d 51 fd 6a be 2c 20 df 3b
       -0.0043510157 0.03348704 -0.22948195 0.006809255
000030 49 c4 f9 bc 93 3f c7 bd 4d bb e6 bc ac 1e 48 bd
       -0.030489104 -0.09728923 -0.028165484 -0.048857376
000040 f7 22 b5 bc ca 37 17 3e 86 b5 1e be 95 24 36 3e
       -0.0221114 0.14767376 -0.15498933 0.17787392
000050 0f 27 34 bd 35 bd be 3d 03 70 1d be 40 63 f0 bd
       -0.04398256 0.09313432 -0.1537476 -0.117376804
000060 a2 48 7c bc c2 8d 07 be bd ac 04 be 4e 7c fb 3d
       -0.015398176 -0.1323767 -0.1295652 0.122795686
000070 d4 48 fc 3d f6 54 a9 bd e9 eb 12 be 6e a4 47 bd
       0.12318578 -0.08268158 -0.14347805 -0.048740797
000080 7b 0e e6 bd 7d 3a 27 be 8b cf 59 bd c5 b9 31 be
       -0.11233231 -0.16330905 -0.053176444 -0.17356022
000090 b9 16 bb 3d 1a 4e 02 be 2b 1f b3 bd 4f 31 ca bd
       0.091351934 -0.12725106 -0.08746179 -0.09872686
0000a0 7c 55 61 bc ac fb f5 3c e0 1f ae bd 0b d3 08 be
       -0.013753291 0.030027233 -0.085021734 -0.13361757
0000b0 f0 12 4f bd ed 87 77 bd 2e e8 b6 bd 21 df 49 3d
       -0.05055517 -0.060432363 -0.089310035 0.049285058
0000c0 35 45 eb 3d 22 ce 0f 3e 38 a7 e3 3d f3 13 d2 3c
       0.114878096 0.14043477 0.11115879 0.025644278
0000d0 90 8b 2c 3e eb 08 20 3e 02 4e 94 3d ff 40 5b bd
       0.16850114 0.15628402 0.07241441 -0.053528782
0000e0 93 95 d2 3d 07 f0 11 3d f2 44 83 3d a9 bc ae bd
       0.10282435 0.0356293 0.06409635 -0.08532078
0000f0 a7 81 14 bd 23 6a 18 3e 04 b2 ea 3d 56 f7 39 bd
       -0.03625646 0.14884238 0.11459735 -0.045401894
000100 a3 3f 87 bc 9f a5 b7 3d 38 15 a0 bd 15 ce 6f 3e
       -0.016509837 0.089671366 -0.07816547 0.23418458
000110 14 37 0d bd 5d 35 63 be 0c 7c bf bd 6e 78 29 bd
       -0.034476355 -0.22188325 -0.09349832 -0.041374616
000120 f0 7e f3 bd 85 db e5 3d ce 92 dd 3d 8b 44 63 bd
       -0.11889446 0.11223511 0.108190164 -0.05548529
000130 56 b3 de bd 2e d7 d8 bd 26 69 f4 3d d9 75 8d bd
       -0.10874049 -0.10587917 0.11934118 -0.06907243
000140 54 cd de 3d bd 86 97 bd f2 90 32 bd 26 21 0b be
       0.10879007 -0.07398746 -0.043595262 -0.13586864
000150 00 fc 16 3e 52 6a 1d be 27 9c 99 3e f7 71 36 3d
       0.14744568 -0.15372589 0.30001947 0.04454228
000160 f7 2d de 3d eb 17 58 3e 84 88 b9 bd 27 cd b2 3d
       0.10848611 0.21102874 -0.090592414 0.08730536
000170 c0 b0 ee bd c6 b7 10 3e 83 02 f8 bd 7e 27 33 3e
       -0.11654806 0.14132604 -0.12109854 0.17495534
000180 f0 f0 55 3e c8 3e 94 bd b3 70 fe bd 2e fb 49 3d
       0.20892692 -0.07238537 -0.124238394 0.04931181
000190 33 79 b4 3d 5f 2d 03 be 11 4a 81 bd a9 ac fc bd
       0.088121794 -0.12810276 -0.06312955 -0.1233762
0001a0 95 1f 6f 3b ea 05 46 be 47 51 c2 bb a5 51 ec 3d
       0.003648733 -0.19338194 -0.005930099 0.1153901
0001b0 e8 80 fa 3d 42 1b 21 be 4e f6 6e 3c ce 36 0e 3e
       0.12231618 -0.15733054 0.014585091 0.13888094
0001c0 d0 6b cc bd 8f 4a 4e 3d f2 22 7b bc 8e a6 0d 3e
       -0.09981501 0.050364073 -0.015328156 0.13833067
0001d0 c3 cb c6 bd 0a fc 81 bd ee 90 d2 bd 34 a5 07 bd
       -0.09706833 -0.06346901 -0.102815494 -0.033116534
0001e0 51 3f f5 bc aa 6b b1 39 9c ee ce bc 1d af 35 3e
       -0.029937418 0.00033840287 -0.025260262 0.17742582
0001f0 39 b4 09 be f0 6e 30 3c 26 2f 11 3e e0 44 98 3e
       -0.13447656 0.010768637 0.14178142 0.29740047
000200 fe ac 88 bd f8 9e 4e 3c 06 c5 3a 3e f2 91 ed 3d
       -0.06673621 0.012611143 0.18239221 0.116001025
000210 25 d8 45 bd f5 9d d3 bc 64 ef 2a be b7 55 8a be
       -0.048301835 -0.025832156 -0.16692883 -0.2701852
000220 65 6a 0d 3d 61 7e 65 be 61 73 51 3d ec e3 69 3d
       0.034525294 -0.22411491 0.051135425 0.05710213
000230 6f a2 7b 3d 66 71 61 3e 03 bf 38 bd cd 3d b3 bc
       0.061434206 0.22015914 -0.045104038 -0.021880055
000240 2c 51 a0 bd ad 0b ed bd 7e 5e e7 bd 0b 12 55 3e
       -0.07827982 -0.115744926 -0.1129732 0.20807664
000250 1d ba 72 3e ac a4 33 3d c4 71 c1 3d 4d 7d b2 bd
       0.23703809 0.043858215 0.09445527 -0.087153055
000260 50 98 a8 bc ca 8e de 3a 66 25 0b be 1f 1a fa 3d
       -0.02058044 0.001697981 -0.13588485 0.122120135
000270 d4 91 b1 3b 6d 50 78 3d 28 d1 0e 3e 96 d0 a7 bc
       0.0054189954 0.060623575 0.13946974 -0.020485204
000280 36 e3 d6 bd ce 21 9a 3d 1a 2c 18 3e 64 7f 4f 3e
       -0.10492556 0.07525979 0.14860573 0.2026344
000290 6b 1e 56 bd df 0f 18 3e 37 fc 7e bd cd 70 9a 3b
       -0.052275103 0.14849804 -0.06225225 0.004713154
0002a0 62 c1 13 3d 5c 0a 43 3e ef 10 16 3d 0c d8 1b 3d
       0.036073096 0.1904692 0.036637243 0.038047835
0002b0 60 11 4b bd 54 f3 d2 bd f5 64 10 be 36 d7 60 bd
       -0.049577117 -0.103003174 -0.14101012 -0.05489274
0002c0 ba 9f da 3d 48 37 0f 3e a8 e0 73 3c 4c 5d 11 bd
       0.10674997 0.13985932 0.014885105 -0.035489365
0002d0 0b c1 54 bd a1 e9 e0 bd 41 8e 49 3e 13 b2 0f be
       -0.051941913 -0.10982061 0.19683172 -0.14032774
0002e0 ea fa 23 3d 5d 1f 14 be 36 e5 95 bd 0e 37 94 3c
       0.040034212 -0.14465089 -0.07319109 0.018092658
0002f0 18 ba 30 3d 77 53 41 3e b8 d7 17 3e ec a1 4b be
       0.043146223 0.18879496 0.14828384 -0.19885987
000300 87 cc 4c 3e b3 7f 9e bd d1 80 d7 3d 7b bb 4c 3d
       0.19999896 -0.077392004 0.10522617 0.049983483
000310 91 8d a1 bb 96 13 40 3e ab 62 31 3e b0 c8 d5 bc
       -0.004930206 0.18757471 0.17322795 -0.026096672

fc3.weight f4 [100, 200]
000000 2f 81 8a bb b1 6d cf 3a 49 af c5 bc 39 0f e3 3c
       -0.0042268257 0.0015825537 -0.024131434 0.02771722
000010 02 ee 78 bd 66 07 bf bc 61 8f d3 bd d6 f8 34 bd
       -0.060773857 -0.023318958 -0.10330082 -0.04418262
000020 ad cf 31 bd e2 7a f1 3c 46 a0 73 3c 25 ef 96 3c
       -0.043410946 0.02947754 0.014869755 0.01842458
000030 d5 ae 2c bc 34 8e 3b 3d c0 92 b8 3c 78 90 8b bd
       -0.01053973 0.045789912 0.022530913 -0.068146646
000040 b9 ab df bc dc ef 82 bd 09 d2 25 bd 11 95 7a 3d
       -0.027303563 -0.06393406 -0.04048351 0.061177317
000050 27 c1 01 3d 4b 54 f8 bc 6e 29 84 bd 64 ec 33 3d
       0.031678345 -0.030313632 -0.064532146 0.04392661
000060 86 91 84 bc 33 47 36 3d 0f e6 d8 3b 57 17 a6 bc
       -0.016182672 0.044501495 0.006619222 -0.020274801
000070 80 70 e9 bc f7 41 83 bd 0c 1d 55 3c 34 6b b0 3c
       -0.028496027 -0.06409066 0.013007414 0.021535493
000080 18 19 f7 bc cc 34 6b bd 0f 18 af bd 9e 0b f7 bc
       -0.030163333 -0.057423398 -0.08549511 -0.030156907
000090 37 ac d3 bc 0b c2 54 bc 74 b3 6d 3c 41 f1 66 3d
       -0.025838954 -0.012985717 0.014508117 0.05638242
0000a0 79 39 49 bd ea b2 d1 bb 0e 71 3a 3d c0 b0 9f 3c
       -0.049127076 -0.006399502 0.045517974 0.01949346
0000b0 3f cb f6 ba d6 d4 af bd 8f 46 06 bc ef 6d c8 ba
       -0.0018828883 -0.08585517 -0.008195533 -0.0015291552
0000c0 35 61 dd bd 45 f2 50 bb f5 0a a4 bc 8d f7 22 bd
       -0.108095564 -0.0031882685 -0.020024756 -0.039786864
0000d0 55 e8 9d bc 20 2c 5b bd 41 8b 7a 3c 68 e8 c0 3c
       -0.019275824 -0.053508878 0.01529199 0.02354832
0000e0 f5 44 2d 3d 69 d4 c7 3c 2e 5a 6a bd 96 4a ea 3c
       0.04230209 0.024393277 -0.05721491 0.028600018
0000f0 88 1d 2c 3d 86 1a b3 3c b6 89 a0 bd fc 36 02 3d
       0.04202035 0.021863233 -0.07838766 0.03179072
000100 58 4a da 3c 55 d8 85 bd af 08 4c bb 0f 10 3e bd
       0.026646778 -0.06535403 -0.0031133106 -0.046402033
000110 c7 11 9e 3c 0d 6b 7e bd 41 98 ac 3c 23 99 84 3c
       0.019295586 -0.06211381 0.021068694 0.016186303
000120 2b b8 89 bd c4 99 5b 3b 18 50 32 bd 97 06 29 3d
       -0.067245804 0.00335084 -0.043533415 0.04126605
000130 93 2c 59 bb f1 8f 1f bd 99 52 20 bc fd 90 e7 3b
       -0.003313814 -0.038955633 -0.009785318 0.0070668445
000140 4b b9 dd bc e4 b8 76 bd fa af 67 3d cf e8 72 3d
       -0.027065894 -0.06023492 0.05656431 0.059304055
000150 f9 20 f2 3c 95 9c 2d bd 14 fc 0c 3d 8b b6 a9 bc
       0.029556738 -0.042385656 0.034420088 -0.020716926
000160 b9 d5 ac bb 2e 7c 19 bd 2f 66 41 3d 94 1b 89 bd
       -0.005274501 -0.037471943 0.04721659 -0.06694713
000170 7b 60 ca 3c 6c 03 8a bd e6 1f b7 3c 61 d8 74 bd
       0.024704209 -0.06738934 0.022354078 -0.059776668
000180 e8 b9 08 3d 44 af 16 3d 35 a3 b7 3d a4 02 64 bd
       0.03338042 0.03678824 0.08966676 -0.05566658
000190 7c 14 3f 3c 07 07 98 bd 87 fd a9 bc 55 b6 1f bd
       0.011662599 -0.07423215 -0.020750774 -0.038992245
0001a0 0a 08 2b bc 37 62 88 bd 94 d7 f1 bc ba de a6 bc
       -0.010438928 -0.06659358 -0.029521741 -0.020369876
0001b0 0d 16 80 3c 78 9e 7b bd 56 ff 71 bd 5c bb b2 bd
       0.015635515 -0.061430424 -0.059081398 -0.08727142
0001c0 b4 b7 3d bd 4c a0 2a bd 2f cd b7 bd bf 35 5d 3d
       -0.04631777 -0.041656777 -0.089746825 0.054006334
0001d0 41 a7 59 3d 94 ef 5a bd 0e 77 87 3b f3 b4 bf bd
       0.05313802 -0.053451136 0.0041340655 -0.09360685
0001e0 fd 18 41 3c 98 cb f7 3c 95 af d6 bb 9c c6 24 bd
       0.011785743 0.030248448 -0.0065516927 -0.04022847
0001f0 4a 5f 07 3d da af af bc 0e 43 c6 bd 04 8b 09 bc
       0.03304986 -0.021446157 -0.096807584 -0.00839496
000200 90 b4 82 bd 6c b9 c4 bd 60 fe b6 bd a2 9d 0c 3d
       -0.06382096 -0.09605679 -0.08935237 0.034330018
000210 c4 ef a8 3c f9 92 a2 bd 3e 4c 09 bd 33 b8 40 bd
       0.020622142 -0.07938189 -0.033519976 -0.047050666
000220 b4 f3 7c bd 99 e2 c9 3c 72 fb 96 bc 2a 18 3b 3c
       -0.06175585 0.024644183 -0.018430445 0.011419335
000230 a6 c1 d0 3b d7 89 a0 bc 9e e8 67 bc d0 30 04 3d
       0.006370741 -0.019596977 -0.014154581 0.032273114
000240 21 96 19 bd 35 e5 5c bd e5 eb 8b bd 4f 5f 0a bd
       -0.03749669 -0.053929526 -0.06832103 -0.0337823
000250 c0 2e b1 bd e7 a7 4e bb fa 5c 41 bd 22 35 83 bd
       -0.08651495 -0.0031533183 -0.04720781 -0.06406619
000260 6b 9a 0e 3c 52 a9 aa bd 09 89 40 bb 22 1f 7f 3c
       0.008703808 -0.083330765 -0.0029378554 0.0155713875
000270 d8 4a 42 3d ac 49 04 bd 42 56 8f bd fb 8a da bc
       0.047434658 -0.03229682 -0.06998874 -0.0266776
000280 34 d9 de bb 28 50 6d bd ac 5a ab bc 95 c2 d2 bd
       -0.006800795 -0.05793777 -0.02091726 -0.1029102
000290 30 18 45 3d 1c f4 8c bd 29 5d ac bc fc 5b 8f bc
       0.04811877 -0.06882498 -0.021040516 -0.017499916
0002a0 5f 43 e2 3b ad dd 14 3d d4 ef 69 bd 77 40 f7 3c
       0.006905004 0.03634422 -0.057113484 0.030182106
0002b0 fa 29 42 bd ae 85 2c bc 9e ec 9d bd 4a 46 88 bd
       -0.047403313 -0.010529919 -0.07711147 -0.066540316
0002c0 bb 3c 81 bd 1b d7 3f 3b 80 6c 68 bd a1 8e 56 3d
       -0.063104115 0.00292725 -0.0567441 0.052382115
0002d0 81 20 ad 3c e6 48 af bc d5 13 76 bd be 3e 48 bd
       0.021133663 -0.021397065 -0.060077507 -0.04888796
0002e0 1d b2 0a bc 87 22 cd bc 1d a8 aa bb 38 f6 14 3d
       -0.008465317 -0.025040878 -0.005208029 0.036367625
0002f0 ba 29 9b 3c 6d f1 97 3c 14 7e 83 3d dd 0e 58 bd
       0.018940795 0.018547738 0.06420532 -0.05274855
000300 a4 b7 a0 3c 9e b9 e1 3b 4f 04 3d bd 69 6e 57 bd
       0.019618817 0.0068885824 -0.046146687 -0.05259553
000310 1a cd 74 3d 8a 97 9d bd 38 04 93 bd 38 a0 84 bd
       0.059765913 -0.076949194 -0.07178539 -0.06475872
000320 88 b4 a4 3c 73 9f cf bd 89 b6 07 3d d0 5b 3e 3d
       0.020105615 -0.101378344 0.033133063 0.046474278
000330 4c 70 be bc 18 0e 0a bd e2 30 5b 3d b1 70 bb bc
       -0.023246907 -0.033704847 0.053513415 -0.022880884
000340 53 a4 82 bd eb c4 bc bc 51 3b c8 bc d8 d8 06 3d
       -0.063789986 -0.023043117 -0.024442347 0.032921642
000350 c2 d1 89 bb 5c b0 17 3d bf fa 5c bd 64 7e 94 bd
       -0.0042059133 0.037033424 -0.053950068 -0.072506696
000360 34 01 fd bb b7 d4 20 bd 9c 24 30 bd 3d b6 30 bd
       -0.0077210907 -0.03926536 -0.043003663 -0.043142546
000370 20 c0 5c bd 8c c7 8d bd 2b 15 f1 3c d9 49 8c 3d
       -0.053894162 -0.06922826 0.029429039 0.06850023
000380 4f 25 36 bd 25 bd 92 bc e9 a9 4c 3d ca 76 9e 3c
       -0.044469174 -0.017912457 0.049966726 0.019343752
000390 2b 90 f4 bc 5d c9 2a 3d 66 3f 96 bd 53 ba ae bd
       -0.0298539 0.04169594 -0.07336311 -0.08531632
0003a0 97 9a 20 bd 56 48 4e bd f9 d5 b9 bb 7b bd 12 bd
       -0.03920993 -0.050361954 -0.0056712595 -0.035825234
0003b0 bb 94 98 bd 70 1b c3 bd 0c 57 e0 bc b2 f2 ee 3c
       -0.07450243 -0.09526718 -0.027385257 0.02916846
0003c0 55 56 d0 bd 77 2e f9 3c c3 2b cf bc 41 08 f5 3a
       -0.101727165 0.030417664 -0.025289422 0.0018694476
0003d0 7c 28 7b bd 69 b3 0c bc b9 08 1f bd 71 14 19 3c
       -0.061317906 -0.008587697 -0.038826678 0.0093432525
0003e0 16 4c 33 bd 50 2e 22 3d 4b 6c 4c bd 27 e2 ed 3c
       -0.043773733 0.03959495 -0.049907964 0.029038502
0003f0 06 2d d1 bd 44 60 f8 bd 1f 0f ed bc b8 6d fe bc
       -0.10213666 -0.12127736 -0.028937874 -0.031058177

fc3.bias f4 [100]
000000 f4 41 d5 bd 36 e6 7e bd 87 6e 18 be 41 54 ba 3d
       -0.1041297 -0.062231265 -0.14885913 0.090981014
000010 cd ff 3c 3d ec 2b f2 3d 84 7f 5f 3d 95 2b c8 3d
       0.046142388 0.11824784 0.054564968 0.097739376
000020 ff ec a7 bd b1 4e 0f bd c9 c7 3d be 90 77 cf bd
       -0.081995 -0.034987155 -0.18533243 -0.101302266
000030 4d bb af bd 86 4e e2 bd 35 6c d7 bd 89 3e ad bd
       -0.08580647 -0.110501334 -0.10518686 -0.08459193
000040 72 b6 99 bc 27 a3 44 3d 09 5f 87 3d d0 63 c9 3d
       -0.018763755 0.048007157 0.066099234 0.09833491
000050 ef 4f 81 bd 44 f0 da 3d 33 75 91 3d 0a f4 2e 3e
       -0.06314074 0.10690358 0.07102432 0.17085281
000060 08 d9 07 3b 25 70 ab 3c ed 0e b0 bb b5 b4 bf bd
       0.0020728726 0.020927498 -0.005372873 -0.09360639
000070 d4 df 4b be f9 fc 8c bb 86 4b b2 bd fd fb b8 bd
       -0.19909602 -0.0043026176 -0.08705811 -0.09032438
000080 66 d4 ba bc 16 f6 b8 bd 59 a1 be 3d 76 01 c8 3d
       -0.022806358 -0.09031312 0.093081184 0.09765904
000090 ea 37 b5 3d d8 75 36 be 99 fd bc bd 16 8a 1b bd
       0.088485554 -0.17818391 -0.092280574 -0.037973486
0000a0 04 2b ac 3d 35 a3 67 3d bc ba 6f 3c e7 b4 1e 3c
       0.08406642 0.05655213 0.014631923 0.009686685
0000b0 ab 4d ef 3d 12 f9 23 3d cf 06 0d 3e a9 c5 11 3e
       0.11684736 0.040032454 0.13772129 0.14235558
0000c0 ea 1a 2a bd 9c cf ad bd 47 8b 5a 3d 1e 65 e8 3d
       -0.041529574 -0.08486864 0.05335548 0.113474116
0000d0 43 77 68 3e 68 ff 9c 3d cf 24 a0 ba fc d3 3b 3d
       0.22701745 0.076659024 -0.0012218001 0.04585646
0000e0 fb 66 97 bb 0c 79 29 3e 32 be 89 3d f5 80 bf 3a
       -0.0046204305 0.16550082 0.0672573 0.0014610576
0000f0 66 16 91 3d e8 a8 93 3d d9 a4 dd 3d 9c 92 22 3e
       0.0708435 0.07209951 0.10822458 0.1587624
000100 d8 d0 b0 3d 19 a2 59 3d c4 77 20 3e f9 fc bc bb
       0.08633584 0.053133104 0.15670687 -0.0057674614
000110 20 50 79 bd f6 d6 27 3d 23 c1 03 3e f6 7e 14 3e
       -0.06086743 0.040976487 0.12866645 0.14501557
000120 33 7f 57 3c a1 df c0 3d 2c c6 7a be c8 d5 9e bd
       0.013152885 0.09417654 -0.24489659 -0.07755619
000130 a3 4f 1e 3e 10 cb 21 3e 96 95 80 bc c8 5b 7c 3c
       0.15460066 0.15800118 -0.015696328 0.015402742
000140 33 c7 da bc 84 8f b5 3d ec fa 93 3d 7e b5 a0 bc
       -0.026706314 0.08865264 0.07225594 -0.019617792
000150 9d dc 88 bc 47 39 0a 3e 13 ae a6 3c 19 3c a0 3d
       -0.01670676 0.13498412 0.020346677 0.07823963
000160 94 d5 09 3c 62 b8 90 3d 93 43 26 3e 42 72 95 bd
       0.008412737 0.07066418 0.16236715 -0.072971836
000170 ab 40 6b 3d 3c 8d e7 bd 6a 91 01 3e 07 4b 9e bc
       0.05743472 -0.11306235 0.12653127 -0.019322885
000180 86 ac 20 3c 55 8b af bc b2 29 a9 bd a5 8b a8 3d
       0.009806758 -0.021428743 -0.08259906 0.0822976

fc4.weight f4 [2, 100]
000000 75 87 a1 bd 05 0b ee 3c 98 32 22 bf ff b8 24 3b
       -0.078871645 0.029057989 -0.6335845 0.002513468
000010 4a 10 d3 be 4d 03 71 3d dc c8 13 3e 21 3c 9f 3d
       -0.41223365 0.05884104 0.1443209 0.077751406
000020 f0 7d d5 be a3 d0 ad bd 1c 9c 52 3f c8 f5 af be
       -0.41697645 -0.0848706 0.82269454 -0.34367204
000030 44 d4 5b bd ca 32 04 bf 2e ef 34 bd ee af 93 be
       -0.05366923 -0.5164 -0.044173412 -0.2884516
000040 c0 6b 38 bf ee b6 36 3d 43 c9 9b 3e 59 b3 3f bd
       -0.72039413 0.04460805 0.30426988 -0.0468019
000050 06 5a 2d bd 09 92 9e 3d 33 bd 99 be 6a 8b e9 3d
       -0.04232218 0.07742698 -0.3002716 0.11403544
000060 80 cd 04 be 40 83 cb 3d 7b 5a 50 3c 9a b8 61 bf
       -0.12969017 0.09937143 0.012716885 -0.88172305
000070 76 bf 03 bf 2a e1 af be 07 ec 66 3d ff 2c 96 3c
       -0.5146402 -0.34351474 0.056377437 0.018332003
000080 8f 82 5a 3e ca 4c 6d bd 86 8f a2 3d 5f 8a df be
       0.21338867 -0.05793456 0.07937531 -0.43660256
000090 a6 08 a4 3e 57 52 64 3f 93 ae d9 bd 0e 90 52 bf
       0.32037848 0.8918814 -0.106290005 -0.8225106
0000a0 2b d9 6e 3d 6f 1a 24 bb 54 17 e5 3d 6a fd 82 be
       0.058312576 -0.002504017 0.1118609 -0.25583965
0000b0 91 61 80 3d 6a 4d 40 be 90 ca 8b 3e 05 9f a2 3d
       0.06268609 -0.18779531 0.2730298 0.07940487
0000c0 ac 7b 9d 3d 47 cf a4 bd 82 e9 33 3e 73 93 1a bf
       0.07689604 -0.080473475 0.17569545 -0.6038124
0000d0 2d 86 86 3e 7b b8 2b 3d 2a 76 ff bc d1 da 1a bf
       0.26274243 0.04192398 -0.031184275 -0.6049014
0000e0 c9 24 60 3e 85 32 d8 be bc 3d cd be ac 67 7f bc
       0.21889032 -0.42226043 -0.40086162 -0.015588682
0000f0 a2 ca b7 3c a1 e0 04 3d 9e 74 50 be d6 10 b5 3d
       0.02243549 0.032440785 -0.20356986 0.08841102
000100 04 47 56 3e c2 48 a7 3d 86 4f 6d 3d 82 da 86 bc
       0.20925528 0.08168174 0.057937168 -0.016461615
000110 f8 67 17 bf f9 01 90 3d 1c 66 48 bb 1d 20 60 3d
       -0.5914302 0.07031626 -0.003057844 0.054718126
000120 19 62 f9 bd b4 b8 ed 3d 15 b2 fb be 30 60 40 bf
       -0.12176914 0.11607495 -0.49159303 -0.7514677
000130 4e 4f c6 3d be c9 d1 be 95 2f 65 3d 61 d3 94 be
       0.09683095 -0.4097423 0.05595358 -0.2906752
000140 b0 60 e3 bd 47 7e 5f 3e c7 7c 09 bc 28 5c 83 be
       -0.11102426 0.21825515 -0.008391566 -0.25656247
000150 94 96 35 bf a7 59 28 bf 00 76 78 3d bf c4 06 3e
       -0.7093289 -0.657618 0.06065941 0.1316099
000160 3d 84 84 3d 28 9a fe bd 72 85 ee be ab 83 52 3c
       0.06470535 -0.12431747 -0.46586186 0.012848775
000170 10 68 6a 3d 1c a4 22 bd 8a 36 b6 3c b4 9a 3f bd
       0.057228148 -0.03970729 0.022242803 -0.046778396
000180 e7 20 f9 be 74 26 d8 be 37 ee 36 3f c1 ef 81 bd
       -0.48657915 -0.42216837 0.71457237 -0.063445576
000190 5d 24 2f bd 99 15 07 3d ec 95 3b 3f 52 0a 8a bd
       -0.042759288 0.03297958 0.7327564 -0.0674025
0001a0 73 57 94 3e 7e f3 e4 3b db 19 3e bd 28 f1 44 bd
       0.28972968 0.0069870343 -0.046411376 -0.048081547
0001b0 93 d5 be 3e 58 b8 f8 3d 16 a0 50 bf 43 09 66 3e
       0.3727232 0.12144536 -0.8149427 0.2246447
0001c0 ae 7c 17 bd a6 85 f6 3e af 84 12 bd dc a3 80 3e
       -0.03698414 0.4814884 -0.03577107 0.25125015
0001d0 a3 bc 11 3f bf 21 57 3c 0f d1 76 be 10 c2 91 bd
       0.5692846 0.013130604 -0.24103187 -0.071170926
0001e0 99 8d 1a 3d 60 8f d3 3a 68 25 88 3e ef e6 8a bd
       0.037732694 0.0016140752 0.2659104 -0.06782328
0001f0 97 ca a4 3d f2 9d 68 bd fd 74 4c bb bc 1f 62 3f
       0.080464534 -0.056791253 -0.003119766 0.8832967
000200 30 23 04 3f 15 31 68 3e db 14 e0 3c 0c 89 7d 3d
       0.5161619 0.22674973 0.027353695 0.061898276
000210 30 33 51 be c3 97 88 bd 41 f5 87 bd 87 d6 18 3f
       -0.20429683 -0.06669571 -0.06638575 0.5970234
000220 55 17 bc be 71 45 43 bf 69 0a 26 3e 8b 60 56 3f
       -0.3673655 -0.76277834 0.16214909 0.8374106
000230 6c 5a 93 3c 9e 44 af bc fa a6 df bd 80 16 74 3e
       0.017987452 -0.021395024 -0.1092052 0.23836708
000240 e1 12 59 3d 57 05 9f 3e 9f 6f af be 2f 82 00 bd
       0.05299652 0.3105876 -0.34264848 -0.031374153
000250 22 3c 8e 3d 24 2f af bc 69 0d 4d be b9 6f 2b 3f
       0.06945063 -0.021384783 -0.20024647 0.6696735
000260 11 1d 85 be ed 6d 0e be 3e c1 af bd c9 c7 2d 3f
       -0.25998738 -0.13909121 -0.0858178 0.6788297
000270 d1 15 90 be 13 b9 d6 3e c9 88 e7 3e 25 4b 4b bc
       -0.28141645 0.41938075 0.45221546 -0.012408053
000280 57 8e a0 bd cb b6 93 bd 5e b7 7f 3e 2c d6 c9 bc
       -0.07839649 -0.07212599 0.24972293 -0.024638258
000290 ce 56 89 be 66 84 65 3d 24 c8 35 bd e6 6f ab bc
       -0.2682404 0.056034468 -0.044380322 -0.02092738
0002a0 30 a6 12 3f ba d9 4f 3d cf 8f a8 bd 28 f7 4c 3c
       0.5728483 0.05074475 -0.08230554 0.0125100985
0002b0 fc 35 ad 3d 2c d3 23 be 6a 83 19 3f 97 7e 4a 3f
       0.08457562 -0.15998524 0.59966147 0.7909941
0002c0 d8 55 aa 3c e5 82 ca 3e bd 00 09 ba c0 16 90 3e
       0.020792887 0.3955299 -0.0005226245 0.28142357
0002d0 80 0a 76 3e 2f 87 db bd 77 06 74 bd c6 4d 4d 3e
       0.24027443 -0.107191436 -0.059576478 0.200492
0002e0 14 99 4d 3f 75 c3 44 3f de d1 08 bc c9 e8 44 be
       0.80311704 0.76860744 -0.0083508175 -0.19229425
0002f0 61 ae ae bd 29 fb 57 3e 6d 82 bd 3e 07 6e 65 3c
       -0.08529354 0.21091904 0.3701357 0.014003283
000300 aa 36 04 be e5 9b a2 bc c2 93 e7 3b 4c e8 6e bd
       -0.12911478 -0.019849727 0.0070671747 -0.058327004
000310 f3 79 fd 3e eb df f7 3e 89 f5 27 bf 2c d4 a2 bd
       0.49507102 0.48413023 -0.6560903 -0.07950625

fc4.bias f4 [2]
000000 ed 2f 30 3e 29 7b b4 bd
       0.17205782 -0.088125534
