onnx_models/updated_fdia_model_ffnn_pytorch_50_100_50.onnx (onnx, 67728 bytes, 8 tensors)

fc1.weight f4 [50, 128]
00000000: f0b2 06be 254f 1f3e a188 323f dd89 27be
00000010: 87fd 0ebd 1989 293d f40c 4abd 1f14 a0be
00000020: ece5 283e b77d 68bd e9ba 883d 9e07 a13d
00000030: 8949 0dbd 3ed7 1ebf 504b 26bd c859 90bd
00000040: f65d ab3d cbb9 aabc 1cb4 61be e9e5 c0bd
00000050: 6100 dfbd 2823 1abe 85bd 2cbd 8eef 19be
00000060: be87 933d ea5f e93c 547d 143c 0392 2fbd
00000070: dda9 4ebd d5b3 40bd e075 cebe 38ec 393e
00000080: 902c efbd 8228 51be 0bf8 353e 9eea edbc
00000090: 300e 61bd c122 31be 3cf9 80bd a7b0 3a3d
000000a0: 28da 09be c4f8 9b3d 9e02 11be ff26 2cbe
000000b0: 5558 04bb e0da 7bbd 101b b4bd 91a4 30bd
000000c0: 750a b6bd d4d7 fbbd 5234 81bd fbb7 18be
000000d0: dbc1 81bd 9e55 a2bd addd 083d 2c53 5d3e
000000e0: 3cc2 353c 894d 80bd 1a29 363d 15df b2bd
000000f0: 4997 ad3d 1aab febd 3a1f 7fbe 40ed e93d
00000100: d9d8 cebc d8a5 253c ec28 88be 3985 303d
00000110: 2f95 de3c 7b7e e3bd f1f6 433d 198d 6f3e
00000120: 66fd 13be d549 a6bc 86ad 7e3d 65e5 acbd
00000130: 4738 04be c5a5 a1bc 6f1c c2bd 4b2b 79be
00000140: 2ec9 0abe d64b 37bd 1ee7 a83d cfcb 0c3d
00000150: d176 723e cd2a 98bc 8cf9 97bd 9460 163c
00000160: 421f f93d 3b59 a03e 91e0 02be ebd6 d6bb
00000170: ce50 463e a734 b93c a33e 5abe f838 2b3e
00000180: 126a e1bd 03d5 d53c 8a13 8f3c 2570 533d
00000190: ef88 4dbf 185d c9bc 6e44 e43d d480 983d
000001a0: 7303 b63d b23a ce3e 92cf 303d f9ad d0bd
000001b0: e4e0 45be 8765 9c3d 748a 103e 0969 b43c
000001c0: c1ea 373d 6fd4 ed3d d92d 0f3d 39b1 8bbd
000001d0: 7fbc 433c 61c6 f0bc 0bb5 babc 64f2 8dbd
000001e0: 4997 363a 7cb6 72bd a413 4bbb 9958 7dbd
000001f0: 5173 d0bc 3148 f43c 79d6 8f3c 944d 44bd
00000200: 1529 a83d f27f 3abe f38b 3cbe c73f 4b3d
00000210: 83e1 663d 5b2c 31bd 553c d43d 7323 a73c
00000220: 587a c93c 4599 883d 5309 163d 2269 c83d
00000230: ed96 eebc 171d 8bbe b2d1 dabd b8d1 a7bd
00000240: e173 a0bd 9696 e1ba df7e a2be 9104 68be
00000250: 0aa0 28be ed05 35be 5ed7 3cbe dfa5 85bd
00000260: 33af dabc 21f3 52bb 5e82 09bd 85b7 c3bd
00000270: 9359 003d bd0f 293e bf83 2bbe 1268 c33e
00000280: ae3f 213d 0960 be3d aac1 6c3e 1e32 35be
00000290: ae9a 003d dc91 12be f269 453d 2915 0ebe
000002a0: 1c05 30bd 198d b73d 7f49 2a3e 631b ffbd
000002b0: a828 bf3c e19d 8cbb eed5 e5bd 423e 73bd
000002c0: c5ee a6bd 21d8 5bbd cc50 00be b639 45be
000002d0: 4cd9 5bbc 34c5 d83d 7884 6e3c 51b7 b83d
000002e0: a296 ce3c 2014 8bbd 8120 bfbd f746 9dbd
000002f0: 0407 a83d bfa8 383e d2bd 513e da7f b63d
00000300: ee01 30be 4c08 423e 2f00 0dbe baef 313e
00000310: 20a6 0dbe 91c7 063e 2a4d 523d 249a 573e
00000320: 9434 45be 5e4d 4cbd fe14 823d 6c20 9cbd
00000330: 4033 d5bd 11a6 643b 2814 e33c 52fe a7bd
00000340: 3af9 11be f4ca 46bd ac51 8b3d ba28 2bbd
00000350: 2dab a4bd f22c 62bd 29b2 243c ee3f 693c
00000360: c9ed 08bd 2e98 4ebe a76f e73d 9540 333e
00000370: 99b2 c3bc 29aa b73d 6bd7 9f3d f174 173d
00000380: dc75 063d 156a 923e 8508 ca3c dc0c ac3c
00000390: 766e 46be bb0f a5bd f061 4cbc 6cea 1d3b
000003a0: 66e8 3d3d 1c90 343e d5d2 3bbd 1e8e 8a3c
000003b0: 0c6f c1bc 63ec 09be cc7b ab3b d852 093d
000003c0: ae7e 42bd e92a c7bd fad5 fb3c cd4b bb3c
000003d0: 42b1 c83d 16fb 4fbd c0d7 76bb b06d 48bd
000003e0: 2ab1 ed3b eada aa3d be13 983d 0d10 e43c
000003f0: 8ae8 423c f861 6b3c 4a64 823d 3ea7 2b3d
-0.13154197 0.15557535 0.6973973 -0.16361184 -0.03490975 0.041390512 -0.04932876 -0.3126535
0.16493958 -0.056760516 0.06676275 0.07862781 -0.034493957 -0.62047184 -0.040599167 -0.070483744
0.08367531 -0.020840546 -0.22041363 -0.09418852 -0.10888744 -0.15052474 -0.042172927 -0.15032789
0.07203625 0.028488118 0.009063084 -0.042863857 -0.050454963 -0.0470465 -0.40324306 0.18156517
-0.116784215 -0.20425609 0.17770402 -0.029042538 -0.05494517 -0.17298414 -0.06297538 0.045578625
-0.13462126 0.07615808 -0.14161155 -0.16811751 -0.0020194252 -0.061488032 -0.08794224 -0.043125693
-0.08888713 -0.12297025 -0.063088074 -0.14913933 -0.06335803 -0.079264864 0.03341453 0.21613759
0.011093672 -0.06264789 0.04447279 -0.08733956 0.08476121 -0.12434979 -0.24914256 0.11422205
-0.025249885 0.010110341 -0.2659372 0.0430958 0.027170746 -0.111081086 0.047842924 0.23393668
-0.14452133 -0.020298878 0.062177204 -0.08442191 -0.12912093 -0.019732365 -0.094780795 -0.24332921
-0.13553306 -0.044750057 0.08247207 0.034374055 0.23678137 -0.018575097 -0.07420644 0.009178299
0.12164165 0.31318077 -0.12780978 -0.006556382 0.19366762 0.022608114 -0.21312957 0.1672095
-0.110065594 0.026102548 0.017465372 0.05162062 -0.8028707 -0.024580523 0.111458644 0.07446447
0.08887377 0.40279156 0.043166704 -0.10189433 -0.1932407 0.07636552 0.14115316 0.02202274
0.044901613 0.11612784 0.034955833 -0.06820912 0.011946796 -0.02939147 -0.022791406 -0.06930998
0.0006965292 -0.059256062 -0.0030987049 -0.06185207 -0.025445612 0.02981958 0.017558323 -0.047925547
0.08210961 -0.1821287 -0.18412761 0.04962137 0.05636741 -0.04325519 0.1036307 0.020402646
0.02459447 0.06669859 0.036629986 0.097856775 -0.029124701 -0.2717063 -0.106845275 -0.081942976
-0.07834602 -0.0017211016 -0.3173742 -0.22657992 -0.164673 -0.17678042 -0.18441531 -0.06525778
-0.02669487 -0.0032188373 -0.033571593 -0.09556488 0.031335425 0.1650991 -0.16749476 0.38165337
0.03936737 0.09295661 0.23120752 -0.176949 0.031397514 -0.14313453 0.04819674 -0.1387526
-0.042973623 0.08962459 0.16629599 -0.124563955 0.023334816 -0.0042912816 -0.112224445 -0.059385546
-0.081510104 -0.053672913 -0.12530822 -0.19260296 -0.013418507 0.105844885 0.01455795 0.0901934
0.025218312 -0.06790948 -0.093323715 -0.07679551 0.08204463 0.18033122 0.20482567 0.089111045
-0.17188236 0.18948478 -0.13769601 0.17376605 -0.13832903 0.13162066 0.05134312 0.21054894
-0.19258338 -0.04987847 0.0635166 -0.076233715 -0.10410166 0.0034889022 0.027719572 -0.082028046
-0.14255229 -0.048533395 0.06802687 -0.041786887 -0.08040462 -0.055218644 0.010052242 0.014236433
-0.033429895 -0.2017524 0.11300593 0.17505105 -0.023888873 0.08968002 0.078047596 0.03697676
0.032827243 0.2859656 0.024662266 0.021002226 -0.19378075 -0.08059641 -0.012474522 0.0024096025
0.04636421 0.17633098 -0.045855362 0.01691347 -0.023612522 -0.1346908 0.0052332636 0.03352627
-0.047484092 -0.09724981 0.03074168 0.022863293 0.09799434 -0.050776564 -0.0037665218 -0.04893273
0.0072537856 0.08342536 0.074256405 0.027839685 0.011896262 0.014366619 0.06366785 0.04190754

fc1.bias f4 [50]
00000000: ec45 e0bc 9628 6dbc a3df 60bb a654 f03c
00000010: a393 363d 79fd 52bd 5af2 d03c 93eb acbd
00000020: 7ffc a73d 8582 743d 31c8 38bd bf38 a9bd
00000030: 8ea2 88bd 9601 c9bd 1182 15bc 36f3 e33c
00000040: 909b 87bd 471b 4a3d 29c8 b8bd 2284 a73c
00000050: 9b94 1dbd 250a de3d 3b38 d2bc e004 1a3d
00000060: 2092 073b 861b b3bd 6607 81bb 4286 01bd
00000070: c319 033d dfed 4dbd f199 aa3d 35dc 2c3d
00000080: f99b 1c3d 9ced 7cbd cab8 86bc d0fd 9e3c
00000090: efd1 d3bc a936 c9bd 18bd 843d 30a1 b1bd
000000a0: 23ca 9bbd 9651 003d 8d95 ae3c 3d99 b3bc
000000b0: ef76 923d 30d4 acbd d617 babc e11e b83d
000000c0: 01f0 83bd 9abc dabd
-0.027377091 -0.0144750085 -0.0034312985 0.029337239 0.04457439 -0.05151126 0.025506187 -0.0844337
0.08202457 0.059694786 -0.045112792 -0.082627766 -0.0667163 -0.098147556 -0.0091252485 0.027825933
-0.06621468 0.04934242 -0.090225525 0.020448748 -0.0384718 0.10841779 -0.025661578 0.037602305
0.0020686463 -0.08745484 -0.0039376495 -0.03162218 0.03200699 -0.05027568 0.08330143 0.042202193
0.038234685 -0.06175004 -0.016445536 0.019408137 -0.02585694 -0.09824879 0.06481379 -0.08673322
-0.07606914 0.031327806 0.021311546 -0.021923656 0.07151591 -0.08438909 -0.022716444 0.08990265
-0.064422615 -0.10680504

fc2.weight f4 [100, 50]
00000000: 64c7 893d 7e17 f2bd 1b93 d1bd da16 1d3e
00000010: c3d0 27be 526a d3bd fedc 28be dbbf 03bd
00000020: 3733 d83c c50f 1e3e e860 423d bda3 dabb
00000030: 5307 3e3d 8f06 a83e 93b7 a2bc e21c a1bd
00000040: a6e7 4b3e a78e 65bd 9558 ae3d 3efc d23d
00000050: 1026 92bd 6f36 9abd 74e9 0cbe e021 e0bd
00000060: 0856 a63d 1e12 13be 5425 11bd 2aec 043e
00000070: 666c 79be 6059 21bc eb25 16be da80 bdbd
00000080: 51fc 153d 58b3 ab3b 4030 9f3c 9805 063e
00000090: 2ff5 273b 01f8 01bd 85e5 ee3d ad1e 2e3d
000000a0: 58da 43be 1125 59bd 9b77 ab3b 2ff1 233d
000000b0: 4495 15be 6fe1 ddbd 1dcd 1b3d c9fb 78bd
000000c0: 3929 67bc 3999 32be 0522 813d 287c b4bb
000000d0: 5a3c 6ebd f181 b33e 2a71 f63d 2be3 13be
000000e0: 3d08 413e c04d dbbd 0a19 bfbd 22ad 06be
000000f0: b730 e43d aea3 2d3e 7680 0f3e f550 debd
00000100: c59d 8ebd fcb9 6dbe d7f2 113e dbbf a5be
00000110: 1f98 b33d 7f0a 11be b3fd 963b 5684 433e
00000120: dc52 353e d710 283e e2a8 02be b8db 39bd
00000130: 2dbf 0c3e 8053 72bc 0bb4 393e 8949 993e
00000140: e128 d9bd 5737 56bc 347d 96bd d483 adbd
00000150: 33ba 0cbe 6ee3 a53d 747d 0d3e 72e7 c7bc
00000160: c5d7 99bc a935 cd3a f043 253e 0a98 d33c
00000170: 10bc 8ebc 4b53 61be 87d4 363e 68d8 a63d
00000180: b857 cdbd 8c2f cdbd 082c 6a3d c2ba 6c3e
00000190: 8e33 543e ebef 943d 78d3 7a3d d2c3 f33e
000001a0: f116 d43c 7cd1 bf3d 484f fc3d af58 eebd
000001b0: c768 16be c7ef 2bbe f1a9 093e 18de 9c3d
000001c0: ff42 1c3e c0b6 efbc cda9 3a3d f14f 44bd
000001d0: c1b2 1a3e fdd5 f83d bb86 06be 98f5 babe
000001e0: e84e cb3b d552 8b3e 9110 af3e 8000 fc3d
000001f0: e8c3 51be 9b5f 6abd 4197 893d f824 afbe
00000200: fe04 77bd 9112 1b3e 076c b8bd 75a6 e73b
00000210: f6cc b33d 0178 493d e7e8 6c3d 6ed9 0b3c
00000220: 9193 fcbc 1d17 8fbd f202 07be 16d0 133d
00000230: df76 6a3e 5144 2cbc d727 e5bd 0b74 113d
00000240: 6adf 353e 49e1 143d 64db 723d e3da 803d
00000250: fc13 df3c 4a77 963a 762b 75bc 2000 423e
00000260: a0f7 7d3d ec2d 813e 0ac8 31bc 8a2e 6e3b
00000270: eb51 013e 9fb0 7fbb 5d67 e73d 5f89 92be
00000280: c454 8f3e cc50 653e 69de 3e3d 15d8 16be
00000290: b735 903c ddfb 64be b80e cd3c 9814 98be
000002a0: 4dc0 c1bd 1678 89be 01eb 5dbc 5f24 093e
000002b0: 6f8b 39be 2366 d33d a234 73be ea2f 393e
000002c0: 9dc2 ef3d f60d d2be 1af2 fa3d f4c3 b63c
000002d0: 399f cbbd e979 0f3d ca1a fabd ba2e 1d3d
000002e0: 2ab2 16be 389e 893c 6a97 5a3d 8d66 9a3e
000002f0: 3595 9cbe 2bbd 883d af4e 883d 4513 b53c
00000300: d696 643c b651 1f3e 4545 cb3e d775 313e
00000310: 3d81 a83c c889 50be 37e0 2dbd 202b 203e
00000320: e294 d43c f235 4fbd 28a1 a6bc cc4a 873e
00000330: 52ef 3a3e ce1c a9bd 803a 903d 64f9 37bf
00000340: 84f8 86bd 95e9 a7be eded dcbf 14d5 e73d
00000350: 1f4c ea3d 59f2 39be 7b81 fa3d 9849 393d
00000360: 1c92 493e 4ee2 4d3e 900d b4bd 7c7a 73bd
00000370: 5ba8 e13d 5643 8e3c 6858 93bc 76d1 253e
00000380: 7559 d53d 91b3 9b3e 6cec 943e f406 9ebe
00000390: 022c e5bd 2067 39be 8a14 193e 6c35 f2bd
000003a0: 147c 0fbd 774b 513b 5856 413e c725 eabd
000003b0: a78e 10be eb06 ca3c 94c9 a03c 9cef 1b3d
000003c0: 8b9a a7bd 9025 013e 5291 1abd 5361 fb3d
000003d0: 73ba c1be fc39 173e 6035 803d 9d50 603d
000003e0: 6c77 93bd 341b cfbe f2d9 8a3d e111 cfbe
000003f0: ff62 16be 2c65 853e e67b 04bb a01e 17be
0.06727484 -0.11820887 -0.10233136 0.15340748 -0.1638823 -0.10323013 -0.16490552 -0.03216539
0.026391609 0.15435703 0.0474557 -0.006672351 0.046393704 0.32817504 -0.019862926 -0.07866837
0.19912586 -0.056044247 0.085129894 0.10302018 -0.07136166 -0.07529914 -0.1376093 -0.10943961
0.08121878 -0.1436238 -0.03543599 0.12980714 -0.24357757 -0.009847969 -0.14662902 -0.09253092
0.03661758 0.0052398853 0.019432187 0.13088071 0.0025628319 -0.031730656 0.11664871 0.042509723
-0.1912626 -0.053013865 0.005232764 0.040024932 -0.14607722 -0.10834014 0.03803741 -0.060786996
-0.014108949 -0.17441262 0.06305317 -0.0055079646 -0.058163024 0.35060075 0.12033303 -0.14442126
0.18850799 -0.10708189 -0.09330948 -0.13151982 0.11142104 0.1695697 0.14013848 -0.10855285
-0.06963686 -0.23215479 0.14252792 -0.32372937 0.08769249 -0.1416416 0.00460788 0.19093451
0.1770739 0.16412674 -0.12759736 -0.045375556 0.13744803 -0.014790416 0.18135087 0.29938915
-0.106035 -0.0130747175 -0.07348099 -0.0847241 -0.13742904 0.081000194 0.13817388 -0.024402354
-0.018779645 0.0015656251 0.16139197 0.025829334 -0.01742366 -0.2200443 0.1785451 0.08146745
-0.10026497 -0.100188345 0.057170898 0.23118117 0.20722792 0.07272323 0.06123683 0.47610337
0.025889846 0.09366128 0.12319809 -0.11638009 -0.14688407 -0.16790687 0.13443734 0.076595485
0.15259932 -0.029261947 0.04557209 -0.0479278 0.15107252 0.1215019 -0.13137333 -0.36515498
0.0062044747 0.27211633 0.34192327 0.12304783 -0.20484889 -0.057220083 0.067183025 -0.34207892
-0.060307495 0.15143801 -0.090049796 0.007069404 0.087793276 0.04918671 0.0578393 0.008535726
-0.030832084 -0.069868304 -0.13184717 0.036087118 0.22896908 -0.010514335 -0.111892395 0.035511058
0.17761007 0.03634766 0.05929126 0.06291749 0.027231209 0.0011479643 -0.014963975 0.1894536
0.06200373 0.25230348 -0.010850916 0.0036343657 0.12628905 -0.0039015186 0.11299012 -0.2862043
0.2799436 0.22394103 0.046598826 -0.14730866 0.017603738 -0.22361703 0.025031433 -0.29703212
-0.094605066 -0.2684943 -0.013544799 0.1339278 -0.18119596 0.103222154 -0.23750547 0.18084684
0.117070414 -0.41026276 0.122532085 0.022310235 -0.09942479 0.035028372 -0.12212141 0.03837464
-0.14716402 0.016799077 0.053367056 0.30156365 -0.30582586 0.06676706 0.06655633 0.022103915
0.013951978 0.15558514 0.39701286 0.17330109 0.020569438 -0.2036506 -0.042450156 0.15641451
0.0259499 -0.050588556 -0.020340517 0.26424253 0.18255356 -0.08257447 0.07042408 -0.71864915
-0.06590369 -0.32795396 -1.7260109 0.11319938 0.114403 -0.18158855 0.12231728 0.0452362
0.19684643 0.2010586 -0.08791649 -0.059442982 0.110184394 0.017366093 -0.017986491 0.16193184
0.10417453 0.30410436 0.29086626 -0.3086468 -0.111900344 -0.18105745 0.14949241 -0.11826596
-0.03503044 0.003193585 0.18880594 -0.11432987 -0.14116918 0.024661502 0.01962737 0.038070306
-0.081837736 0.12611985 -0.037736244 0.122744225 -0.37837562 0.14768213 0.062601805 0.05476438
-0.07200512 -0.40450442 0.06779851 -0.40443328 -0.14686202 0.2605375 -0.002021545 -0.14757776

fc2.bias f4 [100]
00000000: 3a73 a93d 4a10 ce3a fb43 44bc 3f31 f1bd
00000010: 0d09 253e 48e0 54be 09ef 69be 287c 02be
00000020: d791 1dbe 835b 243e ea5e 843d 7459 06be
00000030: 6359 dbbd f5db 26bb 2432 3b3d 0283 76bd
00000040: 1cce 3fbc 7fad 263e 26dc 27bd ea81 46bd
00000050: f253 093e cd5d a73d a9c6 8dbd e8de 0cbe
00000060: 3ee3 493e 6195 95be 0a68 573e 969f 253e
00000070: f427 2cbe 99b2 ce3d 106e f0bd 4b27 d4bd
00000080: b62b 86be 4f7d 86bd ef5e 073e 1319 453e
00000090: 3f4a c53d 8df5 a93d 0e2f fcbd 9f97 0d3e
000000a0: 948c 7ebd 9cd7 483d d030 d53d 4a1e 4d3e
000000b0: b589 63be dc3f 043d 097a 4bbe 4d19 71be
000000c0: 51d9 ef3d 599c 1e3e b9b5 08be 4d0e 363e
000000d0: 493f fdbd 7ffa 1abd 2feb b43d f393 f03d
000000e0: 59ea eb3c 52d9 5ebe 4d68 1a3d d11d 0cbe
000000f0: 6332 263e 10d4 65bd d355 a1be 3568 203e
00000100: 855c 1f3d 8ec1 59bd f06d 463c aa58 25be
00000110: 6a30 163e 8bf6 e63d 77ef 9e3d 8560 28be
00000120: f3c1 30bd 830c 30bd abaa 19bd 5e60 8bbd
00000130: f585 603e cef6 a8bd 04a0 c1bd be8a 603e
00000140: 224c 8a3c 0ecc 393e 013e aebd 8b58 28be
00000150: 5db7 3f3d 39ac 203e 98c4 053d e4ef 3dbe
00000160: d6ed 1b3d 90b7 903d 7426 c83d 50bb 0b3e
00000170: 4a02 b73d f454 27be ef46 bf3d 726b 24be
00000180: 4f11 8f3e 3a3a cd3d 90e1 d6bd 3f9c 393e
0.08273931 0.0015721407 -0.011979098 -0.11776971 0.16116734 -0.20788682 -0.22845091 -0.12742674
-0.15387665 0.16050534 0.06463416 -0.13120061 -0.107104085 -0.0025460694 0.045702115 -0.060183533
-0.011706855 0.16277121 -0.040981434 -0.04846374 0.13410929 0.08172188 -0.06922657 -0.13756907
0.19715592 -0.2921553 0.21035782 0.16174158 -0.16812116 0.100926585 -0.11739743 -0.10359057
-0.26205224 -0.065668695 0.13219808 0.19247846 0.09633302 0.08298788 -0.123136625 0.1382737
-0.062145784 0.049033746 0.10409701 0.20031086 -0.222205 0.032287464 -0.19870771 -0.23544808
0.11711372 0.1548933 -0.13350572 0.17778893 -0.12365586 -0.037836548 0.0883392 0.11746969
0.02879827 -0.21762589 0.037697125 -0.13683249 0.16230159 -0.05611044 -0.3151079 0.15664752
0.038906593 -0.053163104 0.012111172 -0.16147104 0.14666906 0.11277493 0.07760518 -0.1644307
-0.043153714 -0.042980682 -0.037516277 -0.0680549 0.219261 -0.08250199 -0.09454349 0.21927926
0.016882006 0.18144247 -0.0850792 -0.16440026 0.04680573 0.15690698 0.03265819 -0.18548542
0.038068615 0.07066262 0.09772959 0.13645673 0.089359835 -0.16341001 0.093397014 -0.16056612
0.27942893 0.100208715 -0.104922414 0.1812601

fc3.weight f4 [50, 100]
00000000: 3202 1dbb 05a2 ba3d 9d9e 0f3e 82cc 153e
00000010: de17 7e3e 6a6c 723f f5fe e7bd 287b 603d
00000020: 3b9c fa3c 4ccc 523d e78b bc3c 0544 243e
00000030: 8dee b73c 4b9a 7ebe 20e8 9ebe 7622 473f
00000040: 2f9a 0b3d e5f9 f53d 4a64 e23e 41a6 d53e
00000050: d50f 843e 97f0 25bc 0ddf 1e3f 4e90 8f3e
00000060: 5496 a53d 1b9e 413d f342 f43e 8b00 81be
00000070: ee3f c23e 3b5b ae3c 9f85 803d d883 ed3d
00000080: 6784 88bb d314 e53d 6f80 553b fc72 e93d
00000090: ed8d 4fbe 6949 d33e 157a 543d b982 a93d
000000a0: 5dcb 8a3e d689 133e 4838 16be ba36 c23d
000000b0: 5b9d e1be 4343 273f 83ec 23be 11bc ff3c
000000c0: 268c 8ebd f779 dabc 8ede 95bc 78fe 0bbf
000000d0: 96f1 c8bc 9c31 043e 7063 013e 280d db3d
000000e0: 66cd 233e aaf1 003d c160 afbd f2fe 8e3e
000000f0: d3f0 0b3c e856 6a3d c26b 5d3f f2ac 193e
00000100: f24b bdbe 9047 0fbc afbf 23bd fe01 78bd
00000110: b1e9 e63d 5a80 44bd daeb fc3e db39 9bbe
00000120: 3bcd 61bc 7b7b ab3c 59b7 1cbd c82f c93d
00000130: 9ea5 603e 1744 613e 0f6c f33c e0ff 3d3e
00000140: 0223 cc3c 142c a43c 9a35 983d 4209 473f
00000150: 14b2 58bc c81a 6b3e 1a63 843e 7e65 613e
00000160: 36c5 f43d a0c3 f13d 5fbd 0cbc a90d 8ebe
00000170: e7f9 5fbe 1dd4 703b ae05 173e 1744 183f
00000180: 7780 a43c 9836 693e 315c 42be 61e2 54bd
00000190: 439f 2fbd 7846 333d 4371 cc3c c710 a73d
000001a0: 9f1c 683e 8ec7 5e3f 4be3 873b fd1c e5bc
000001b0: bf7f aabd 555d a73d 4439 14bc 57d2 af3d
000001c0: f77d 96bd 5801 74be 83ad 83be af0a 533f
000001d0: 1ef6 533d 16e3 d93d d536 c33e 211a 573e
000001e0: 0122 803e ad8a 0abd f4c3 2b3f 1206 5e3b
000001f0: 0b9c 013e 48a0 0cbe 15e1 ca3e 9d05 39be
00000200: ed3f c53e 2662 ec3d 2266 86bd 466d cc3d
00000210: 9520 a5bd c797 7d3d 8e8a b03d 23b3 943e
00000220: 16d6 2bbe 2c28 c13e aa84 5c3e ddfc 813d
00000230: 3c81 283e 3b87 f33c 7b01 9ebe 0ab5 f83d
00000240: fc1b 02bf d032 433e c0f7 bebe 787d c5bd
00000250: 8321 99be f77a 593e 1aad 563c 1199 9ebe
00000260: 38c3 403c 3bd5 2fbe 95f9 173e 07b9 8d3e
00000270: 7166 613d 92a8 a1bc 030d 90bd 28ea ab3e
00000280: 38ff d8bd e8a4 d5bd 1538 0a3f a11c 7c3e
00000290: c78c a5be 5c70 35bd 4f09 66be 1890 8e3d
000002a0: d9ca b63d 54f8 313c b874 b43e d0e0 e1be
000002b0: 28c2 013e 6b7b 373d f951 013e 7003 be3d
000002c0: cace 3d3e 7e62 0c3e ee43 41bd effe ac3e
000002d0: a447 173e 3d99 0e3e 5128 b7bb 7307 163f
000002e0: 6104 b9bd f7db ae3d 995c a63e 29ff 823e
000002f0: 99e9 173e 92de 103e 91b1 8d3c 3634 83be
00000300: 630f 94be fcb5 59bd 89ce 383e 8d19 053f
00000310: c355 853d 37df c03d bfd8 9bbe 2d35 e33d
00000320: d584 93bd 5355 dd3d bff5 ee3d 4b32 2c3e
00000330: 5c47 a73e 0384 6c3f e783 f1bd b3cc be3c
00000340: 05f7 32bc 23d8 bc3d b22a f03d 2894 733e
00000350: 76e0 983c 5744 9fbe 28a7 c5be b1ea 4f3f
00000360: 39c4 b03d cc25 1e3d 1b96 ed3e 9ec6 033f
00000370: 07bc 6b3e 87f9 99bd 2d1b 393f 828d 343e
00000380: 0edb 243d 3cbd 6a3d 94d3 cb3e ec10 47be
00000390: de62 d23e ce50 87bc 300c bebd 90a7 59bd
000003a0: ca70 3ebc ec58 a23d 3631 c63d f9e0 333e
000003b0: f669 6dbd 46b7 8c3e 7535 b4bd 5c03 353d
000003c0: 2bca 8e3e 7460 8f3d 8aed 7fbe d96c e13d
000003d0: 70ad fcbe 44ed 113f 2099 e1bd 6afb be3d
000003e0: bd48 26be d863 78bd 98bf 903d 1c0e 00bf
000003f0: ed3d 083d fb27 d13d 0a2d c53d 47a1 253e
-0.0023957607 0.09112934 0.1402535 0.14628795 0.24813792 0.94696677 -0.11327926 0.05480495
0.030592075 0.051464364 0.02301593 0.16041572 0.022452617 -0.24863546 -0.31036472 0.7778696
0.034082588 0.12010554 0.4421714 0.41728404 0.2579333 -0.010128162 0.620591 0.28039783
0.080853134 0.04726992 0.47707328 -0.25195727 0.379394 0.021283736 0.06275486 0.11597413
-0.004166174 0.111856125 0.0032577773 0.11398885 -0.20268984 0.41266945 0.05187424 0.082768865
0.2710828 0.14408049 -0.14669907 0.094830945 -0.44065365 0.6533701 -0.16008191 0.031217607
-0.06960325 -0.026669485 -0.018294599 -0.54685163 -0.02452926 0.1290955 0.12635589 0.10695869
0.15996322 0.03148047 -0.08563376 0.27928883 0.008541304 0.057211787 0.8649255 0.1500738
-0.36972004 -0.008745089 -0.039977726 -0.060548775 0.11275042 -0.047973968 0.4939869 -0.30317578
-0.013781841 0.020932904 -0.03826079 0.09823567 0.21938178 0.2199863 0.029714612 0.1855464
0.024919037 0.02004055 0.07432099 0.777485 -0.013226051 0.22959435 0.25856858 0.22011372
0.119516775 0.11804891 -0.008590071 -0.27744797 -0.21872674 0.0036747523 0.1474826 0.59478897
0.020080788 0.22774732 -0.1898048 -0.051973704 -0.042876493 0.043768376 0.024956351 0.08157497
0.22667168 0.87023246 0.0041469685 -0.027967924 -0.08325147 0.081720985 -0.009046856 0.08585041
-0.07348245 -0.23828638 -0.25718316 0.82438177 0.051748388 0.10639016 0.3812777 0.21006061
0.25025943 -0.033823658 0.67095876 0.003387813 0.12657182 -0.13733017 0.3962485 -0.18068548
0.38525334 0.11542158 -0.06562449 0.0998178 -0.08062855 0.061912324 0.08620177 0.2904292
-0.16780886 0.3772596 0.21534982 0.06347058 0.16455549 0.029727569 -0.30860505 0.121439055
-0.5082395 0.19062352 -0.37298393 -0.09643072 -0.2990838 0.21238314 0.013102794 -0.30976155
0.011765294 -0.17171185 0.14841302 0.27680227 0.055029336 -0.0197337 -0.07033732 0.33577085
-0.10595554 -0.10431844 0.53991824 0.24620296 -0.32333967 -0.044296607 -0.22464488 0.069610775
0.08925409 0.010862429 0.352453 -0.4411683 0.12671721 0.044795435 0.12628926 0.092779994
0.18535915 0.13709447 -0.047183923 0.3378825 0.14773422 0.13925643 -0.005589523 0.58605117
-0.09034038 0.08538049 0.3249252 0.25585297 0.14835204 0.14147404 0.017296584 -0.2562577
-0.2891799 -0.05315207 0.18047537 0.5199211 0.065104984 0.09417575 -0.30438802 0.11094127
-0.0720307 0.1080729 0.11667966 0.1681606 0.3267163 0.92388934 -0.117927365 0.023290968
-0.010923152 0.09220912 0.117268935 0.23786986 0.018661719 -0.31106827 -0.38604093 0.81217486
0.086311765 0.038610265 0.46403584 0.5147494 0.23020945 -0.07518297 0.7230709 0.17632106
0.04024797 0.057309374 0.3980986 -0.19440049 0.41091055 -0.016518023 -0.09279668 -0.053138316
-0.011623571 0.07927117 0.09677355 0.17566289 -0.05796238 0.27483577 -0.087992586 0.044192657
0.27888617 0.07000819 -0.24992958 0.11007089 -0.49351072 0.57002664 -0.110155344 0.09325297
-0.16238685 -0.060642093 0.070677936 -0.5002153 0.033262182 0.10212704 0.09627731 0.16174804

fc3.bias f4 [50]
00000000: ea39 75bc 60ab 3b3e bb20 f23c b26b 223e
00000010: 36c7 9d3d 51d9 483c daf7 bb3c 1b71 cf3d
00000020: 3be8 8abd 5329 5ebc 90d8 353c fdd7 dbbd
00000030: c238 8b3d 00fa 033e 2d1a e7bd 772b babd
00000040: 6c77 b03d a4ce 963d 0231 f53c de18 6ebd
00000050: 2976 a8bc 59ce 62bd 1c60 423e 3c63 58bc
00000060: d932 d03c 463d d3bb 1517 1b3e 146c 57bd
00000070: e4a9 9a3d 5392 133c 8b27 8a3b 05a1 043e
00000080: c60d 9d3d 2aa9 c43d 7594 d7bd 3166 813e
00000090: cb55 633d d588 1f3e 2f91 79bc fb55 923d
000000a0: 52bd 403c c38a cebd 7077 e7bc 2fd6 1a3e
000000b0: d368 4a3d fc1b bbbc 2c31 cfbd 559d ed3d
000000c0: bccf 46bc e9fd 7dbd
-0.014967421 0.18327093 0.029556623 0.15861395 0.07704012 0.0122588435 0.022945333 0.10128995
-0.06782576 -0.013559657 0.011098996 -0.10734556 0.06797935 0.12888336 -0.112842895 -0.090903215
0.08616528 0.07363632 0.029930595 -0.058129184 -0.020564156 -0.05537257 0.18981975 -0.013207253
0.025414871 -0.0064465133 0.15145524 -0.052593306 0.07551935 0.009007054 0.0042161397 0.12952049
0.07668643 0.09602578 -0.10526363 0.25273278 0.05550174 0.15579541 -0.015232368 0.07145306
0.0117638875 -0.100850604 -0.028255194 0.15120767 0.049416374 -0.022840492 -0.10116801 0.11602274
-0.012134489 -0.062009726

fc4.weight f4 [2, 50]
00000000: 6369 de3e 64e9 cd3e 2166 fc3e 0af1 87bf
00000010: 16a1 3a3e 60c4 e83e 1766 db3e f4ff 65bf
00000020: 65a6 65bf a877 903e 0582 3bbf d1a8 09bd
00000030: 4b26 bb3e 34f9 85bf 36df a0bd 9f5a debd
00000040: 7876 af3e c63d ae3e 354f 8e3e 70a7 22bd
00000050: 643b dd3e 6e22 aa3e e843 56bf 3a5c 733e
00000060: 93e1 3dbf e7b0 8fbe 964f 123f 9c6a a1bf
00000070: 0c4e e53e e8c3 5f3e 6b93 933f 07fe 53bf
00000080: 4ed2 e83e aa63 73bf 5a40 0dbd aedd cbbf
00000090: f980 d73e 0a7a de3e 6820 c53e f7b5 ed3e
000000a0: 587e d63e 95f0 d9bd bf9a 0dbd b6e1 34bf
000000b0: 34f8 78bf 545f 9a3e 711a b73e da59 983e
000000c0: 2b17 833d 525e 4bbf d3dd ccbe bd2a bebe
000000d0: fe4b e5be 3d80 903f 076f 85be 36ed 75be
000000e0: 865b 0dbf bac7 653f f825 8a3f 7859 1bbe
000000f0: 79fe 463f dadb 5dbc 8490 56be 9ea0 6b3f
00000100: eca0 463c 92b3 a6bd ab3e 52be 1ec7 c4be
00000110: 2721 58be 634a 68bd 1392 cabe 8eb9 e6be
00000120: b94d 4f3f 648f d5be 3c16 4f3f 8fa6 d23e
00000130: bee2 d4be 3502 993f cbec 01bf 8169 7fbe
00000140: 35eb 82bf da7e 1a3f f77a d5be 9028 533f
00000150: 0b75 5dbd 8cf3 e13f c934 d1be f22c 02bf
00000160: f085 d2be be0a ecbe 9621 02bf 1ef9 e2bd
00000170: be58 dabc 98a2 2e3f 92d8 8e3f fbfe 53be
00000180: b8c0 30be 6557 c8be 7080 b63d f6f9 223f
0.4343978 0.40217125 0.49296668 -1.0620434 0.18225512 0.45462322 0.42851326 -0.8984368
-0.8970702 0.2821629 -0.7324527 -0.03360826 0.36552653 -1.0466676 -0.07855074 -0.10857128
0.34270072 0.34031504 0.27794805 -0.039710462 0.43209374 0.33229393 -0.83697367 0.2376565
-0.74172324 -0.28064653 0.5715269 -1.261066 0.44786108 0.21852076 1.1529363 -0.8280949
0.4547295 -0.9507395 -0.0344852 -1.5927026 0.42090586 0.43452483 0.38501287 0.4642789
0.41893268 -0.106415905 -0.034571406 -0.7065691 -0.9725373 0.30150855 0.3576236 0.2975605
0.06400903 -0.79440796 -0.40012988 -0.37141982 -0.4478454 1.1289135 -0.2606127 -0.2401627
-0.5521778 0.89757884 1.0792837 -0.15170848 0.77732044 -0.013541186 -0.20953566 0.9204196
0.012123328 -0.08139719 -0.20531718 -0.38433164 -0.21106397 -0.056711566 -0.3956457 -0.45063442
0.8097797 -0.4171096 0.808933 0.411427 -0.4157924 1.1953799 -0.5075194 -0.2494259
-1.022803 0.6034981 -0.41695377 0.8248377 -0.0540667 1.765245 -0.40860584 -0.5084983
-0.4111781 -0.46101946 -0.508325 -0.110826716 -0.026653644 0.6821685 1.1159842 -0.20702736
-0.17261016 -0.39129177 0.08911216 0.6366266

fc4.bias f4 [2]
00000000: 4428 09be bb56 0ebe
-0.13394266 -0.13900273
